optuna/best_enc.pt (torch, 478239 bytes, 4 tensors)

encoder.0.weight f4 [195, 600]
0	0x3bd91151	0.0066243787
1	0x39d54937	0.00040681075
2	0xbce7b2b9	-0.028283464
3	0x3be8c43b	0.0071034706
4	0x3bb83b22	0.0056222836
5	0x3c48f3d5	0.012265165
6	0x3c351935	0.011053373
7	0x3ce434bb	0.027857175
8	0x3d7cb1b0	0.061692894
9	0x3cc76393	0.024339473
10	0x3d091eb5	0.03347655
11	0x3d02080a	0.031745948
12	0x3d0fb835	0.035087783
13	0x3c58588b	0.013204704
14	0x3c52e6e9	0.012872436
15	0xbb5c7615	-0.0033639718
16	0xbccf134d	-0.025277758
17	0xbd206822	-0.03916181
18	0xbd107252	-0.035265274
19	0xbd90fdf8	-0.07079691
20	0xbd9a5d36	-0.0753731
21	0xbdad0ece	-0.084500894
22	0xbdb7ad36	-0.08968584
23	0xbdeae4b9	-0.11469407
24	0xbdd0df5a	-0.10198851
25	0xbe034f80	-0.12823296
26	0xbde69daf	-0.112605445
27	0xbd89df9a	-0.06732102
28	0xbd3438e5	-0.04399957
29	0xbd0d2926	-0.03446307
30	0xbcd21e67	-0.025649263
31	0xbd10d035	-0.03535481
32	0xbd60ca56	-0.054880463
33	0xbdaa8a15	-0.08327118
34	0xbdc2ac52	-0.09505524
35	0xbdb16b23	-0.08663013
36	0xbdab7518	-0.08371943
37	0xbda97e3d	-0.08276031
38	0xbdad1346	-0.08450942
39	0xbd890299	-0.066899486
40	0xbd43856c	-0.047734663
41	0xbcf6f275	-0.03014491
42	0xbcb396ed	-0.021922553
43	0xbc81739d	-0.015802199
44	0x3bc7da8f	0.0060990523
45	0xbb90a79c	-0.004414512
46	0xbb0106c6	-0.0019687875
47	0xbb908a1a	-0.0044109942
48	0xbbd1ce6b	-0.006402781
49	0xbc07deb0	-0.008292839
50	0xbc9e2c97	-0.019308371
51	0xbc4b86fc	-0.0124223195
52	0xbc025b8c	-0.007956397
53	0x3bab9b2d	0.0052370043
54	0x3cde0d7e	0.027106043
55	0x3d273ea0	0.04083121
56	0x3da53d96	0.08068387
57	0x3db4dda3	0.08831336
58	0x3e04272d	0.1290557
59	0x3dd3a186	0.103335425
60	0x3c576bb8	0.013148241
61	0x3cc56cf5	0.024099806
62	0x3cec4f98	0.028846547
63	0x3d35eadb	0.04441343
64	0x3d43473a	0.04767535
65	0x3da8de87	0.08245569
66	0x3e07cb36	0.13261113
67	0x3e05806b	0.13037269
68	0x3e059922	0.13046697
69	0x3deb8f7b	0.11501976
70	0x3d807ca0	0.0627377
71	0x3d221f60	0.039580703
72	0x3d5b4345	0.05353095
73	0x3d94db19	0.07268352
74	0x3dbb3be2	0.09142281
75	0x3d98d74e	0.07462941
76	0x3d3acf90	0.045608103
77	0x3d62ac21	0.055339936
78	0x3bcc5e91	0.006236859
79	0xbd1d138e	-0.038348727
80	0xbd32b7db	-0.04363237
81	0xbd48d6bd	-0.049032915
82	0xbd885a82	-0.06657888
83	0xbd5971ef	-0.05308717
84	0xbd218101	-0.03942967
85	0xbcca66cd	-0.024707222
86	0x3c12ba50	0.008955553
87	0x3d264480	0.04059267
88	0x3daa5e12	0.08318724
89	0x3daf9f10	0.08575261
90	0x3da74bff	0.08168792
91	0x3d0fe24f	0.035127934
92	0x3aa0090f	0.0012209731
93	0xbd3b33e5	-0.045703787
94	0xbd9912b5	-0.07474271
95	0xbda906d4	-0.082532555
96	0xbda31e9b	-0.07964822
97	0xbd94b5c3	-0.07261231
98	0xbd941d4e	-0.07232152
99	0xbda97b1a	-0.08275433
100	0xbd8ea77d	-0.069655396
101	0xbd457810	-0.048210204
102	0xbd57f015	-0.052719194
103	0xbd7851f5	-0.060625035
104	0xbd8497c4	-0.064742595
105	0xbd9c1b04	-0.0762234
106	0xbdad4a3d	-0.084614255
107	0xbdc5c966	-0.09657554
108	0xbdd2b4ef	-0.102884166
109	0xbde4f749	-0.111799784
110	0xbde6329c	-0.11240122
111	0xbdc9a082	-0.098450676
112	0xbddb2214	-0.10699859
113	0xbdd48cf3	-0.103784464
114	0xbdcff1c0	-0.10153532
115	0xbdba2538	-0.0908913
116	0xbdb18fe1	-0.08670021
117	0xbd93e5f1	-0.07221592
118	0xbd1d56b2	-0.038412757
119	0xbc97f20a	-0.01854803
120	0x3d540d40	0.05177045
121	0x3d3e3357	0.04643568
122	0x3cfff932	0.031246755
123	0x3d41f12e	0.047349147
124	0x3d01b960	0.031670928
125	0x3d1bb222	0.038011678
126	0x3d9978d8	0.07493752
127	0x3d999384	0.074988395
128	0x3da7cded	0.08193574
129	0x3d56b807	0.052421596
130	0x3d8219af	0.06352555
131	0x3db87422	0.090065256
132	0x3d77e5b3	0.060521793
133	0x3d2c3ee2	0.042052157
134	0x3c76e1c2	0.015068473
135	0x3cea89f4	0.028630234
136	0x3d2b76c6	0.041861318
137	0x3c852dbf	0.016257165
138	0xbd18c039	-0.037292693
139	0xbd48ba8f	-0.04900604
140	0xbd86c6af	-0.06580865
141	0xbdc58cee	-0.09646021
142	0xbddb2898	-0.10701102
143	0xbdef28c0	-0.11677694
144	0xbdcbfd06	-0.0996037
145	0xbdac26f1	-0.08405865
146	0xbd6ada3b	-0.057337027
147	0xbd4c06e2	-0.04981125
148	0xbd30ea11	-0.043191973
149	0xbd409de1	-0.047025565
150	0xbd355a2f	-0.04427546
151	0xbd561796	-0.052268587
152	0xbda16039	-0.07879681
153	0xbdaa3f6a	-0.083128765
154	0xbd9656df	-0.07340788
155	0xbd7f6ec9	-0.062361512
156	0xbccc784b	-0.024959704
157	0xbbd4e472	-0.0064969594
158	0xbb4f3288	-0.0031615812
159	0xbbaeeb43	-0.005338104
160	0x3b19691b	0.0023408595
161	0x3cb3dc21	0.021955552
162	0x3cc82fad	0.024436796
163	0x3cecce0f	0.02890685
164	0x3d211f95	0.03933676
165	0x3d12c234	0.035829738
166	0x3ca66821	0.020313324
167	0x3c80a4ff	0.015703676
168	0x3c6aa644	0.014321867
169	0x3c80a86e	0.015705314
170	0x3c919832	0.017772768
171	0x3ca38661	0.019961538
172	0x3ce7a463	0.028276628
173	0x3cf5723c	0.029961698
174	0x3cce4ad9	0.025182175
175	0x3c93771b	0.01800113
176	0x3d211e85	0.039335746
177	0x3d7f3c39	0.062313292
178	0x3d7f7a37	0.062372413
179	0x3d90945f	0.070595495
180	0x3c7b83f0	0.015351281
181	0x3d39c9d4	0.045358494
182	0x3d2b7aea	0.041865267
183	0x3db71cc0	0.089410305
184	0x3dc1225c	0.09430382
185	0x3dc78df5	0.09743873
186	0x3e162dec	0.14665955
187	0x3e24ce85	0.16094406
188	0x3e2560d9	0.16150226
189	0x3e2a6b0c	0.16642398
190	0x3e086fb2	0.13323858
191	0x3db44a99	0.08803291
192	0x3d8238f0	0.06358516
193	0x3cb9c69a	0.022677708
194	0x3d1bab4a	0.03800515
195	0x3d62ce1c	0.055372342
196	0x3c94017b	0.018067112
197	0xbceadf86	-0.028671037
198	0xbcd80cb5	-0.026373247
199	0xbd5369e2	-0.05161465
200	0xbd1226d5	-0.035681564
201	0xbd0c0512	-0.034184523
202	0xbd302753	-0.043006252
203	0xbd38ab61	-0.045085315
204	0xbcea653e	-0.02861273
205	0xbb9e2081	-0.004825652
206	0x3c94b281	0.018151524
207	0x3cbf1e47	0.023329867
208	0x3d1b1aef	0.037867483
209	0x3d842022	0.06451441
210	0x3d4a6d1e	0.04942047
211	0x3c136541	0.008996309
212	0xbc75abb0	-0.014994547
213	0xbd3fefd9	-0.046859596
214	0xbd8336b1	-0.06406916
215	0xbd88538b	-0.066565596
216	0xbd85d163	-0.06534078
217	0xbd6d35b1	-0.057912532
218	0xbd81a337	-0.06329959
219	0xbd6a0235	-0.05713101
220	0xbd5694c7	-0.05238798
221	0xbd0834ab	-0.033253353
222	0xbd10c77b	-0.03534649
223	0xbd27eb97	-0.04099616
224	0xbd478675	-0.048712213
225	0xbd63c066	-0.055603407
226	0xbd62717f	-0.05528402
227	0xbd65e810	-0.056129515
228	0xbd6244c3	-0.055241358
229	0xbd7a2064	-0.061066046
230	0xbd5f42f3	-0.054507207
231	0xbd712c02	-0.05887986
232	0xbd9b3e90	-0.07580292
233	0xbd99b7ab	-0.07505735
234	0xbd727a0f	-0.059198435
235	0xbd4d4bc5	-0.050121088
236	0xbd3b204b	-0.045685094
237	0xbd270d3f	-0.040784117
238	0xbc949151	-0.018135699
239	0xbc006774	-0.007837165
240	0xbba46e5b	-0.005018038
241	0xbc38ca95	-0.011278768
242	0x3c92b190	0.017906934
243	0x3d3d4ad3	0.046213936
244	0x3d734766	0.059394263
245	0x3d38f4d8	0.045155376
246	0x3d6a40c5	0.057190675
247	0x3d9e4e87	0.07729822
248	0x3da0044c	0.078133196
249	0x3db8976c	0.090132564
250	0x3deac616	0.11463563
251	0x3e27e4d3	0.16395883
252	0x3e32a827	0.17446958
253	0x3e19935c	0.1499762
254	0x3dac0ab0	0.08400476
255	0x3c9db900	0.019253254

encoder.0.bias f4 [195]
0	0xbbb54df8	-0.0055329762
1	0x3db13401	0.08652497
2	0x3e1fc87c	0.15603822
3	0x3da52bc1	0.08064986
4	0x3df4a44a	0.11945398
5	0x3dfca906	0.12336926
6	0x3de56dec	0.112026066
7	0x3d5fba39	0.054620955
8	0xbca2522c	-0.019814573
9	0x3d7cbdac	0.061704323
10	0xb9dd585c	-0.00042218238
11	0x3e09f35c	0.1347174
12	0x3e01bd31	0.12669827
13	0x3dfef639	0.12449307
14	0xbc0e98ef	-0.008703454
15	0x3dd71702	0.10502435
16	0xbb737cf6	-0.003715334
17	0x3d470d8a	0.048596896
18	0x3dfe0b8a	0.12404545
19	0x3e08cf19	0.13360251
20	0x3de8bc86	0.11364083
21	0x3ba00e79	0.004884538
22	0xbb452649	-0.0030082634
23	0x3d9a721d	0.07541297
24	0x3d690735	0.05689164
25	0x3df9407f	0.12170505
26	0x3e261613	0.16219358
27	0x3d8de7a1	0.06928945
28	0x3dd74129	0.10510475
29	0x3e332518	0.17494619
30	0x3dd391cf	0.10330545
31	0x3c8cf349	0.017205851
32	0x3dc11aa5	0.0942891
33	0xbb9c9dd3	-0.0047795563
34	0xbc0b9216	-0.008518716
35	0x3dd56a2f	0.104206435
36	0xbb782bef	-0.0037867983
37	0x3dde8be6	0.10866527
38	0x3e0142bf	0.12623118
39	0xbd2eb28f	-0.042650755
40	0x3d37917f	0.04481649
41	0x3e0ed2a6	0.13947544
42	0x3d59a568	0.05313626
43	0x3d80bcb0	0.06285989
44	0x3d94d65b	0.072674476
45	0xbceede39	-0.029158698
46	0xbe25cad2	-0.16190651
47	0x3df2335a	0.11826201
48	0x3df1a8e1	0.11799789
49	0x3de8568f	0.11344635
50	0x3da4dea1	0.080502756
51	0x3ddee7ce	0.10884057
52	0x3e1594e5	0.1460758
53	0x3c980129	0.01855524
54	0x3a4e718e	0.00078751973
55	0x3dc2add3	0.095058106
56	0xbd3d3829	-0.046196137
57	0x3da50803	0.08058169
58	0xbc5fd8c2	-0.013662519
59	0x3dafed62	0.08590199
60	0x3e231e43	0.15929513
61	0x3dc43a17	0.09581392
62	0xbcb84046	-0.022491585
63	0x3df8eea7	0.12154894
64	0x3df58bf7	0.11989587
65	0x3e171a22	0.14756063
66	0x3d92df79	0.0717153
67	0x3a683e11	0.0008859346
68	0x3e1cfdf5	0.15331252
69	0x3dc78dea	0.09743865
70	0x3de81e0b	0.11333855
71	0x3db1bf90	0.08679116
72	0x3dda6c19	0.10665149
73	0x3ddf404f	0.10900938
74	0x3d338623	0.043829095
75	0xbc94accb	-0.0181488
76	0x3dd4405b	0.10363837
77	0x3a0af086	0.0005300123
78	0x3d087263	0.033312213
79	0x3df4759c	0.11936495
80	0x3d8e385b	0.06944343
81	0xbcbef452	-0.02330986
82	0x3ddf9ed4	0.10918966
83	0x3d8b0a1b	0.06789037
84	0x3dda03cc	0.106452554
85	0x3e0cb231	0.1373985
86	0x3dce48b1	0.100724585
87	0xbc009cfa	-0.007849926
88	0xbc900e78	-0.017585024
89	0x3dbcfa15	0.09227387
90	0x3a3e7832	0.00072658353
91	0x3d934735	0.07191316
92	0xbd307060	-0.04307592
93	0x3dee1d4b	0.11626681
94	0x3d047bfe	0.03234481
95	0x3d85fc46	0.06542258
96	0xbbd9a9f2	-0.0066425735
97	0xbc559250	-0.013035372
98	0x3dd61345	0.10452894
99	0x3dc1a5c6	0.09455447
100	0xbbbe4160	-0.005806133
101	0x3ccca8d7	0.024982853
102	0x3dfe8672	0.12427987
103	0x3dd3e87e	0.10347079
104	0x3e106a91	0.14103152
105	0x3df9e7ff	0.12202453
106	0x3dcd4e44	0.100246936
107	0x3d789bfb	0.06069563
108	0x3d692c0a	0.056926765
109	0x3dbf398c	0.09337148
110	0x3dc4072c	0.095716804
111	0x3df1fa8b	0.118153654
112	0x3d99a0d7	0.07501381
113	0x3db799de	0.08964895
114	0xbd0a21b4	-0.033723548
115	0x3db7f859	0.089829154
116	0x3ded1cb2	0.11577739
117	0x3ddf4ca7	0.10903292
118	0xbb9b6671	-0.0047424366
119	0x3dfc8b28	0.123312294
120	0xbbe82ead	-0.0070856423
121	0x3df035a5	0.11728982
122	0x3db4ffcb	0.08837851
123	0x3dc4adb8	0.09603447
124	0x3dbcb9d7	0.09215134
125	0x3dbb45af	0.091441505
126	0x3ce01161	0.027352037
127	0x3dfd7c37	0.12377208
128	0xbcedc578	-0.029024825
129	0xbbffa727	-0.0078019085
130	0xbcebd79d	-0.028789336
131	0x3ddec185	0.10876755
132	0xbc98fb7c	-0.018674605
133	0x3db6a1fb	0.08917614
134	0x3c0d45ad	0.008622569
135	0x3de95f61	0.11395145
136	0x3dde0215	0.10840241
137	0x3dd8c66b	0.1058472
138	0x3e07ba4d	0.13254662
139	0x3dd47fcf	0.1037594
140	0x3db9f3fc	0.090797395
141	0xbcca1d82	-0.024672274
142	0x3d8d2deb	0.06893524
143	0x3d8d3dee	0.06896578
144	0x3e042163	0.12903361
145	0xbc646dc1	-0.013942183
146	0xbce6e5ef	-0.028185813
147	0x3de98a4a	0.1140333
148	0x3e0c7ca8	0.13719428
149	0x3df3a7a8	0.11897212
150	0xbc77158f	-0.015080824
151	0x3da7ccf6	0.0819339
152	0x3df2bb25	0.11852101
153	0x3e0f8ba8	0.14018118
154	0x3dc3b69a	0.09556313
155	0x3da80a2f	0.08205067
156	0xbac25034	-0.0014824928
157	0x3df97bbc	0.121818036
158	0x3e0bc0eb	0.13647811
159	0x3e063036	0.13104329
160	0x3e05347e	0.13008305
161	0x3dfa47a8	0.122206986
162	0x3de725e4	0.11286524
163	0x3ded249f	0.115792505
164	0x3df8625f	0.12128138
165	0xbb49c5c5	-0.0030788046
166	0x3b401950	0.0029311962
167	0xbaa26ebc	-0.001239262
168	0x3cbc0160	0.022949874
169	0x3e08b5c0	0.13350582
170	0xbd09ebb4	-0.03367205
171	0x3e023ae2	0.12717775
172	0xbd12f2e2	-0.035876162
173	0x3e117b3f	0.14207171
174	0x3e2cadf5	0.16863234
175	0x3bb37c76	0.0054774834
176	0xbdb304b1	-0.08741129
177	0xbd254359	-0.04034743
178	0x3db07bcb	0.08617362
179	0x3d99b778	0.07505697
180	0x3d941317	0.072302036
181	0x3d74f499	0.05980358
182	0xbcf91c5c	-0.03040903
183	0x3dfa809d	0.12231562
184	0xbce2b828	-0.027675703
185	0x3e03b146	0.12860593
186	0x3e10e39c	0.14149326
187	0x3e26a0fa	0.16272345
188	0x3d94eac7	0.07271343
189	0xbb8c746c	-0.0042863395
190	0x3e01b42a	0.12666383
191	0xb9e3c133	-0.0004344076
192	0x3dfdb5d1	0.12388194
193	0x3dc919d2	0.09819378
194	0x3c256b5b	0.010096396

encoder.3.weight f4 [10, 195]
0	0xbc85a886	-0.01631571
1	0x3d0298e2	0.03188408
2	0x3d80a8fe	0.06282233
3	0x3d1d74b3	0.03844137
4	0x3dab41d0	0.08362162
5	0x3cfe0671	0.03100893
6	0x3d2ba16d	0.041901994
7	0xbd2a9355	-0.041644413
8	0x3d810218	0.062992275
9	0xbe0e3634	-0.13887864
10	0x3d3df0fc	0.0463724
11	0x3d8c2101	0.068422325
12	0xbceb8203	-0.028748518
13	0x3dbba6a0	0.091626406
14	0x3e156ed0	0.14593053
15	0x3e20e55c	0.15712494
16	0x3d2cd6db	0.04219709
17	0x3d02113f	0.03175473
18	0xbe133eb7	-0.14379393
19	0xbd635543	-0.055501234
20	0x3c59c04e	0.013290478
21	0x3d9eeeaf	0.07760369
22	0x3e664e5c	0.22490829
23	0xbb6e0298	-0.0036317464
24	0x3d418ff8	0.04725644
25	0x3b884f64	0.0041598547
26	0x3c8c18bd	0.01710164
27	0x3c4a4a64	0.012346838
28	0xbdc4a150	-0.096010804
29	0xbcb29dc1	-0.021803739
30	0x3bcdcba9	0.0062803817
31	0x3dc8e2d5	0.0980889
32	0xbcc99378	-0.024606451
33	0x3d9273aa	0.071509674
34	0x3d58b21a	0.052904226
35	0x3cf1f773	0.029536938
36	0x3d84e83c	0.06489608
37	0xbd1278ef	-0.035759863
38	0xbdd06b0e	-0.10176669
39	0x3cc65797	0.024211688
40	0x3c6d53b8	0.014485292
41	0x3d2bb73d	0.041922797
42	0x3dd741e4	0.105106145
43	0xbace0ff2	-0.0015721305
44	0x3e1b547c	0.15168947
45	0x3d822cee	0.06356226
46	0x3e1dd905	0.15414818
47	0xbc38e0fc	-0.011284109
48	0x3d157d91	0.036496703
49	0x3e08f536	0.1337479
50	0xbd8f9d32	-0.070124045
51	0x3df7627b	0.120793305
52	0xbac34821	-0.0014898815
53	0x3dc5f2bf	0.09665441
54	0x3d1614b1	0.036640827
55	0xbced1c6b	-0.028944215
56	0x3d82e5b3	0.06391468
57	0x3d06bef2	0.032896943
58	0x3c9e3dfc	0.019316666
59	0xbc801a4a	-0.015637536
60	0xbd8f94ff	-0.070108406
61	0x3cf93e3d	0.030425185
62	0xbcf73ebe	-0.030181285
63	0x3d6f55e7	0.058431532
64	0x3dcd1705	0.10014156
65	0x3d970f64	0.073759824
66	0x3d03082d	0.03199022
67	0x3e29eb02	0.16593555
68	0xbceaa66e	-0.028643813
69	0xbd9eaed5	-0.0774819
70	0xbd6a2fdb	-0.057174545
71	0xbcf8cd27	-0.030371262
72	0x3cdee3ae	0.027208176
73	0x3b674b4d	0.0035292685
74	0xbd2361a3	-0.039888036
75	0x3de4d121	0.11172701
76	0x3c395c89	0.011313566
77	0x3e63fe61	0.22265007
78	0x3dbbb523	0.091654085
79	0xbd0b631a	-0.034030057
80	0xb98964d6	-0.00026205805
81	0x3d26d21c	0.04072772
82	0xbdb4c08b	-0.08825787
83	0x3d054505	0.032536525
84	0x3d4b9a42	0.04970766
85	0xbc843343	-0.016137725
86	0xbd469d88	-0.048490077
87	0x3d930d7a	0.07180305
88	0x3e132c86	0.14372453
89	0x3c59db3c	0.013296898
90	0x3e14083c	0.14456266
91	0x3d78e7ae	0.060767822
92	0x3d8cd99b	0.068774424
93	0x3c9409ce	0.018071081
94	0x3afa8d35	0.0019115569
95	0x3d2766a7	0.04086938
96	0x3da047cc	0.07826194
97	0xbd1611a1	-0.036637906
98	0xbcccb0c2	-0.024986628
99	0xbe04db3e	-0.1297426
100	0x3e08bb07	0.13352595
101	0x3da89d07	0.082330756
102	0x3de0196a	0.10942347
103	0xbd4b67cd	-0.04965954
104	0xbdfc4b7d	-0.12319086
105	0x3d4b7b10	0.04967791
106	0xbd9497ab	-0.07255491
107	0x3c8faa58	0.01753728
108	0xbbb16fe8	-0.0054149516
109	0xbba6e5cb	-0.0050933114
110	0x3da09e59	0.078427024
111	0x3d69ab6e	0.057048254
112	0x3ce18972	0.02753136
113	0x3cb35cdf	0.02189487
114	0x3db82dd2	0.089931145
115	0xbdb71fa7	-0.08941584
116	0x3d5a9868	0.053368002
117	0xbda517c9	-0.08061177
118	0x3e236bd1	0.15959097
119	0xbde0bb77	-0.10973256
120	0x3dac2760	0.08405948
121	0xbdd3ac15	-0.103355564
122	0xbc4f19f8	-0.012640469
123	0xbd25e77e	-0.04050397
124	0xbd4f7f08	-0.050658256
125	0x3c909a35	0.017651657
126	0x3cceaffe	0.025230404
127	0x3ca6cc4c	0.020361088
128	0xbb1de584	-0.00240931
129	0x3df7afd1	0.12094081
130	0xbc26653d	-0.010155973
131	0xbd2960f3	-0.041352224
132	0x3e260d27	0.16215955
133	0x3c5385ca	0.012910316
134	0x3d46e940	0.04856229
135	0xbbeb55be	-0.007181852
136	0xbc576cbb	-0.013148482
137	0xbdb84927	-0.08998328
138	0xbcaf02b9	-0.021363603
139	0x3b4bbfdb	0.0031089697
140	0x3d38817b	0.045045357
141	0xbd29fa8c	-0.041498706
142	0x3d49d327	0.049273636
143	0x3b83f697	0.0040271985
144	0xbd672cf7	-0.056439366
145	0x3cb2226c	0.02174493
146	0x3db23f21	0.08703447
147	0xbcbf9aa4	-0.023389168
148	0xbca2c903	-0.01987124
149	0xbd93f505	-0.07224468
150	0x3bba1f46	0.0056799976
151	0x3d065ef3	0.032805394
152	0xbdc69901	-0.09697152
153	0xbc81e1e3	-0.015854781
154	0x3dec4635	0.115368284
155	0x3c339b31	0.0109622935
156	0x3e63ae13	0.22234373
157	0xbdac939e	-0.08426593
158	0xbdb531f9	-0.08847422
159	0x3d84ae98	0.064786136
160	0xbd267145	-0.040635366
161	0xbc764faf	-0.0150336465
162	0x3d08a04f	0.033356007
163	0xbde8190e	-0.11332904
164	0x3dd0e643	0.10200169
165	0x3de37de6	0.111079976
166	0x3d907763	0.07054021
167	0x3da9c0de	0.082887396
168	0x3d4eb5f2	0.050466485
169	0xbdf75cfa	-0.12078281
170	0x3da2cef1	0.07949627
171	0x3d2ed9c3	0.042688143
172	0x3cdaef76	0.026725512
173	0x3d9caab9	0.0764975
174	0xbc3a060d	-0.011353982
175	0x3dd305cc	0.1030384
176	0x3daf6a18	0.08565158
177	0x3e238ea8	0.15972388
178	0xbaf7ab16	-0.0018895592
179	0xbcc072d1	-0.023492249
180	0x3d86a015	0.06573502
181	0x3d185d4a	0.037198342
182	0xbd27a0d6	-0.04092487
183	0x3dd8332c	0.10556635
184	0x3d903c1b	0.07042714
185	0xbda7567a	-0.08170791
186	0x3d04f27d	0.032457817
187	0xbd88433a	-0.066534474
188	0x3d5f8ddc	0.054578647
189	0x3cf22baf	0.029561846
190	0x3df6ad5c	0.120447844
191	0x3ce5ca37	0.028050525
192	0x3d1fbf3b	0.03900073
193	0xbdb9afc5	-0.090667285
194	0x3d0956a7	0.033529904
195	0xbde3f41e	-0.11130546
196	0xbd0d3537	-0.034474578
197	0xbc0da31e	-0.008644847
198	0xbd4d6d2b	-0.05015294
199	0x3d3ba6cf	0.045813378
200	0x3d2bc7a6	0.041938446
201	0x3d519028	0.05116287
202	0xbd820e2c	-0.06350359
203	0xbdef75fc	-0.116924256
204	0xbd075154	-0.033036545
205	0xbc9794fc	-0.018503658
206	0x3b972b72	0.0046133334
207	0x3d67515c	0.056474075
208	0x3d00c8d6	0.031441532
209	0xbd771d06	-0.060330413
210	0x3d20ddec	0.03927414
211	0xbdf33a87	-0.118763976
212	0xbd8406e5	-0.064466275
213	0xbc3ba32b	-0.0114524765
214	0x3d125ef6	0.035735093
215	0x3c9682bc	0.018372886
216	0xbd806cd9	-0.06270761
217	0xbd7fb952	-0.062432595
218	0xbd4d9356	-0.05018934
219	0xbd898029	-0.06713898
220	0x3b99c97e	0.004693209
221	0x3cf05da5	0.029341528
222	0xbd60f86a	-0.054924406
223	0xbd1dee9a	-0.038557626
224	0x3ce13a74	0.027493693
225	0x3d84d878	0.06486601
226	0xbdb6be67	-0.08923035
227	0x3dd51f4f	0.10406362
228	0xbe096635	-0.13417895
229	0xbdded9ce	-0.10881387
230	0x3d0b820d	0.034059573
231	0xbd4efce4	-0.050534144
232	0x3d038cd5	0.03211673
233	0x3d540cc2	0.05176998
234	0x3c99c471	0.018770428
235	0xbd884c19	-0.066551395
236	0x3d4eda22	0.050500996
237	0x3be0fb3c	0.006865887
238	0x394d6938	0.0001958952
239	0xbbc66306	-0.006054285
240	0x3cff2baf	0.03114876
241	0xbb53ea30	-0.0032335632
242	0x3d8a4b93	0.06752696
243	0xbcf116b6	-0.029429775
244	0xbac843d1	-0.0015279
245	0xbd46c127	-0.04852405
246	0x3d6c9ca1	0.05776656
247	0x3d2f2d45	0.04276778
248	0xbddcf111	-0.10788167
249	0xbdd7abdb	-0.10530826
250	0xbbba3273	-0.0056822835
251	0xbdae1fae	-0.08502136
252	0xbd32b8cf	-0.04363328
253	0xbcd81bfe	-0.026380535
254	0xbd32ff36	-0.04370042
255	0xbbdbf3ca	-0.0067124115

encoder.3.bias f4 [10]
0	0xbd35974d	-0.044333745
1	0xbca72dad	-0.020407522
2	0xbda1b242	-0.07895328
3	0x3b2c0fdc	0.002625457
4	0xbd00c55a	-0.03143821
5	0xbe2ee142	-0.17078117
6	0xbece0ffa	-0.40246564
7	0xbe83c807	-0.25738546
8	0xbeabadc1	-0.33531
9	0xbe19eb27	-0.1503111
