models/VAE saves/best_acg_enc_v2.pt (torch, 87391 bytes, 4 tensors)

encoder.0.weight f4 [166, 100]
00000000: 1be4 e03c 14d1 b3bc 62c5 cbbc ae66 c2bc
00000010: b242 afbc 520b bfbc bfaf b3bc f024 a5bc
00000020: 43c8 98bc f8f3 a2bc 7186 98bc 29ac a9bc
00000030: 2f64 c1bc 0d62 b6bc 0e2d c3bc f56d b2bc
00000040: a817 b7bc 3cc7 b6bc 8479 b5bc 9567 abbc
00000050: 0919 b3bc f331 b8bc f655 aebc c90a b3bc
00000060: 6ee8 babc a1da b2bc 368e b0bc 10b2 bcbc
00000070: 7403 c0bc ebcb aebc c14a bbbc 3a3a bbbc
00000080: b49b bcbc 8b7a b2bc c67e c4bc 9ba4 b1bc
00000090: 227d c3bc 22ec b2bc 9aa6 babc 22df c0bc
000000a0: 6ea0 b7bc 9f91 bebc 0d35 aebc be07 adbc
000000b0: fbc0 bfbc 775c bebc 7eb8 b8bc d15b c0bc
000000c0: 2651 c3bc 0498 bdbc a996 b2bc 59f5 b3bc
000000d0: 9aae cebc a69c b6bc 8e8f a6bc dfc4 b4bc
000000e0: dda0 bbbc f83b acbc dab4 b5bc 610f c5bc
000000f0: 5fcd c2bc e3ab b6bc 8df3 afbc 23d7 cfbc
00000100: b227 bdbc 1918 b8bc 7a0c adbc 7535 c1bc
00000110: a590 bebc bf79 c4bc 681c c4bc c5e8 b4bc
00000120: 600d b8bc d17c c4bc f279 babc aed6 b5bc
00000130: 2367 c2bc 7dd2 c6bc 5a47 b3bc 614d c5bc
00000140: 4cf1 c5bc fe07 c6bc c0ea c6bc 5a10 c2bc
00000150: 4d79 bfbc 0585 d4bc 9e9b bdbc bc25 b4bc
00000160: 9a6e bbbc cd71 b4bc 8073 a8bc 9089 d0bc
00000170: e0f5 aebc 5566 ccbc 7814 b1bc e527 bcbc
00000180: 120d a8bc 8781 c2bc 7376 b6bc 256d cabc
00000190: 35d7 0c3f 0298 a0be 3671 a5be 269d a9be
000001a0: c60d 9dbe 9feb d8be f1a8 04bf f1c0 eabe
000001b0: 8a66 c0be 15a5 70be e096 d9bd 5843 3bbe
000001c0: a034 72be 2eff 58be 2d15 38be de1b 27be
000001d0: 132b 18be 2a30 19be 0bc4 13be 8d24 2cbe
000001e0: a281 3fbe 5985 51be 0334 62be bf48 6bbe
000001f0: 8ab2 73be 2747 83be 641c 8bbe 0eea 83be
00000200: b79f 75be 37d6 59be 06f2 3fbe e9d5 35be
00000210: 2bc3 2abe 0011 65be a47c 8bbe 5c75 89be
00000220: d74c 87be 1e4b 81be 7a08 7abe 4c38 abbe
00000230: 68c9 a1be 3417 bdbe 7613 7bbe a645 27be
00000240: 57eb 0ebd ac6e 9b3c 5f0a 3f3d 09ce 8a3d
00000250: 56c6 b03d 9f19 063e a8c8 213e c832 183e
00000260: 3c3b ed3d 576a 8a3d 1aae aa3c bcde 7e3d
00000270: 7d4d 693d 0abc 803d 89ef 903d 87d4 283d
00000280: a20b 40bd f11d 2bbd 5cee 6abd 1bc4 e1bd
00000290: a942 33bd 62df 9abc 1ecb 3c3d 44df cc3d
000002a0: 1471 d23d 3af1 093e eb86 1d3e 389d 363e
000002b0: 145b f83d fd60 fe3d 80a9 043e 6199 f53d
000002c0: 290a ca3d a921 073e b62a d83d 6dbe cb3d
000002d0: b2ff 6d3d eab7 dc3c e4cb 9e3c e7d7 9f3c
000002e0: 6591 9a3c 73bb ea3c 15d8 753d ee5a 193e
000002f0: c422 2a3e 9ea0 483e 4cbd 183e 259a 913d
00000300: f249 a93d d148 20bb 03d4 01bd 3fe9 23bb
00000310: 4f06 923d 8aa5 df3d be49 113e 7601 ff3d
00000320: 43de 4f3a 8513 a4bc 440b a9bc 510d 9cbc
00000330: 3b16 afbc 08cb 9fbc b1eb 9dbc 38ce a3bc
00000340: a104 a9bc 52e3 aabc 8c6a afbc 1c5a a1bc
00000350: 268f 9ebc 5b9b a9bc 0086 8ebc cf7c a4bc
00000360: 4a47 a4bc ddca b1bc 05a4 acbc 90bc a3bc
00000370: 4c36 a8bc 4cf3 a5bc d7ed b4bc 5c39 aabc
00000380: 8e38 acbc 5198 a8bc 4c6d 9cbc cbe7 aabc
00000390: 48b0 a4bc 3ac9 a9bc 5309 a3bc 6cea a0bc
000003a0: 4452 bfbc 9fa5 acbc 588f abbc 76a8 a1bc
000003b0: 79dd a9bc e895 9cbc acb8 b2bc e42b a3bc
000003c0: 7f81 99bc 6023 abbc 082c aebc 8e8b abbc
000003d0: bad9 a8bc d73f b2bc a5d8 a4bc d5a3 a6bc
000003e0: 60fe 9dbc e643 acbc 9728 aabc 5049 a8bc
000003f0: e0c4 a0bc f8a7 adbc 2f87 b0bc cb60 afbc
0.02745252 -0.021950282 -0.024874393 -0.023730602 -0.021394107 -0.023320828 -0.021934388 -0.020159215
-0.01865018 -0.019891724 -0.018618794 -0.020711975 -0.023607342 -0.022263551 -0.023825195 -0.021780947
-0.022350147 -0.0223118 -0.02215267 -0.020923415 -0.021862524 -0.022484755 -0.021281224 -0.021855729
-0.02281591 -0.021832766 -0.021552186 -0.023034126 -0.023439147 -0.02133747 -0.022862794 -0.022854913
-0.023023464 -0.021786949 -0.023986232 -0.021684935 -0.023863379 -0.021841113 -0.02278452 -0.023543898
-0.022415366 -0.023262797 -0.021265531 -0.021121856 -0.02340745 -0.02323745 -0.02254891 -0.023481281
-0.023842406 -0.023143776 -0.021800356 -0.021967577 -0.02522974 -0.022291493 -0.020332124 -0.022066532
-0.022903854 -0.02102469 -0.022180963 -0.024055185 -0.02377957 -0.022298759 -0.021478439 -0.02537114
-0.023090217 -0.022472428 -0.021124113 -0.02358506 -0.023262331 -0.023983834 -0.023939326 -0.02208365
-0.022467315 -0.023985298 -0.022763226 -0.022197094 -0.02373082 -0.02427029 -0.021884609 -0.024084749
-0.02416291 -0.024173733 -0.02428186 -0.023689438 -0.02337327 -0.025942335 -0.023145493 -0.02199065
-0.022879887 -0.02202692 -0.020562887 -0.02545622 -0.021357477 -0.02495114 -0.021616206 -0.022968242
-0.020514045 -0.023743404 -0.022273278 -0.024710247 0.5501588 -0.31365973 -0.32312936 -0.33127707
-0.3067457 -0.42367265 -0.51820284 -0.45850328 -0.3757823 -0.23500474 -0.1062448 -0.18287408
-0.23652887 -0.21191093 -0.17976828 -0.16319224 -0.14860182 -0.1495978 -0.14430253 -0.16810818
-0.18701795 -0.20461024 -0.22090153 -0.22976969 -0.23798576 -0.25640222 -0.27170098 -0.25764507
-0.23986708 -0.21273123 -0.18744668 -0.17757381 -0.16676013 -0.22369766 -0.2724353 -0.2684735
-0.26425812 -0.25252622 -0.24417296 -0.3344139 -0.31598973 -0.36931765 -0.24519143 -0.16335163
-0.034892406 0.01897367 0.04664075 0.06777579 0.086315796 0.13095711 0.157992 0.14863122
0.11583564 0.06758564 0.020834971 0.062224135 0.056958664 0.062858656 0.07076938 0.041218307
-0.046886094 -0.0417766 -0.057356223 -0.11023732 -0.043764744 -0.018905345 0.046092145 0.10003522
0.10275474 0.13470927 0.15383498 0.17833412 0.12126747 0.12420843 0.12955284 0.11992145
0.09865219 0.13196434 0.105550215 0.0994843 0.05810518 0.026943166 0.019384332 0.01951213
0.018868158 0.028653836 0.060020525 0.14976093 0.16614825 0.1959252 0.14915961 0.07109479
0.08266057 -0.0024457464 -0.03169633 -0.0025010852 0.071301095 0.10920246 0.14188287 0.124514505
0.0007929543 -0.020028839 -0.020635255 -0.019049319 -0.021372905 -0.019505993 -0.019277425 -0.019995794
-0.02063209 -0.020860348 -0.02141311 -0.019696288 -0.019355368 -0.020703962 -0.01739788 -0.020079045
-0.020053525 -0.021703178 -0.021074304 -0.019987375 -0.020533703 -0.020257615 -0.022086067 -0.020779304
-0.021023061 -0.020580443 -0.019095086 -0.02086248 -0.020103589 -0.020725835 -0.019901907 -0.019643031
-0.023354657 -0.021075068 -0.020942375 -0.019733649 -0.02073549 -0.01911445 -0.021816574 -0.01991839
-0.018738506 -0.020890892 -0.02126123 -0.020940568 -0.020611633 -0.021758957 -0.020122835 -0.020341793
-0.019286335 -0.02102847 -0.020771308 -0.02054277 -0.019625127 -0.021198258 -0.021548836 -0.02140846

encoder.0.bias f4 [166]
00000000: c693 ccbc 2d9d 7b3e 3563 abbc 6422 acbc
00000010: f30e c1bc e513 b3bc ac91 babc 80a9 bebc
00000020: f635 b4bc 2c42 853e 467d a1ba 4602 17bb
00000030: dc34 b1bc c083 303e 05b9 b6bc 4da9 bfbc
00000040: 3581 05bc 0e2a 0abe 7440 9dbc e42b b5bc
00000050: 479b 043e 25d0 acbc 8cb8 653e 1778 a4bc
00000060: 9513 b0bc 2a13 bebc 5198 abbc 90db 05bb
00000070: cf1a 9ebc db85 e03e 1ebb 5cbc d4c9 ccba
00000080: 0042 9e3d 1749 b3bc bdcd b7bc 1819 babc
00000090: 86df b8bc 5001 b1bc 7b6b 11be 7452 f9bc
000000a0: 339d 65bc f281 833e 7bfe 803e f445 5b3e
000000b0: 3784 b4bc 9fd4 aa3e 60cb c2b9 47b5 abbc
000000c0: 84e1 b4bc f848 ffbb b7c4 bb3e fbab 8ebb
000000d0: 4e8d b5bc e83f 1abe 87e3 b2bc c1a9 42bc
000000e0: d212 5fbe a415 afbc 5e85 beba 7636 633e
000000f0: 9d4d bcbc 0138 aabc 39f6 b1bb 255e c4bc
00000100: df90 b3bc c7c5 8cbc ea8e abbc 6b3e a2bc
00000110: f0e3 b8bc cd72 8ebc 0e96 a9bc d36f b6bc
00000120: f569 9dbc 2f22 aabc 749b cabc 0d00 483e
00000130: 0790 aebc 9d7b b7bc 0ba7 a8bc 3fdd 18be
00000140: c738 823e 4ca9 a8bc f9c3 b8bc daf9 2ebe
00000150: b299 0cbe 7cbe 53be 10aa babc 6d0e 623e
00000160: 30a9 b5bc c6b8 11be ae79 dcbc 8db4 b0bc
00000170: 137b 173d 7db8 35bc 78c6 b3bc a551 c9bc
00000180: e7c9 b7bc 614c 3d3e deb7 dfbc 3dc5 b9bc
00000190: 4e5e 9dbc 4a90 04be 8a1e e8bb 72a8 fdbc
000001a0: 01cc 7ebc c1b4 b3bc ee9c 0fbe 9d6e b1bc
000001b0: 84df b7bc 10ce b4bc fb6b babc 82cc 15be
000001c0: 7377 0ebe 169e bcbc 115d 8abc 40be 823e
000001d0: 5be0 6d3e b818 a4bc 35d8 b1bc a4bd 803e
000001e0: 1d88 bbbc 75d1 2cbb 25e9 a9bc 7eee 0cbd
000001f0: b0e4 75bc cd4f bbbc a647 acbc 7914 c1bc
00000200: 3204 3ebd bf19 0bbe 4db7 b2bc 737d ccbc
00000210: eaa0 aebc ffa3 8d3e 850f b6bc bc93 babc
00000220: 17d7 12be 445c ecbc ff8a 77bc c0f8 cabc
00000230: 84bc 91bd 57e7 b4bc 041b aebc 22ca bdbc
00000240: 6fbc a3bc 5a5f afbc 27b4 8bbc 5704 09be
00000250: e5e1 c5bc 1b5d b5bc 287f 09bb 849c b7bc
00000260: f704 02bd 441f cdbc 5735 a2bd 1acb 19be
00000270: 0125 563e 0e8b a0ba b226 bbbc cbb0 b8bc
00000280: d01e 793e 86d9 47bd 93a2 a0be 1855 a7bc
00000290: 4dce cabc 124a 46ba
-0.024972808 0.24571677 -0.020921329 -0.021012492 -0.023566699 -0.021860072 -0.02277454 -0.023274183
-0.021998387 0.26027048 -0.001232066 -0.0023042127 -0.02163165 0.17237759 -0.022305021 -0.023396159
-0.008148481 -0.13492605 -0.019195773 -0.022115655 0.12949859 -0.021095345 0.2243368 -0.020076795
-0.021493712 -0.023202498 -0.020946654 -0.002042506 -0.019299893 0.43852124 -0.013472347 -0.0015624114
0.07727432 -0.021885438 -0.02243697 -0.022717044 -0.022567522 -0.021607071 -0.14201157 -0.030434825
-0.01401453 0.25685078 0.25194153 0.21413404 -0.022035701 0.33365342 -0.0003715409 -0.020960463
-0.02208019 -0.007790681 0.3667352 -0.0043539978 -0.022162106 -0.15063441 -0.02183701 -0.011881293
-0.21784523 -0.021372624 -0.0014535596 0.22188744 -0.022986228 -0.020778658 -0.0054309634 -0.023970673
-0.021919666 -0.017184151 -0.02094217 -0.019805154 -0.022569627 -0.017388726 -0.020701434 -0.022270119
-0.019215563 -0.020768253 -0.024732329 0.1953127 -0.021308912 -0.02239781 -0.020587465 -0.14928149
0.25433943 -0.02058854 -0.022554385 -0.17087498 -0.13730505 -0.20678133 -0.02278617 0.22075815
-0.022175401 -0.14230642 -0.02691349 -0.021570468 0.036982607 -0.011091349 -0.021945223 -0.024575064
-0.022435142 0.18486167 -0.027309354 -0.022677058 -0.019210007 -0.12945667 -0.0070837187 -0.03096411
-0.015551568 -0.021936776 -0.14024708 -0.02165919 -0.022445448 -0.022070915 -0.022756567 -0.14628795
-0.13912754 -0.0230246 -0.01689008 0.25535774 0.23230116 -0.020031318 -0.02170954 0.25144684
-0.022892052 -0.0026369963 -0.020741055 -0.03440713 -0.015008137 -0.0228652 -0.021030258 -0.023569332
-0.04639072 -0.1358404 -0.02181592 -0.024962163 -0.021316964 0.27664182 -0.022224197 -0.022775523
-0.14339863 -0.02885259 -0.015108823 -0.024776816 -0.071160346 -0.022082968 -0.021253116 -0.023167673
-0.019987313 -0.021407772 -0.017053677 -0.13380562 -0.024155566 -0.022139123 -0.0020980332 -0.0224135
-0.031743016 -0.025039323 -0.0792033 -0.15018883 0.20912553 -0.0012248473 -0.0228456 -0.022545239
0.2432816 -0.04879143 -0.31374034 -0.020426318 -0.024756575 -0.0007564138

encoder.3.weight f4 [28, 166]
00000000: 1489 12bb a3ba bb3c 7b0a 013c 2b93 283d
00000010: 5b8a a43a f6fb 973b 80b1 0c3d 2c26 8abc
00000020: d9d3 ca3d b2fd a23c 123b 9dbc 23c0 8ebd
00000030: 8234 adbc eb41 783d 6ef7 e7bc 671f ca3c
00000040: f7b7 aa3d 48d3 953c e636 673d 972f 2f3d
00000050: 67a1 b83c 4bce 19bc fe5e 1ebd 62a6 9cbc
00000060: f9bf 1e3d e807 c7bc 1ce5 a53d 11cc 673d
00000070: 311e 23bd e898 a33a d0fd 483d 6336 8ebc
00000080: 8d79 11bd 32bc 713d b4bd b43b 4f4d 6e3d
00000090: 2ec9 c83d 85a4 af3d df08 c8bc 1fb4 ae3d
000000a0: aecf ec3c 47a3 3fbd 5a58 92bc 7341 1a3d
000000b0: 1162 b53d 5bfc 87bd e406 903d 2b94 bc3d
000000c0: 4604 843d 39fa deb7 f21e 983c d3da 02bc
000000d0: 608d 133d f87f a83c 7cce 7c3d 269f 8e3c
000000e0: 1dd4 553c 76bd fdbc 079c 79bd 8111 ae3d
000000f0: 7f5b 483c 8112 e13c 7f20 ccbc e350 41bd
00000100: 2dfd 0dbc 7559 313d 2ce2 813d e5d2 553d
00000110: 734b a83d 9d68 c03d 1fbe e63b 5a0e 853a
00000120: d6d2 673c 1f5b 55bd 0753 2b3d d419 28bc
00000130: c97c 4dbd 7e2c c1bc 4623 993d d752 cd3c
00000140: e926 8b3c 0686 183d 3562 1fbd b287 373b
00000150: b093 8d3c 5b2e 1bbd 7d73 dc3c 978b b63d
00000160: 5756 6b3d 8b0c c83d 35f3 5f3d 697c 47bd
00000170: 08ee 5c3d 0918 19bd 1810 803d 78d3 4abd
00000180: a771 1ebd b71f 5c3d 459c 973b f8b3 2fbc
00000190: 2ff3 adbc 5de2 983c 5c34 c63d 53bc be3d
000001a0: 9692 953b 5cb0 b7bc 9282 583b dcd2 18bb
000001b0: c339 d83c 706c 56bc e6ed e2bc 980c 823a
000001c0: 31ce d7bb 2c35 41bd 1958 0d3d 6268 fabc
000001d0: 176d 213e 12d1 843d 927c c5bc c299 50bc
000001e0: b26e b93d 1c35 9e3d 0241 23bd 840f 9d3d
000001f0: 826b 963d b761 a3bc 724b 37bd 9ec5 4d3d
00000200: 77ff af3c 20f3 37bc c37e 3c3d 93ae 29bd
00000210: 18aa c9bc 347e a93d e3d6 2e3c 6600 1e3d
00000220: 2219 803c 7f7b ee3c 6039 203c 9ab4 a33d
00000230: a95d 533d 9bcb 883d 9a20 a1bd 021c df3a
00000240: 9486 03bd 6ef3 9d3d 5ce7 093d a98e 87bc
00000250: 2126 c43d 76ad 233d 76fc 52bd 26ac 94bb
00000260: e978 dc3d 9c22 8f3c a322 55bd 831b 5bbc
00000270: f89a 163d ba3c 84bd 5904 5dbc fdaf 953d
00000280: 2149 033e e5b4 9dbd 6a0e e03c 0ba4 853d
00000290: f179 2abd f289 7abd 93d9 1b3d 6065 f73b
000002a0: 87e9 20bd c48b 8d3d f68d b63d 3ddd bf3d
000002b0: 0381 ad3d 4f23 903c 8511 c4bc 88ff 0b3e
000002c0: 10ce 203d 0ee9 923c dc3d 083d 080d 58be
000002d0: 428a 843c 8d56 c63d 8b25 863d 9555 1ebd
000002e0: f783 a63c 3bd4 673c dfeb 073d fe96 e43c
000002f0: 1e4a 663b 3472 28bd c7e6 a73c 9839 2abd
00000300: acf8 583d c83d 9abd 02f1 2d3d df4b 493a
00000310: fda1 56bd 11f4 efbc 33ff 50bc fd9f 4abd
00000320: 602d b63c fc16 22bd 4082 663d d52f 843d
00000330: 4c16 7e3b c458 6fbc 39a3 04bd 68bf 39bd
00000340: 1662 91bd 07ea 593e fb23 a53d c950 1f3a
00000350: 8984 5dbd 1260 803d 8aa2 3ebd 2a96 5a3d
00000360: 9b71 8dbd c5cb 62bd 0f71 b43d 14a1 0b3c
00000370: eb7b ff3c 1d7c d9bc 9642 97bc ea07 2d3d
00000380: e34e 093d c2ae 07be 6281 ad3d 3bac 52bd
00000390: 293f ff3c ede7 113d 89e0 1f3d d697 273c
000003a0: 68b0 843c 05c4 b6bc d3ee 58bd f1c0 923d
000003b0: de31 70bc e8ee c0bc 517f 543d da49 af3d
000003c0: 0679 ccbc 38ac 96bd f34b 2abd fb19 9e3b
000003d0: ed22 823b 16b8 31bb 7712 91bc 8ee0 fd3c
000003e0: e15b 5e3d 0fce 95bc 3da2 cb3c c53f 8bbb
000003f0: d938 af3c d5f1 a13a ba74 8f3d c175 b03c
-0.0022359537 0.022916144 0.007876034 0.041155975 0.001255344 0.0046381904 0.034348965 -0.016863905
0.09903688 0.019896362 -0.019193206 -0.06970241 -0.021143202 0.06060974 -0.028316226 0.024673177
0.0833587 0.018289223 0.05644884 0.042769995 0.0225379 -0.009387563 -0.03866481 -0.019122306
0.0387573 -0.024295762 0.0810034 0.056591097 -0.039823715 0.0012481483 0.04907018 -0.017359918
-0.03551631 0.059017368 0.0055157784 0.058179196 0.09803997 0.085763015 -0.024418293 0.08530449
0.028907623 -0.046786573 -0.017864395 0.037660073 0.08856595 -0.0663993 0.07032564 0.09207948
0.064461276 -2.6580981e-05 0.018569443 -0.007986742 0.036023498 0.020568833 0.061720356 0.017409872
0.01305106 -0.030974131 -0.060939815 0.08499432 0.012228846 0.027474644 -0.02491784 -0.04719628
-0.008666319 0.043298203 0.06341967 0.052203078 0.08217516 0.093949534 0.007041707 0.0010151372
0.014149388 -0.052088853 0.041827228 -0.010260064 -0.050167833 -0.023580786 0.07477431 0.025063915
0.016986327 0.03723719 -0.038912017 0.0028004465 0.017282337 -0.037886005 0.026910538 0.089133434
0.057455387 0.097680174 0.0546753 -0.04870263 0.05393794 -0.037376437 0.0625307 -0.04951808
-0.038682606 0.053741183 0.004626783 -0.01072406 -0.021234123 0.018662626 0.096779555 0.09313264
0.0045645935 -0.022422962 0.003303681 -0.0023319041 0.02639473 -0.013087377 -0.02770133 0.0009921966
-0.006585859 -0.04716985 0.034507845 -0.030567352 0.1576427 0.064851895 -0.024107251 -0.012731971
0.090543166 0.077249736 -0.03985692 0.07668975 0.07344724 -0.019944055 -0.044749685 0.05023729
0.02148412 -0.011227399 0.046019327 -0.041426253 -0.02461724 0.082760245 0.01067135 0.0385746
0.015636984 0.029111622 0.009779304 0.079934314 0.051602993 0.0667946 -0.078675464 0.0017021897
-0.032110766 0.07712446 0.033667907 -0.016547518 0.09577585 0.039960347 -0.051510297 -0.0045371233
0.10765249 0.017472558 -0.052034985 -0.0133732585 0.036768883 -0.06456895 -0.013489806 0.07308958
0.12820865 -0.077005185 0.027350623 0.06525429 -0.0416202 -0.06116671 0.03804929 0.0075499266
-0.03928521 0.06911424 0.08913796 0.0936837 0.08471873 0.017594961 -0.023934135 0.13671696
0.039259017 0.017933395 0.03326212 -0.21098721 0.016179208 0.09684477 0.065501295 -0.038655836
0.020326598 0.014149721 0.03318393 0.02790403 0.0035139392 -0.041124538 0.020495785 -0.041558832
0.052971527 -0.07531315 0.04246617 0.0007678847 -0.052400578 -0.029291185 -0.012756157 -0.049468983
0.022238433 -0.0395727 0.05627656 0.06454436 0.0038770614 -0.014608566 -0.032382224 -0.045348555
-0.070987865 0.2128068 0.08063503 0.00060774066 -0.054081473 0.06268324 -0.046541728 0.053365864
-0.06906434 -0.05537011 0.08810627 0.008522291 0.031187018 -0.02654844 -0.018464368 0.042243876
0.033522498 -0.13250259 0.084719434 -0.051433783 0.031158047 0.035621572 0.039032493 0.010229072
0.016197398 -0.022310266 -0.052962136 0.07165707 -0.014660327 -0.02355142 0.05187923 0.08559008
-0.024960052 -0.07357067 -0.041576337 0.0048248745 0.0039714486 -0.002711778 -0.017709 0.030990865
0.05428684 -0.018286733 0.024857635 -0.0042495453 0.021389412 0.0012355397 0.07004686 0.021540524

encoder.3.bias f4 [28]
00000000: c7a9 2ebd 7c49 4f3d 0532 4a3e 41d5 f4bb
00000010: 8488 483e 9051 233d 92cc aebd 8f17 7abd
00000020: 3d08 a8bd aaa0 853d ed5d bf3b 967e 8ebd
00000030: 8dff 4b3d 2be5 07be 5b28 98bd c639 30bd
00000040: 611e a3bf 1ad5 bdbd 5ef2 01c0 592a d8bb
00000050: 7aab b4bd 83cd 143d d257 01bd 8906 cabc
00000060: 6693 02bd 5bdb 47bd e99e e0bc 4c27 e3bc
-0.04264238 0.05060719 0.19745643 -0.007471711 0.19583327 0.039872706 -0.085351124 -0.061057623
-0.08204696 0.06524785 0.0058400542 -0.06957738 0.04980426 -0.13271014 -0.07429572 -0.043023847
-1.2743646 -0.092691615 -2.030418 -0.006596845 -0.08821769 0.036328804 -0.031577893 -0.02466132
-0.03187885 -0.048793178 -0.027419524 -0.0277287
