models/VAE saves/best_enc_v4.pt (torch, 215327 bytes, 4 tensors)

encoder.0.weight f4 [86, 600]
0	0x3ca7072d	0.020389164
1	0x3d5b9dd8	0.05361733
2	0x3d377b30	0.044795215
3	0x3d076d91	0.033063475
4	0xbbea5f20	-0.007152453
5	0x3b84e63f	0.004055768
6	0x3cb86682	0.022509817
7	0xb9bb85f2	-0.00035767216
8	0x3b6bfc3c	0.0036008498
9	0xbd829905	-0.063768424
10	0xbd666ded	-0.056257177
11	0xbb21e7a9	-0.002470473
12	0xbc56a34c	-0.013100456
13	0xbc485925	-0.012228285
14	0xbcbd3e0f	-0.02310088
15	0xbd99c4de	-0.075082526
16	0xbd26b6d2	-0.040701695
17	0xbd2aaf77	-0.041671243
18	0xbc8b4924	-0.01700265
19	0xbcfb70e2	-0.030693475
20	0xbb8b35c4	-0.0042483527
21	0x3c54c52e	0.012986464
22	0x3d2440b9	0.040100787
23	0x3d57d805	0.052696247
24	0x3ce8728a	0.028374929
25	0xbc888750	-0.016666085
26	0xbdb0e7f3	-0.08637991
27	0xbdcc1805	-0.09965519
28	0xbda7a301	-0.081853874
29	0xbd185a92	-0.03719575
30	0xbbc898ff	-0.006121754
31	0x3cab9afb	0.020947924
32	0x3ca8a63d	0.020587081
33	0xbc238148	-0.0099795535
34	0xbcf10814	-0.029422797
35	0xbd4c5e74	-0.049894765
36	0xbc124fdd	-0.008930174
37	0x3c08e010	0.008354202
38	0x3d25e023	0.040496957
39	0x3dcb6d41	0.09932948
40	0x3defeca0	0.117150545
41	0x3dec5f8c	0.115416616
42	0x3dc6ae4a	0.09701212
43	0x3dd6cd6d	0.104884006
44	0x3df6837f	0.120368
45	0x3da3d092	0.07998766
46	0x3dc44f88	0.09585482
47	0x3da9b120	0.08285737
48	0x3dcd4e2c	0.10024676
49	0x3e0dfc0b	0.13865678
50	0x3dde6254	0.10858598
51	0x3e08fbf5	0.13377364
52	0x3dad2b57	0.08455532
53	0x3db28471	0.087166674
54	0x3dee3ce1	0.116327055
55	0x3d805351	0.06265891
56	0x3d5b1007	0.05348208
57	0x3bd5b629	0.0065219593
58	0xbc29daa9	-0.010367074
59	0xbba74ec7	-0.0051058265
60	0x3d6c961c	0.057760343
61	0x3d9340eb	0.071901165
62	0x3d346c66	0.04404869
63	0x3d10a89e	0.035317056
64	0xbc391853	-0.011297303
65	0xbcd420ae	-0.02589449
66	0xbc78bc13	-0.015181559
67	0xbc8623d2	-0.016374502
68	0xbd10fac2	-0.03539539
69	0xbd8bd2b1	-0.068272956
70	0xbd9d1176	-0.07669346
71	0xbda9d201	-0.08292008
72	0xbdb266ea	-0.087110355
73	0xbdb54cca	-0.08852537
74	0xbd97924f	-0.07400953
75	0xbd23cc04	-0.039989486
76	0xbc6c7215	-0.014431496
77	0xbc9845aa	-0.018587906
78	0x3bdc2d0b	0.0067192367
79	0x3d360e21	0.044447068
80	0x3d8774bc	0.06614062
81	0x3d57e57d	0.05270909
82	0x3d688ad4	0.05677302
83	0x3d49e010	0.04928595
84	0x3d0da2e3	0.03457917
85	0x3c2d96cc	0.010595035
86	0xbcb64151	-0.022247942
87	0xbd4f1198	-0.050553888
88	0xbd2ed7b8	-0.042686194
89	0xbb88bda0	-0.0041729957
90	0x3c9da577	0.019243939
91	0x3c7f0ba5	0.015566741
92	0xbc5d3d72	-0.013503419
93	0xbd7f0a24	-0.06226553
94	0xbdc8bf25	-0.09802083
95	0xbdc0faf1	-0.09422863
96	0xbd73e09c	-0.059540376
97	0xbd030dfd	-0.031995762
98	0x3ca9e4b3	0.020738935
99	0x3d8365da	0.06415911
100	0x3da649e9	0.08119566
101	0x3db930b4	0.090424925
102	0x3dcd36eb	0.100202404
103	0x3db79e7c	0.08965775
104	0x3da8dd0d	0.08245287
105	0x3da57abf	0.080800526
106	0x3dad4338	0.084600866
107	0x3db77859	0.08958501
108	0x3dc1ae99	0.0945713
109	0x3dcc0069	0.09961016
110	0x3ddd1b6b	0.10796245
111	0x3de116c0	0.10990667
112	0x3de0028c	0.10937986
113	0x3dd6eaa3	0.10493972
114	0x3db9732f	0.09055173
115	0x3d85e854	0.06538454
116	0x3da1735f	0.078833334
117	0x3d81281a	0.06306477
118	0x3d65a17b	0.056062203
119	0x3d5f3c15	0.054500658
120	0x3d6bf762	0.05760897
121	0x3d208ceb	0.03919689
122	0x3d6fb31c	0.05852042
123	0x3d80656f	0.06269347
124	0x3d0ac491	0.033878867
125	0x3c4171ea	0.011806944
126	0x3c92cc8f	0.017919807
127	0x3c954471	0.018221112
128	0xbcfe3ce5	-0.031034896
129	0xbd97d197	-0.07413023
130	0xbdc05f4c	-0.093931764
131	0xbd837514	-0.06418815
132	0xbd8ac92e	-0.06776653
133	0xbd681ac8	-0.056666166
134	0xbd5af029	-0.05345169
135	0xbc34667e	-0.011010764
136	0x3c873b83	0.01650787
137	0x3c90ad65	0.017660806
138	0x3b6cf3d3	0.0036156073
139	0x3c38b5df	0.01127383
140	0x3ca40791	0.02002314
141	0x3d487675	0.048941094
142	0x3d954783	0.072890304
143	0x3db75078	0.08950895
144	0x3db2144b	0.08695277
145	0x3db971b5	0.09054891
146	0x3d05acea	0.032635607
147	0xbba0a0ea	-0.004901995
148	0xbb9ef6cc	-0.004851198
149	0x3c7ac5b1	0.015305922
150	0x3d0e8a3d	0.034799803
151	0x3d22fada	0.039790012
152	0x3d0b38b1	0.033989612
153	0x3ca57182	0.020195726
154	0xbc80154f	-0.01563516
155	0xbd506363	-0.050876033
156	0xbccac840	-0.02475369
157	0x3c1e671e	0.00966814
158	0x3cf75ec6	0.030196559
159	0x3d2cfe0b	0.04223446
160	0x3d324a32	0.04352779
161	0x3d4bb995	0.04973753
162	0x3d46d5f1	0.048543874
163	0x3d3270d7	0.043564644
164	0x3d13c86d	0.036079813
165	0x3d2f02bb	0.042727213
166	0x3cdaeb33	0.02672348
167	0x3cd4db6c	0.025983535
168	0x3cc20bab	0.023687204
169	0x3d199906	0.03749945
170	0x3d3bdc30	0.045864284
171	0x3d49adb1	0.04923791
172	0x3d476088	0.048676044
173	0x3d54539b	0.051837545
174	0x3d8011a7	0.06253367
175	0x3d3a5347	0.045489576
176	0x3c33322a	0.010937253
177	0xbc5ac67f	-0.013352989
178	0xbd610ab8	-0.054941863
179	0xbd9d6fe9	-0.07687361
180	0x3d94c685	0.07264427
181	0x3d98ea62	0.0746658
182	0x3d87c1e2	0.06628777
183	0x3d6f722e	0.0584585
184	0x3d3d31f0	0.046190202
185	0x3cf18750	0.029483467
186	0x3d2a40dc	0.04156576
187	0x3bb22caf	0.0054374556
188	0xbd0fb0a7	-0.03508058
189	0xbd8a3e20	-0.06750131
190	0xbd9161ee	-0.07098757
191	0xbda4c411	-0.08045209
192	0xbdadc2b2	-0.08484401
193	0xbdab83f2	-0.08374776
194	0xbdb3659c	-0.08759615
195	0xbd0d3362	-0.03447283
196	0xb88993d3	-6.5602035e-05
197	0xbbb7f3da	-0.005613786
198	0x3c2e7599	0.010648155
199	0x3ccfc246	0.025361191
200	0x3d31732d	0.04332273
201	0x3da16976	0.07881443
202	0x3dac0349	0.08399064
203	0x3dc4835e	0.09595369
204	0x3dab56c0	0.083661556
205	0x3d5c84e5	0.053837676
206	0x3d0904fc	0.03345202
207	0xbd08dba3	-0.033412587
208	0xbd2fd606	-0.042928718
209	0xbd0dc4ae	-0.034611396
210	0xbcc66329	-0.024217205
211	0xbb9ac3a8	-0.004723031
212	0x3cac45a6	0.021029305
213	0xbb1363be	-0.002248987
214	0xbd886972	-0.06660737
215	0xbddc90b8	-0.107697904
216	0xbdb1be8d	-0.08678923
217	0xbd7b49a3	-0.061349522
218	0xbc97c872	-0.018528197
219	0x3c294689	0.010331758
220	0x3c9ea9bf	0.01936805
221	0x3cd232df	0.025659023
222	0x3d2f0672	0.042730756
223	0x3d59eaca	0.053202428
224	0x3d7563fa	0.0599098
225	0x3d658615	0.056036074
226	0x3d828fe8	0.06375104
227	0x3d940baf	0.07228791
228	0x3d8d4a67	0.06898957
229	0x3d8dd098	0.06924552
230	0x3d9676e3	0.073468946
231	0x3d99a344	0.075018436
232	0x3d8f9338	0.070105016
233	0x3da85037	0.08218425
234	0x3dbc0b10	0.091817975
235	0x3daec7c1	0.08534194
236	0x3d9d1362	0.076697126
237	0x3d9de213	0.07709136
238	0x3d4d6841	0.050148252
239	0x3d0aa189	0.03384546
240	0x3db534c7	0.08847957
241	0x3daab697	0.083356075
242	0x3d8d7efb	0.06908985
243	0x3d36e2b5	0.0446498
244	0x3d2fd2c9	0.04292563
245	0x3bcbc404	0.0062184352
246	0xbcfb7cfa	-0.030699242
247	0xbd179c82	-0.03701449
248	0xbdcea4b1	-0.10090006
249	0xbe20096c	-0.15628594
250	0xbe0f2b2f	-0.13981317
251	0xbe1649c3	-0.14676575
252	0xbe065f28	-0.13122237
253	0xbe02d17e	-0.12775227
254	0xbe05ae70	-0.13054824
255	0xbdd6dec4	-0.10491708

encoder.0.bias f4 [86]
0	0x3e19fa5e	0.15036914
1	0x3e4e52cc	0.20148772
2	0x3bb66498	0.005566191
3	0xbd6a90fd	-0.057267178
4	0x3e437840	0.1908884
5	0xbd86d2db	-0.06583186
6	0x3e07f279	0.1327609
7	0x3e13362a	0.1437613
8	0x3e00dce0	0.12584257
9	0x3ded853d	0.11597679
10	0xbc64fa84	-0.013975743
11	0x3dd6d3a1	0.10489584
12	0xbce3b0ef	-0.02779433
13	0x3e08bcde	0.13353297
14	0x3dbd13ea	0.09232314
15	0x3e1120f7	0.14172731
16	0x3e42e718	0.19033468
17	0xbc9cf0f4	-0.019157864
18	0x3b8fbddf	0.004386648
19	0xbd4d2c9a	-0.050091363
20	0x3e3daea6	0.18523654
21	0x3e011b3e	0.12608048
22	0xbd3a9195	-0.045548994
23	0xbdde9b7e	-0.108695015
24	0x3e25c96d	0.16190119
25	0xbd14305e	-0.03617894
26	0x3e1ae078	0.1512469
27	0xbc8dd979	-0.017315613
28	0x3de1d4f1	0.110269435
29	0xbc46aa15	-0.012125512
30	0xbd9e3b08	-0.07726103
31	0x3e4f059c	0.20216984
32	0x3d997d30	0.07494581
33	0x3ea86b73	0.32894477
34	0x3e348962	0.17630532
35	0x3db726aa	0.089429215
36	0xbd545a9f	-0.051844236
37	0xb93b0e26	-0.0001783898
38	0x3e12dcf7	0.14342104
39	0xbc7a7714	-0.0152871795
40	0x3dde6f76	0.10861103
41	0x3d47d47b	0.04878662
42	0x3e652c2e	0.22380134
43	0xbcefd586	-0.02927662
44	0xbb869762	-0.0041074017
45	0x3d99312a	0.074800804
46	0xbd8088af	-0.0627607
47	0xbd217f63	-0.039428126
48	0x3d9eb752	0.07749809
49	0xbd6688e1	-0.05628288
50	0x3da1bf4d	0.07897816
51	0x3df33144	0.11874631
52	0x3e2a7331	0.16645505
53	0x3c931633	0.017954921
54	0x3c5778da	0.013151372
55	0x3d683034	0.056686595
56	0x3e1d7209	0.15375532
57	0x3e3d00f3	0.18457393
58	0xbd70ddff	-0.058805462
59	0x3dd291b1	0.10281695
60	0xbc8b09b6	-0.016972404
61	0x3dc52e00	0.096279144
62	0x3dedf5e4	0.116191655
63	0x3d94db60	0.07268405
64	0xbcd29cab	-0.02570947
65	0x3e9054cd	0.28189698
66	0x3bcaae15	0.006185303
67	0x3e1a1530	0.15047145
68	0xbcc318b3	-0.023815488
69	0x3dbe8da3	0.09304359
70	0xbd5a2b39	-0.053263877
71	0xbca1ade1	-0.019736232
72	0x3e313c17	0.17308079
73	0x3e88d839	0.26727465
74	0xbd68bb46	-0.056819223
75	0x3ddaa03f	0.10675096
76	0x3e6eb23c	0.23310179
77	0xbdddb48d	-0.10825453
78	0x3e016f5a	0.12640134
79	0xbd436d91	-0.047711913
80	0xbd28823e	-0.041139834
81	0x3e11048f	0.14161895
82	0x3dcdbc8b	0.10045727
83	0xbdbc0e26	-0.09182386
84	0xbd9a118e	-0.075228795
85	0x3dfc178d	0.123091795

encoder.3.weight f4 [20, 86]
0	0xbc3c85e6	-0.011506533
1	0xbc728fa0	-0.014804751
2	0x3afcf016	0.0019297625
3	0xbc53e098	-0.012931965
4	0xbd335eec	-0.043791696
5	0xbbde9575	-0.006792719
6	0xbd746d11	-0.059674326
7	0xbd4b9f18	-0.04971227
8	0xbb6c8e7a	-0.0036095665
9	0xbc6bf974	-0.014402736
10	0xbcfdc746	-0.03097881
11	0x3c6a6402	0.01430607
12	0xbc8dce3b	-0.017310252
13	0xbc5b6620	-0.013391048
14	0xbd954d6a	-0.07290156
15	0x3d2109b1	0.039315883
16	0x3d2c5ed4	0.042082623
17	0xbd7b254e	-0.061314873
18	0xbc12eddc	-0.008967843
19	0xbd1f80f5	-0.038941342
20	0x3c6783ab	0.014130513
21	0xbcb739ae	-0.022366371
22	0xbd935335	-0.07193605
23	0xbcf85b3a	-0.030316938
24	0xbd66cea6	-0.05634942
25	0x3deec29b	0.11658212
26	0xbc9af4a1	-0.018915476
27	0xba1b00e6	-0.00059129146
28	0x3ce01593	0.027354037
29	0xbbfc5505	-0.007700565
30	0xbc827a8b	-0.015927574
31	0x3d09246c	0.033482
32	0x3aa96c6a	0.0012925987
33	0xbcc0903c	-0.023506276
34	0x3ce175ce	0.027521994
35	0xbd6b8c5c	-0.057506904
36	0xbd9f3c0e	-0.077751264
37	0xbc8bea12	-0.017079387
38	0x3a61c032	0.0008611708
39	0x3c47ae56	0.012187561
40	0x3d777dce	0.06042271
41	0xbd1dc50c	-0.038517997
42	0xbc4dd595	-0.012563129
43	0xbd9a3c56	-0.075310394
44	0x3ccc9d43	0.024977332
45	0x3b4fb4f7	0.0031693557
46	0x3d2a6920	0.04160416
47	0xbc7fb3cb	-0.015606831
48	0x3a8b02a9	0.0010605651
49	0x3ca9ce69	0.020728307
50	0xbc866a4c	-0.016408108
51	0xbc426816	-0.011865636
52	0xbca0efb3	-0.019645547
53	0x3c361d32	0.011115359
54	0x3bdab5d1	0.0066745062
55	0xbc86254f	-0.016375212
56	0xbc6ec167	-0.014572478
57	0xbd06a3cf	-0.032871064
58	0xbc96b1e5	-0.018395374
59	0xbcfc5b18	-0.030805156
60	0xbd56b632	-0.05241985
61	0x3d08b773	0.033378076
62	0x3b7ae0ae	0.0038280892
63	0xbb24e4d7	-0.0025160813
64	0xbd3227fd	-0.043495167
65	0x3c4bc265	0.012436484
66	0xbc8125fd	-0.015765185
67	0xbd00c222	-0.03143514
68	0xbc269f9b	-0.010169889
69	0x3ced62f6	0.028977852
70	0xbd8b66fd	-0.06806753
71	0xbd60eafb	-0.054911595
72	0xbc6034c7	-0.013684458
73	0xbc20b650	-0.009809092
74	0xbd85eb9a	-0.06539078
75	0x3628b8d6	2.514154e-06
76	0x3c8f1f55	0.017470995
77	0xbc655524	-0.01399735
78	0x3bfbf1db	0.0076887435
79	0xbaf5129d	-0.0018697564
80	0xbd82d998	-0.06389159
81	0x3d356a83	0.04429103
82	0x3cbb181c	0.022838645
83	0xbcc5a203	-0.024125105
84	0xbcf13a11	-0.029446634
85	0x3d8fb143	0.07016232
86	0x3cb5a8a1	0.022175135
87	0x3b5aa507	0.0033362524
88	0x3dbc9bec	0.09209427
89	0x3e2ebe4f	0.17064784
90	0x3d51b43a	0.051197268
91	0x3e3271d2	0.17426232
92	0xbd10cfab	-0.035354298
93	0xbd2ab08c	-0.041672274
94	0xbc88ed6a	-0.01671477
95	0xbce4bb33	-0.027921295
96	0x3ddfbd2d	0.10924754
97	0xbd97d645	-0.074139155
98	0x3d18e487	0.037327316
99	0x3b4b612c	0.003103326
100	0xbc45d1a8	-0.012073912
101	0xbdb788b3	-0.0896162
102	0x3ce62562	0.028093997
103	0x3dfbae05	0.12289051
104	0x3dc0abc6	0.09407763
105	0x3e053032	0.13006666
106	0xbce713dc	-0.028207712
107	0xbd7fa436	-0.062412463
108	0x3e2f7498	0.1713432
109	0x3e37a2de	0.17933223
110	0xbd3d7769	-0.046256457
111	0x3dc8daf5	0.09807388
112	0xbd8cbdb2	-0.06872119
113	0x3e0ad9cb	0.13559644
114	0xbd09fff6	-0.03369137
115	0x3e0f9133	0.14020233
116	0x3da00c21	0.078148134
117	0x3d321dd7	0.04348549
118	0x3c9e9742	0.019359235
119	0xbc147146	-0.00906021
120	0xbb1e52a7	-0.0024158151
121	0xbd8c8e45	-0.06863073
122	0x3d0e234c	0.03470163
123	0x3d831c45	0.06401876
124	0x3cbdc963	0.023167318
125	0x3d76fc7c	0.06029938
126	0xbdab45bc	-0.0836291
127	0x3d97ab0c	0.074056715
128	0x3b5e426d	0.0033914105
129	0x3e10bbcf	0.14134143
130	0x3dd8a6e6	0.10578708
131	0x3d9ac500	0.07557106
132	0x3dd7ddb0	0.105403304
133	0x3d4fd221	0.050737504
134	0x3cb04b29	0.021520214
135	0x3e98afa2	0.29821497
136	0x3e072861	0.13198997
137	0x3cc966c5	0.024585137
138	0xbc1d77f7	-0.009611121
139	0x3bc3ef49	0.0059794527
140	0x3d52a834	0.051429942
141	0x3ce83d84	0.028349645
142	0x3d5b0790	0.05347401
143	0x3d1ea87c	0.038734898
144	0x3e321e39	0.17394342
145	0xbdeb3140	-0.11484003
146	0x3e00e8c7	0.12588798
147	0x3d9d025a	0.07666464
148	0xbdbc0fd4	-0.091827065
149	0x3cf2f08e	0.029655721
150	0x3e0169c0	0.12637997
151	0x3c8905be	0.01672637
152	0x3d30580a	0.04305271
153	0xbc8d30e5	-0.017235229
154	0x3d8feea4	0.07027939
155	0xbddfe45d	-0.10932229
156	0x3e00d641	0.12581731
157	0x3e0a7788	0.1352216
158	0x3ca1c1e3	0.019745773
159	0x3ca85b01	0.020551207
160	0x3d440b1b	0.047862154
161	0x3b6fe495	0.0036604751
162	0xbd8d66f0	-0.069043994
163	0x3e077b7f	0.13230704
164	0x3dd3fd2c	0.10351023
165	0x3e1abe44	0.15111643
166	0x3e1004ad	0.14064284
167	0xbd3d21d0	-0.046174824
168	0x3dfc0df8	0.12307352
169	0x3e06ca90	0.13163209
170	0x3e12c1f5	0.14331801
171	0xbda36071	-0.07977379
172	0x3ba6f96c	0.0050956514
173	0xbd73e73b	-0.05954669
174	0x3d828afd	0.06374166
175	0xbc9b8d39	-0.018988239
176	0x3c7afe8c	0.015319478
177	0xbe012b55	-0.12614186
178	0x3ccc5de3	0.024947112
179	0x3d0035c5	0.03130128
180	0xbd0a03b4	-0.033694938
181	0x3bf69ee1	0.007526264
182	0x3d474c11	0.048656527
183	0x3cf5adf2	0.02999017
184	0x3c927fc4	0.017883189
185	0xbd08e761	-0.033423785
186	0xbdabea45	-0.08394293
187	0x3ce6db82	0.028180841
188	0xbd2876db	-0.041128974
189	0x3bc49e80	0.00600034
190	0x3b648e34	0.0034874799
191	0xbdedf76b	-0.11619457
192	0xbca668e3	-0.020313686
193	0x3d8e259d	0.06940768
194	0xbde11882	-0.109910026
195	0xbd02243b	-0.031772833
196	0x3d03940e	0.032123618
197	0x3db85b98	0.09001845
198	0x3ca45f4f	0.020064978
199	0x3d123dbb	0.035703402
200	0xbcf889ff	-0.03033924
201	0x3d2c2a41	0.042032484
202	0xbe107612	-0.1410754
203	0xbba3b138	-0.0049954914
204	0xbcbb9146	-0.02289642
205	0xbc5fa13a	-0.013649279
206	0xbc070133	-0.008240032
207	0x3c8b6fce	0.017021086
208	0xbdf070f6	-0.117402956
209	0xbccc1c5a	-0.024915863
210	0xbcb4bd2d	-0.022062862
211	0x3cec2278	0.02882503
212	0x3c88d69a	0.016703892
213	0x3d084660	0.03327024
214	0x3d669bcd	0.056300927
215	0xbda17239	-0.07883114
216	0x3d7cc8e4	0.06171502
217	0x3d1d7e37	0.038450446
218	0xbd0d7dcb	-0.034543794
219	0x3cc30ffb	0.023811331
220	0xbb9ec5e5	-0.004845368
221	0xbe39a388	-0.18128788
222	0xbc3b5f50	-0.0114362985
223	0xbd41da58	-0.04732737
224	0xbd98a108	-0.07452589
225	0xbb49de5e	-0.0030802707
226	0x3d7e6c76	0.062115155
227	0xbc45b40d	-0.012066853
228	0x3d80fcae	0.06298195
229	0xbccf2d70	-0.025290221
230	0x3cad0645	0.021121154
231	0x3cf4ed16	0.029898208
232	0xbcdf79a1	-0.027279677
233	0x3dae3be3	0.08507516
234	0x3de3ff50	0.11132681
235	0x3d5e65ca	0.054296292
236	0xbd68b53e	-0.05681347
237	0xbaf369ad	-0.0018570923
238	0xbd83cc17	-0.064354114
239	0xbd495538	-0.049153537
240	0x3c0c2294	0.008553166
241	0xbaf060f5	-0.0018339442
242	0xbd9cdf89	-0.076598234
243	0xbd0af742	-0.03392721
244	0xbd1cd12c	-0.03828542
245	0xbc120c54	-0.008914072
246	0xbde20812	-0.110366955
247	0x3c889627	0.01667316
248	0xbd1ad50d	-0.037800837
249	0xbcb185a7	-0.021670176
250	0x3d7359c4	0.05941178
251	0xbb845bf8	-0.004039284
252	0xbd508e25	-0.05091681
253	0x3cf11e02	0.029433254
254	0x3b0c6890	0.0021424629
255	0xbdb294f3	-0.08719816

encoder.3.bias f4 [20]
0	0x3da81100	0.082063675
1	0xbe2a7b23	-0.16648535
2	0x3dcf757c	0.1012983
3	0x3c298e3f	0.0103488555
4	0x3e1faada	0.15592518
5	0x3e5c23e7	0.2149807
6	0x3e8cbafa	0.27486402
7	0xbcd33836	-0.02578364
8	0x3d89b938	0.06724781
9	0x3e1832f3	0.14863186
10	0xbd9fd454	-0.0780417
11	0xbded17c9	-0.11576802
12	0xbdb6537e	-0.089026436
13	0xbd8afb91	-0.06786264
14	0x3c0faae5	0.008768772
15	0xbf0d3c24	-0.5516989
16	0xbea4824a	-0.32130653
17	0xbcb84f0c	-0.02249863
18	0xbdf2ae8e	-0.118497
19	0xbe9b5a8b	-0.30342516
