models/VAE saves/best_acg_dec_v2.pt (torch, 145183 bytes, 4 tensors)

decoder.0.weight f4 [166, 14]
00000000: 7c36 763a 8eae 9cb9 236b 28bb ddfd 8fba
00000010: 036b 1fbe fda3 cb39 a2fa 3eb5 d6dd e73a
00000020: 9bd7 81ba efca 4cb9 f5aa 2ebb 384a 60ba
00000030: 902e ab3a 8e6c 12bb 5a19 f139 a682 35b9
00000040: eb64 853a 44c1 1a3a 13f1 14be aa91 643b
00000050: 33ea e339 6c8a 9fb9 c9b6 b43a b771 4f38
00000060: 1095 2aba b1c1 fe3a 6b8d 16b8 be56 1f3a
00000070: b3a2 c6bb 6611 a13c ba4c 63bc 728b a7bb
00000080: 8c5f 2a3d 2462 3bbc 858f 82bc cc98 ecbc
00000090: 5e3a 61bc 7690 d53b a9f1 06bc 211f 46bb
000000a0: 5df3 d43c daa2 83bb c411 b73a 1105 b0bc
000000b0: 821f 5d3e 2fb3 4a3b 617e 21be b229 123b
000000c0: 3476 e0ba 782e b3ba 81e4 083b cec8 a43b
000000d0: 6a6d e5ba e093 98bb 0c29 283c 1583 efbb
000000e0: b445 393b 8edc 323b 53a7 38bb accb d5ba
000000f0: 8d86 28be 8792 46b8 4cdd a7ba e752 583b
00000100: b103 25bb 9ad2 bdb9 d65b b73a 0cdc 8939
00000110: fbb5 aa3a 5a0c 3638 040d 35bb f7e0 4b38
00000120: d219 dfbb 6a62 15bb c1af 37be cc51 96ba
00000130: 2dbe 4a3a f5ec 503b 6f46 0e3a 11a1 da38
00000140: 976a c739 b38a 84b9 2b1c baba 4425 db39
00000150: 9076 8bbb d8d1 ea3b 0c9c 04bd 6a3b d43b
00000160: 1f2b e53d 06ef b93b 4526 38bc a443 a73b
00000170: 03e7 a9bb fccf 88bb 8e53 493b 6397 9a3a
00000180: 8476 2b3b 3fb4 683b 6525 8cba 8ef3 22ba
00000190: 25e0 d03b af10 9abb e4da 693d 9a88 373b
000001a0: 9907 9b3b ddbd a3bc 589c dc3a a94d 90bb
000001b0: 5acd 3b3b 7613 aa39 8a19 17bb 20fb a73b
000001c0: a1ce 373b 8398 9e3c 61a0 acbd 0dd7 b8bc
000001d0: 7600 67bd 5146 6c3c 9637 2bbb 759f 72bd
000001e0: de09 863b a4c2 dd3d 7359 a53c 7f43 9bbc
000001f0: 0a26 0fbc 5611 72bc 7bb0 7abb 638f 7f3b
00000200: 3af3 bb3c 3b30 b4bb e665 163d ef52 323b
00000210: 5852 da3b f68c aabc d76d 02bc cdff 8b3b
00000220: 6b3d a1bb bb2f 043c b9d1 e33a a4bd 28bc
00000230: a3a8 d4bb a5e5 af3b a8cc adbc 7986 96b8
00000240: 627b 443d 6f59 9339 f558 1d3b d272 813a
00000250: ddd0 0dbb b60a 153c 4959 23bb 2e8a 113b
00000260: 2ce5 43b9 db73 963b ff0f ad39 971a a43a
00000270: 505b b5bd 0ef7 a23a 0d80 11be d1d3 7838
00000280: 1046 4f3a 0bb5 6eba 962b 7e3a ae53 c239
00000290: bba6 c0b8 dcc1 3b39 8865 953a d8f4 5bbb
000002a0: c4f7 ffbb cf34 e3ba 9256 d13c 6f1f 98bb
000002b0: 8f4c 9f3d 3712 e83b ac14 44bb 8372 953a
000002c0: 22e4 1039 4616 f13a 28f8 703a fb91 ae3b
000002d0: dfcd 20bc 65ab dcba 0978 af39 f9ea eb39
000002e0: 49b5 1b3d 48cf 263b f76b 15be 41c8 4fba
000002f0: 7fc7 64ba ad79 ccb9 f036 0e3b f495 d438
00000300: 5a43 7f3b b952 4f3a 0709 0b3a 7112 d33a
00000310: ed5b 87bc d3c4 6c3c 2581 493d 979a a73c
00000320: 7e96 943d 3a7c 133c 3ce4 7d3c 8571 9039
00000330: bbd8 d73c c39b 063d 8cd2 24bc fa8b 2bbc
00000340: d66d 86ba 862d 5fbc 6512 323b 0725 8c3a
00000350: a390 58bb 4c60 403a 94f6 1abe 54cc 66ba
00000360: 5d50 1b3a 48c5 d0ba 9a38 0cbb 7f2b 693b
00000370: b8ca c73a 3e7f 533a 2af7 ac39 6e9c 9fb9
00000380: dbac 91ba eed5 403a 20f5 ccbb 5908 8e3a
00000390: c1f9 093e bcae 3c3b b081 2d3a 95dd 29bb
000003a0: 892b 5c38 1453 9c3a 5a55 90b9 a747 9aba
000003b0: 6631 4e3a 550d 5fba 005e 3dbc 23a0 853a
000003c0: 1463 dbbc 6856 bcba 5991 0d3a a0f6 86b8
000003d0: 3265 3bbb b9ce 23bd 3a96 be3b c75a 273c
000003e0: 9ebc 6bba 946a e6b9 347a 553b 0187 f63a
000003f0: 5ff9 0dbb 1330 2d3a aeca 933d 6ada a5b8
0.0009392274 -0.00029884692 -0.0025698624 -0.0010985691 -0.15568165 0.00038841358 -7.1145234e-07 0.0017690014
-0.0009906174 -0.00019530555 -0.0026652191 -0.00085559813 0.0013060141 -0.0022342536 0.0004598599 -0.00017310175
0.0010177171 0.00059034326 -0.14545088 0.0034876862 0.00043471306 -0.00030429976 0.0013787384 4.945855e-05
-0.00065071974 0.0019436387 -3.5894493e-05 0.0006078294 -0.0060618757 0.019661617 -0.0138732735 -0.0051130587
0.041595027 -0.011436973 -0.015937576 -0.028881453 -0.013746826 0.006517465 -0.008236327 -0.0030230957
0.02599495 -0.004017216 0.0013967087 -0.02148679 0.2159405 0.0030929556 -0.15770866 0.0022302684
-0.0017125071 -0.0013670465 0.0020888152 0.0050288206 -0.0017503921 -0.0046563 0.010263693 -0.0073093274
0.0028270306 0.0027292105 -0.0028175905 -0.0016311309 -0.16457577 -4.7343343e-05 -0.001280704 0.0033008398
-0.0025179202 -0.000362058 0.0013989161 0.00026294624 0.0013024205 4.3403685e-05 -0.0027626166 4.8608486e-05
-0.006808498 -0.0022794255 -0.17938139 -0.0011468469 0.0007734027 0.0031879519 0.00054273655 0.00010425051
0.00038035653 -0.0002528034 -0.0014199069 0.000417987 -0.004256077 0.0071661286 -0.03237538 0.0064768093
0.11189865 0.005674246 -0.011239593 0.005104499 -0.0051850094 -0.0041751843 0.0030719968 0.0011794384
0.002616317 0.0035507826 -0.0010692297 -0.0006216102 0.0063743764 -0.004701696 0.057093516 0.0028005005
0.0047311303 -0.019987995 0.0016831262 -0.004403789 0.0028656335 0.00032439426 -0.0023055994 0.005126372
0.0028046744 0.019359833 -0.08429027 -0.022563482 -0.056396924 0.014421062 -0.002612566 -0.0592341
0.0040905317 0.108281404 0.020184254 -0.018953083 -0.008737097 -0.014774641 -0.0038252163 0.0038995377
0.022943128 -0.0054989136 0.03671827 0.0027210077 0.006662648 -0.020819169 -0.007960758 0.004272437
-0.0049206517 0.00806802 0.0017381228 -0.01029912 -0.0064898296 0.005367952 -0.021215752 -7.177605e-05
0.04796923 0.00028104658 0.0024009321 0.0009876138 -0.0021639385 0.009096792 -0.0024925044 0.0022207606
-0.00018682022 0.0045914478 0.0003300905 0.0012520131 -0.08855307 0.0012433247 -0.14209004 5.9325077e-05
0.00079068635 -0.0009105957 0.0009695826 0.0003706491 -9.1863294e-05 0.00017905928 0.0011398057 -0.0033562686
-0.0078115184 -0.0017334464 0.025553975 -0.004642419 0.07778274 0.0070822495 -0.0029919548 0.0011401925
0.00013817896 0.0018393479 0.00091922516 0.005327461 -0.0098147085 -0.0016835748 0.00033468034 0.0004499776
0.038014684 0.002545314 -0.14591967 -0.00079262635 -0.0008727237 -0.00039000568 0.0021700226 0.00010136879
0.0038950057 0.000790875 0.00053037744 0.0016103518 -0.016523326 0.014451223 0.049195427 0.020459456
0.072552666 0.009001786 0.01549631 0.000275504 0.026348462 0.03286339 -0.010059964 -0.010470385
-0.0010256122 -0.0136216935 0.0027171609 0.0010692187 -0.0033045195 0.0007338568 -0.15133125 -0.0008804251
0.0005924756 -0.0015927935 -0.0021396042 0.0035578904 0.001524291 0.0008067972 0.00032990548 -0.00030443392
-0.0011114137 0.0007356097 -0.006254807 0.0010836228 0.1347418 0.0028790673 0.0006618751 -0.0025919427
5.2492633e-05 0.0011926615 -0.00027529412 -0.0011770622 0.00078656373 -0.00085087615 -0.011558056 0.0010194819
-0.026780643 -0.0014369013 0.00054003816 -6.4355554e-05 -0.0028594253 -0.039992068 0.0058162482 0.010214514
-0.0008992645 -0.00043948425 0.003257406 0.0018808545 -0.002166353 0.000660659 0.072163925 -7.908496e-05

decoder.0.bias f4 [166]
00000000: cd86 a33d 5965 bf3d 5fd6 34be 5002 b7be
00000010: 101b 0e3e dfce 063e cf50 cc3d 467b 7a3e
00000020: 1586 02bf 8985 553e 51db 633e fa30 ba3d
00000030: f5ae fe3d 4045 8d3d 0eb0 e1bd cbed f23d
00000040: bad8 053d 7278 2abe c6a8 d93d 41a3 a2be
00000050: fca2 3a3e 1c59 92be 5f16 203c ec59 88be
00000060: d2fb babe dadf fdbd dd04 283e 12f3 0b3e
00000070: 9298 993d d9f6 3a3e b6b6 97be 4a52 56be
00000080: d9bb 99be 5636 453e 2d02 e4be 9212 b03d
00000090: 7a6a 013e 6b3c 19be c7ca 5cbe 65d8 e3be
000000a0: 08fa 863e a889 b2bb 1bf7 65bd 5ff1 afbc
000000b0: 981d f6be b3f6 003e 0b3c 443e 62f5 c0be
000000c0: d4fd 9c3d 1276 0d3e e69b 36be 7645 383e
000000d0: f305 103e c9c2 bcbe 6ea2 82be 8461 033e
000000e0: fc28 633e c7cc 8ebd 2724 353c 4311 c63d
000000f0: 4622 a5be 06c1 5dbe c277 42be c0fa 1abe
00000100: 8b10 cdbe dae6 633e 6365 43be b467 323e
00000110: d4a3 89bc 3ddb 8bbe 2226 5dbe 5d6d 44be
00000120: 2f00 c6be de19 403e c49c d33d 18c5 b2be
00000130: 1ace 44be 709d e1be 85b7 b9be 94b4 bbbe
00000140: 59bf 8bbe 12f1 1f3d fc3d 0e3e 909b 5dbd
00000150: 5bdb 1fbe 4b02 bbbe 4072 313c 27b5 7fbe
00000160: c02e 21be 9a68 163e 762f 17be 9bad c1bd
00000170: f061 193e 3fca a63d 9082 823d 48ab 003e
00000180: 3ea2 043e 26cd 30be dc2c debc 96a9 803e
00000190: 4240 02bf fa6e 7f3d abe0 753e c650 65be
000001a0: 8a93 04be 857e a8be ad96 273d 0a1f 93be
000001b0: 6a3e 763d 192d 13bf b88b b8be dbe4 12be
000001c0: 08b0 6abe dbfa 743c 3ca1 b9bd f69e 663e
000001d0: 67ed 353e 39e0 453d 6c0c 6e3e 11c9 513e
000001e0: f9d3 6fbe 57a1 60be d003 5c3d 23d5 463d
000001f0: 01fe aabe 36a8 123e 0792 483e 2d65 debd
00000200: 7c45 9ebe 1421 aa3d 943b 453e 7821 00be
00000210: 3839 aebe 3913 9fbe c0d7 5d3e 00f5 523e
00000220: 5039 0cbf edd6 673e 1617 67be 9286 433e
00000230: 2632 8ebe 0fa8 a2be 96c5 98bd 1892 ba3d
00000240: baea 293c ae6a 80be de68 7bbe 7ea8 cbbd
00000250: 4bbb e4bd 26d1 483e 7da9 a83d b7ed 6f3e
00000260: 1775 e73d 1544 debe cf66 423e 9d81 7e3e
00000270: 7063 0c3e 4145 4cbe 1c4a 543e d1ee 0dbe
00000280: 0108 84be aae8 c53d 45a0 c4be c92e 533e
00000290: d93f 5c3d 5586 8ebe
0.079846956 0.093455024 -0.17659901 -0.35743952 0.13877511 0.13164853 0.099763505 0.24461088
-0.5098584 0.20851721 0.22251631 0.09091373 0.12435714 0.06897974 -0.11019908 0.11861762
0.03267739 -0.16647509 0.10627894 -0.31765178 0.18226236 -0.2858361 0.009770959 -0.26631105
-0.3652025 -0.12396212 0.16408105 0.13666943 0.074998036 0.18258227 -0.29631585 -0.20929828
-0.3002613 0.19259009 -0.4453291 0.08597292 0.12638274 -0.14964454 -0.21561728 -0.44501033
0.26362634 -0.005448539 -0.05614386 -0.0214774 -0.48069453 0.12594108 0.1916353 -0.37687212
0.076656014 0.13814571 -0.17832908 0.17995247 0.1406477 -0.3686736 -0.2551455 0.12830168
0.22183603 -0.06972652 0.011055983 0.09671261 -0.3225271 -0.21655664 -0.18990996 -0.15134716
-0.40051684 0.22256032 -0.19081645 0.17422372 -0.016801752 -0.27315703 -0.21596578 -0.19182344
-0.38672015 0.18759868 0.10332635 -0.34915996 -0.19219247 -0.44065428 -0.36272827 -0.36661208
-0.27294424 0.039048262 0.13890833 -0.054103434 -0.15611021 -0.36525187 0.010830462 -0.24971448
-0.1574049 0.1468834 -0.14764199 -0.09456941 0.14978766 0.08144044 0.06372559 0.12565339
0.12952515 -0.17265758 -0.027121 0.25129384 -0.508793 0.062361695 0.24011485 -0.22394094
-0.12946907 -0.32909027 0.04091518 -0.28734618 0.060118116 -0.5749069 -0.36044097 -0.14345114
-0.22918713 0.014952387 -0.09063956 0.22521576 0.17766343 0.04830954 0.23246926 0.20486857
-0.23420705 -0.21936546 0.053714573 0.048543107 -0.33396915 0.1432198 0.19586955 -0.108591415
-0.30912387 0.083070904 0.19261009 -0.12512767 -0.3402803 -0.31069353 0.21664333 0.20601273
-0.5477495 0.22640581 -0.225674 0.19094303 -0.27772635 -0.31768844 -0.074595615 0.091098964
0.010370905 -0.2508139 -0.24551722 -0.09944247 -0.11168536 0.19611034 0.08235452 0.23430525
0.1130163 -0.43411317 0.18984531 0.24854131 0.13709807 -0.19948293 0.20731395 -0.13860632
-0.25787356 0.09663518 -0.38403526 0.20623316 0.053771827 -0.27836862

decoder.3.weight f4 [200, 166]
00000000: a970 29b9 c513 0aba 2ce3 88ba 60c3 21bc
00000010: 5cbf 73b9 44b1 c4b9 e99a 8e38 37ed 1837
00000020: a4f2 d33a bca2 61b6 ff2c 61b8 1687 bdb9
00000030: 5f4e 5fb8 56da 183a 5e32 413a 6ea6 abb8
00000040: 8ae4 0f39 a7e3 b9bb d749 a5b8 989b 9ebb
00000050: d96c beb8 b4f8 9639 e187 7cb8 445d 373d
00000060: d121 1e3c c328 cb38 6682 2138 1681 30b9
00000070: d0f4 0f39 b15a d5b7 3f9a 223c a0b2 b33a
00000080: f06e 06ba 11cf fb36 257d 063b 5954 3639
00000090: df4c 0dba b870 06ba 7b70 73bb a934 263c
000000a0: 0270 8ab8 1813 43b8 7e12 af37 7008 aab7
000000b0: ae12 963b a985 87b9 c611 cab7 2c49 35bb
000000c0: 8e92 a938 20d9 a237 65aa 4f3b a039 5c38
000000d0: 7d63 1bb9 ebb3 f8bb 1c32 1c3b 406f 23ba
000000e0: 411a 23b8 fc02 51ba 222a 5b39 a4f1 bbb7
000000f0: 46b9 1ebb 664b 643a c26c 0b3a b913 d63a
00000100: 7b0a 9a3c 3485 6db8 3ac3 f539 fb68 41b8
00000110: 294f 2e3a 348d eb3a 6a94 353a 2dd7 093c
00000120: c28a d7ba 8e6f 06b7 2547 f5b8 ecc2 9cba
00000130: 5def 493c 431d 2e3c b0dc fabb 0825 fa3c
00000140: 8cef 533c b343 a8b9 a171 eb38 dce6 403a
00000150: f099 b23a 4f59 4abb 7514 8238 6a6c 28bd
00000160: 2993 a3ba 88a1 e6b8 e087 89ba 6173 59ba
00000170: dcf2 4b37 70d2 31b8 086e 20b7 9ef7 1cba
00000180: fa95 0638 9ab9 d5ba c822 633a 88ba acb8
00000190: 2122 3b3d 8534 6338 bf6b feb7 a6cf 12ba
000001a0: c733 8739 d8a8 833d 2c1a 4939 12b3 46bb
000001b0: 84ba 95b9 6c34 da3c 7f1e efbc 7b1d 8cb9
000001c0: aa8a ad3a 5b03 d3b9 33c5 96bb 9c74 98b8
000001d0: a6f9 1bb8 6e1b 4e3a 42af 6cb8 3617 11b8
000001e0: 8e28 63b9 c084 a539 27ce 5439 e15f 0d39
000001f0: b439 0aba 3d07 c438 75be adb7 f7f3 a5b7
00000200: 5a01 73ba b095 93b9 f6fd 5cb8 706e 2c37
00000210: eb88 7ebb 5939 9539 3a82 5cb8 e8ce f336
00000220: 2e83 3b3c f60c 2fb7 bf0b 38ba 75c2 d0b7
00000230: 23f5 603b 7d8f 1cbb 15bb dc39 98e6 1939
00000240: bbe5 9438 4e2d 7538 a64a 103d 22c0 e939
00000250: c1f7 5cb8 9f6b 0738 87a2 9ab9 5564 96b8
00000260: f3c3 19b9 99b6 a5bc 9227 15b7 47e7 3eb7
00000270: acae 67b8 0a71 94bb 0775 84b7 69d9 433b
00000280: b27d 8e3d 2151 6a37 0ae4 80bb 42c0 c5b7
00000290: efc6 183a edec bbb9 1f8e afb9 dd16 dbb9
000002a0: 7847 e9ba 4ad3 fd3b f11b 3bb9 2f24 12b9
000002b0: 9714 eeb8 a0bd d9b9 4ba6 4d3c a804 2eba
000002c0: 1a52 a0b9 267e 843b 1089 56ba cfb2 d0ba
000002d0: a675 7339 3b5e 0e39 9947 2dbb 82ab a43c
000002e0: 29db cfba 154b 84ba 8409 76ba 2998 7fbb
000002f0: 72e1 88bb 7025 cbba ef39 813c 1a1e b93a
00000300: 4b76 28ba d63f e13a b86d bbba 814a 51ba
00000310: 7868 b5bb 3ed0 a8bb 0c8b 3d3e baf4 83ba
00000320: 2325 66ba cc57 a839 e3cf 473b 5ea7 02ba
00000330: 8fb7 12bc ee05 c33c b74e 1cb9 3931 bdbb
00000340: ae6b 73bc daca 87ba a5c9 1e3d 5c50 203a
00000350: 7c31 5fba d337 c3bb 047b cd39 819e 4dba
00000360: 954b af3b c946 beb9 c648 d039 6174 083c
00000370: d7b1 493b 6302 b8b7 7cc9 4aba 7290 b03b
00000380: 96d6 6ebb b91e adba 3e10 1f3b fc3d 12bb
00000390: 4e07 e0ba c8e8 f43a 5c89 55ba f82e 4439
000003a0: edee 6e3a d9a6 0cba 2461 bdbb a2c1 293b
000003b0: dac0 8a3a 603b 033b dfa8 93bc 8d1f 53ba
000003c0: d44f 273b eb3c c53b 62ca a4ba b2f6 0eba
000003d0: 78fe c43b 1e70 b33c 0efd 873c a783 e03c
000003e0: 1a52 5dba 900b 17bb 0717 01b8 6986 36bc
000003f0: 4e56 90bb 4af3 933b f078 b1bb c400 d8b8
-0.00016159065 -0.0005267228 -0.0010443679 -0.009873241 -0.00023245573 -0.00037516106 6.799942e-05 9.115137e-06
0.0016170335 -3.3622337e-06 -5.3686086e-05 -0.00036149536 -5.3240332e-05 0.00058308744 0.0007369871 -8.184915e-05
0.0001372268 -0.00567289 -7.881567e-05 -0.0048403256 -9.0801805e-05 0.00028795528 -6.020803e-05 0.04476668
0.009651617 9.687387e-05 3.8506834e-05 -0.00016832756 0.00013728742 -2.543381e-05 0.00992447 0.0013709851
-0.00051282253 7.5044886e-06 0.002052137 0.00017388295 -0.0005390178 -0.0005128491 -0.00371459 0.010144391
-6.601216e-05 -4.6509405e-05 2.0870237e-05 -2.0269508e-05 0.0045798635 -0.0002584879 -2.4088553e-05 -0.0027662022
8.085846e-05 1.9413012e-05 0.0031687256 5.2505755e-05 -0.00014819014 -0.0075898073 0.0023833578 -0.0006234534
-3.888668e-05 -0.0007973162 0.00020901163 -2.240466e-05 -0.0024219318 0.0008708745 0.00053186354 0.0016332782
0.018803826 -5.662926e-05 0.00046875497 -4.6112556e-05 0.0006649369 0.0017971159 0.00069267175 0.008413118
-0.0016444551 -8.012996e-06 -0.00011695762 -0.0011959947 0.012325135 0.010627094 -0.0076557025 0.030535236
0.01293553 -0.00032093897 0.00011226838 0.00073586195 0.0013626199 -0.0030875986 6.2026935e-05 -0.041119017
-0.001247977 -0.00010997342 -0.0010492764 -0.0008295086 1.2156288e-05 -4.2396074e-05 -9.562362e-06 -0.00059878256
3.2087766e-05 -0.0016305924 0.00086645456 -8.236343e-05 0.045686845 5.416993e-05 -3.0329333e-05 -0.00056004
0.00025787784 0.06428689 0.00019178604 -0.0030319137 -0.0002855846 0.026636325 -0.029189346 -0.00026724846
0.0013240178 -0.00040247556 -0.0046011447 -7.269645e-05 -3.7187383e-05 0.0007862364 -5.6430006e-05 -3.459231e-05
-0.00021663515 0.0003157016 0.00020294693 0.00013482526 -0.00052728807 9.3473565e-05 -2.0711896e-05 -1.9783138e-05
-0.0009269916 -0.0002814955 -5.2688607e-05 1.0277712e-05 -0.0038838934 0.00028462222 -5.257337e-05 7.2660514e-06
0.01144485 -1.04338305e-05 -0.0007020793 -2.4886083e-05 0.00343258 -0.0023889237 0.00042101057 0.0001467712
7.0999806e-05 5.8454745e-05 0.03522744 0.00044584373 -5.2682826e-05 3.2286738e-05 -0.0002949426 -7.171246e-05
-0.00014664214 -0.02022867 -8.890305e-06 -1.1378731e-05 -5.5237368e-05 -0.004530077 -1.5790121e-05 0.0029884225
0.06957568 1.3966376e-05 -0.0039334344 -2.3573757e-05 0.0005827983 -0.00035843943 -0.0003348449 -0.0004178797
-0.0017797789 0.007746135 -0.00017844119 -0.00013937124 -0.000113525595 -0.00041530747 0.012551854 -0.0006638267
-0.0003057875 0.0040433584 -0.0008183876 -0.001592243 0.00023218113 0.00013577279 -0.002644038 0.020101313
-0.0015858161 -0.0010093177 -0.0009385573 -0.0039000607 -0.004177266 -0.0015498828 0.015774695 0.0014123351
-0.00064263184 0.0017185162 -0.0014299667 -0.0007983819 -0.0055361353 -0.0051517775 0.18510073 -0.0010067441
-0.00087793375 0.0003210887 0.00304889 -0.0004984046 -0.008954897 0.023806538 -0.00014906643 -0.00577369
-0.014857216 -0.0010360137 0.038766522 0.000611549 -0.00085141486 -0.0059575825 0.000391923 -0.00078437483
0.0053495863 -0.00036292363 0.00039727072 0.008328528 0.0030776167 -2.193562e-05 -0.0007735712 0.005388313
-0.003644382 -0.0013208009 0.0024271156 -0.0022314778 -0.0017092021 0.0018685097 -0.00081457733 0.00018709514
0.0009114582 -0.00053654384 -0.0057794023 0.0025902768 0.0010586039 0.0020024404 -0.01802486 -0.00080537127
0.002552976 0.006019225 -0.0012572522 -0.00054536306 0.0060117804 0.021904048 0.016600158 0.027406527
-0.0008442715 -0.0023047663 -3.0777443e-05 -0.011140444 -0.0044048196 0.0045150863 -0.005416028 -0.00010299825

decoder.3.bias f4 [200]
00000000: 7adc 1039 ea06 e63b a58e 693c 19b1 613c
00000010: b6fb 673c 5bb4 533c a9d2 483c 4dfa 3c3c
00000020: 3f55 343c 1673 2f3c b860 2c3c 1e1f 2e3c
00000030: 927a 3e3c 4bed 453c f564 3c3c db31 383c
00000040: c16e 3a3c 3509 373c 5c96 393c f5ca 393c
00000050: c3d7 363c a7f9 3d3c ac1c 413c e54b 473c
00000060: f488 463c f933 483c 0ab7 4b3c 8888 493c
00000070: c615 543c 1e08 593c bd67 623c a417 553c
00000080: bcec 543c aede 543c 1d3f 6a3c 00d7 5c3c
00000090: 0465 523c fd13 533c 2849 6f3c 79df 7b3c
000000a0: fa2f 773c 9e3a 7c3c e683 773c f2d0 7e3c
000000b0: a1e4 883c fdde 873c f2c1 863c 4a46 833c
000000c0: 1dcf 8b3c 8398 8b3c 7810 8d3c 64b2 8e3c
000000d0: f84e 8d3c 3307 913c 91f6 8a3c 0303 803c
000000e0: 142b 7f3c 1f13 873c f770 943c 1cd0 8b3c
000000f0: fea1 9f3c b5f4 8d3c 3a1c 883c 8921 883c
00000100: d970 883c d6ee 8e3c 9b6b 8e3c bc64 913c
00000110: 6e8d 953c 114e 923c a847 983c f40a 993c
00000120: fb9e 8e3c dcd1 913c 5a5b 983c 1a5a 953c
00000130: 5d8b 8e3c af97 923c cea5 993c d6c3 983c
00000140: f101 963c d313 9c3c 2910 973c 6d5a 9a3c
00000150: b707 9a3c 5fc1 9c3c e66e 9e3c f77d 943c
00000160: a2cb 983c 752d 983c 9b76 953c 9c0a 943c
00000170: cf9f 983c 8b67 993c 7637 973c ff0f 963c
00000180: b4df 973c 43a8 9c3c f4c7 983c 5bf2 943c
00000190: 7323 5dbf 2397 13bf 4d0d f0be 1651 1ebf
000001a0: eec0 10bf bc5d 14bf e322 0fbf 4cd2 1ebf
000001b0: 848e e7be 68d2 11bf 0dc1 23bf c8c8 1ebf
000001c0: 8132 0ebf 4bec 38bf accf 2bbf ee69 45bf
000001d0: b7d5 32bf 3438 4ebf 354b 2bbf db82 46bf
000001e0: 491a 25bf ac4f 41bf a5ed 2fbf a553 44bf
000001f0: a23e 46bf 6533 53bf 78f5 44bf 2c40 2fbf
00000200: 9803 43bf f361 55bf b458 46bf 53c5 50bf
00000210: 98d7 3dbf ae1e 3bbf 3e6e 2abf 9e55 3ebf
00000220: 0f6f 45bf e041 3fbf 17fc 58bf f2ab 5cbf
00000230: 54a9 45bf d8b2 2abf 9f2c 50bf 9092 42bf
00000240: f31e 61bf 7237 5abf 1512 5dbf afbd 3bbf
00000250: 9aaf 54bf 2fed 40bf b01c 4abf 817e 4cbf
00000260: 42b0 4dbf 0d85 6ebf ad9e 54bf 8c31 46bf
00000270: d66a 69bf 15cd 5dbf 8e50 37bf 4515 60bf
00000280: cfcb 58bf 092c 64bf c724 59bf 66db 59bf
00000290: 9ddf 52bf 06ec 62bf 8e8b 63bf 5991 42bf
000002a0: 0461 65bf 9bb0 52bf c241 72bf 5718 5ebf
000002b0: 2f86 52bf f955 69bf ca84 67bf 4c10 66bf
000002c0: 45ec 33bf 168e 5bbf 8119 54bf 5f21 67bf
000002d0: b439 50bf 29ab 51bf 6d6e 69bf cf46 6cbf
000002e0: 9e85 51bf 6257 34bf 201e 6dbf ca9b 68bf
000002f0: 0b6e 5abf fb5b 63bf d93f 6cbf d100 5ebf
00000300: d942 59bf db57 71bf 336d 6bbf fc22 4bbf
00000310: 5c09 66bf 6e38 57bf f89e 61bf 092c 67bf
0.00013815044 0.007019867 0.0142552005 0.0137751335 0.014159134 0.012921418 0.012257257 0.011534286
0.011006652 0.010708591 0.010521106 0.010627536 0.011625903 0.012080501 0.011498679 0.011242355
0.011378945 0.011171629 0.011327352 0.011339893 0.01115984 0.011595166 0.011786621 0.012164091
0.012117613 0.0122194225 0.012433777 0.012300618 0.012944644 0.013246564 0.013818678 0.013006125
0.012995895 0.012992544 0.014297274 0.013478994 0.012841467 0.012883184 0.014604844 0.015373104
0.015087122 0.015394835 0.015107131 0.015552746 0.016710581 0.016585821 0.016449902 0.016024727
0.017066533 0.017040497 0.017219767 0.017419048 0.01724957 0.017703628 0.016963275 0.015626436
0.0155742355 0.01648861 0.018120272 0.017067008 0.019486424 0.0173286 0.016615022 0.016617553
0.016655372 0.01744787 0.017385295 0.01774823 0.018255915 0.01785949 0.018588856 0.01868198
0.017409792 0.017800264 0.018598247 0.01823144 0.017400438 0.017894594 0.01875582 0.01864807
0.018311473 0.019052422 0.018440323 0.018841946 0.018802507 0.019135175 0.01933999 0.018126471
0.018651787 0.018576363 0.018245032 0.018071465 0.01863089 0.018726131 0.018459063 0.018318174
0.018539287 0.019123202 0.018650033 0.01818197 -0.86382216 -0.5765249 -0.46885148 -0.6184248
-0.5654439 -0.5795553 -0.5591261 -0.6203964 -0.45225918 -0.5696168 -0.6396645 -0.6202512
-0.5554581 -0.72235554 -0.6711376 -0.7711476 -0.6985735 -0.8055451 -0.6691163 -0.7754342
-0.6449323 -0.75512195 -0.6872199 -0.7669013 -0.7743932 -0.82500297 -0.76937056 -0.68457294
-0.7617736 -0.83352584 -0.774791 -0.8155109 -0.74157095 -0.7309369 -0.66574466 -0.7434939
-0.77122587 -0.7470989 -0.8475966 -0.8619987 -0.772115 -0.66679144 -0.81318086 -0.76004887
-0.8793785 -0.8524085 -0.86355716 -0.7333631 -0.83080447 -0.75361913 -0.78950024 -0.7988053
-0.80347073 -0.9317177 -0.8305462 -0.7741935 -0.91178644 -0.86641055 -0.7160729 -0.87532455
-0.8468599 -0.8912969 -0.8482174 -0.851004 -0.82372457 -0.88641393 -0.8888482 -0.7600303
-0.8960116 -0.8230073 -0.9463159 -0.8675589 -0.82236 -0.9114681 -0.90436995 -0.8986862
-0.70282394 -0.8576368 -0.82851416 -0.90285295 -0.8133805 -0.81901795 -0.9118412 -0.92295545
-0.8184451 -0.70445836 -0.9262409 -0.90862715 -0.8532416 -0.88812226 -0.92284924 -0.86719996
-0.84867626 -0.9427468 -0.919635 -0.79350257 -0.8985803 -0.8407048 -0.8813319 -0.9030157
