models/VAE saves/best_acg_enc.pt (torch, 141143 bytes, 6 tensors)

encoder.0.weight f4 [149, 100]
-0.06567866 0.012895826 0.013841583 -0.0046144156 -0.0097702425 -0.0062161596 -0.01135492 -0.013771206
-0.0022295387 0.0041680397 0.00972435 -0.003989519 -0.004264179 0.0006145616 0.003370915 0.005772262
0.009116588 0.0049780984 0.0020254168 0.015431887 0.031174008 0.022057833 0.015849872 0.013610769
0.011232762 0.01878849 0.020762485 0.027828382 0.031675816 0.03257498 0.03391856 0.026375527
0.026167253 0.035669316 0.046596278 0.04299484 0.038728245 0.03495166 0.030834537 0.046559714
0.050553907 0.057035804 0.044110697 0.045199636 0.02895554 0.01793689 0.027964268 0.02298802
0.022354862 0.02202054 0.03469257 0.03532671 0.034940653 0.05206192 0.057535805 0.050593313
0.05602847 0.054815527 0.05456172 0.054648332 0.0674061 0.06289872 0.059277922 0.06389587
0.055852793 0.048234243 0.043380544 0.04099441 0.039140623 0.03368876 0.035668988 0.037793215
0.037975498 0.03710438 0.04095825 0.0351999 0.036142606 0.038739767 0.03890077 0.032390073
0.033876337 0.043677382 0.04188453 0.045395933 0.050574347 0.04958327 0.0457032 0.039100643
0.03446871 0.034599107 0.039261132 0.045335848 0.04453069 0.054834478 0.058256615 0.054402545
0.049918093 0.044314753 0.040947843 0.045635678 -0.00039259729 -0.00045361463 0.0010394553 -0.00029232237
0.00012233578 -0.0012237482 -0.00053580734 0.0013900435 0.0001890881 -0.0017446188 0.0012601336 0.0010780921
-0.0024135297 0.0017602546 0.0021652689 0.0005753835 -0.00067344867 -0.0014659017 -4.9785158e-05 -0.0007305678
-0.0018790644 -1.8638262e-05 -0.00022460676 -0.001600722 -0.0006184688 -0.002337803 -0.00045185292 0.0012674605
0.0007546314 0.00060721167 0.00039881712 -0.0009773626 9.71289e-05 0.0018114449 0.0010304343 0.00059889886
0.00049514114 -0.0012856098 0.0006229179 -0.001589738 0.00023699371 0.0009809304 0.00041445385 -1.2258581e-05
0.0017126419 -0.0003211948 8.9945715e-05 -0.0015398505 -0.00029340363 0.00048608077 -0.0005607895 -0.0005037825
-0.0002251812 0.0004999951 -0.0020523812 -6.3154155e-05 6.736501e-05 -0.0001858931 0.00033541216 0.00025374047
0.0011694375 -0.001160767 0.00026161462 0.00030688418 -0.00069035834 -0.0021708002 -0.00058460014 0.0004187776
0.0018391949 0.0007201158 -0.0016911087 -0.0005116721 -0.00066272897 0.0016088663 -0.002237238 -0.0007861277
-0.0005827982 -0.0018942514 0.00022939473 -0.00039584338 0.00091244635 0.0014105819 -0.00019905751 0.00059949164
0.0017005012 0.0014084365 -0.00019378644 -0.000564587 -0.0018687709 -0.00080375205 -0.0018011107 -0.0018608161
0.00030527063 -0.0009061188 -0.00040486743 0.0006258276 0.000407114 -0.00021442246 -0.0012000717 0.00016916997
-0.07940018 0.007963527 0.008536075 -0.009790393 -0.018524509 -0.0070401826 -0.0063753375 -0.007270258
0.009953499 0.014087541 0.019461187 0.00251473 0.0018643907 0.0052241734 0.008977434 0.009677511
0.01299318 0.0048356536 0.002455335 0.016810382 0.031468168 0.024293182 0.017159786 0.016635783
0.016062643 0.021385364 0.025464024 0.03212045 0.03449136 0.03246093 0.03555194 0.026922645
0.02463958 0.03823169 0.047370553 0.04660802 0.0417895 0.035859365 0.033963576 0.049383514
0.052124765 0.059710596 0.04592549 0.05096063 0.029620135 0.02057859 0.029784644 0.02336046
0.025105415 0.022197116 0.03680081 0.036677912 0.038041938 0.054174993 0.060360827 0.052673727
00000000: 8982 86bd 0449 533c cfc7 623c 8634 97bb
00000010: 5e13 20bc edb0 cbbb fd09 3abc a0a0 61bc
00000020: 741d 12bb 0d94 883b e152 1f3c 83ba 82bb
00000030: 87ba 8bbb 881a 213a 92ea 5c3b 3e25 bd3b
00000040: be5d 153c 511f a33b dbbc 043b 06d6 7c3c
00000050: a260 ff3c a1b2 b43c 97d7 813c b4ff 5e3c
00000060: 9e09 383c 52ea 993c 1616 aa3c 59f8 e33c
00000070: 80be 013d 586d 053d 30ee 0a3d 7d11 d83c
00000080: b55c d63c fd19 123d bddb 3e3d 5b1b 303d
00000090: 82a1 1e3d 7929 0f3d b698 fc3c 66b5 3e3d
000000a0: 9d11 4f3d 609e 693d 6bad 343d 4123 393d
000000b0: 2b34 ed3c 62f0 923c 5215 e53c 5f51 bc3c
000000c0: 8b21 b73c 6b64 b43c cc19 0e3d beb2 103d
000000d0: ee1d 0f3d e13e 553d aaaa 6b3d ef3a 4f3d
000000e0: 1c7e 653d 3f86 603d 1c7c 5f3d eed6 5f3d
000000f0: 360c 8a3d 0bd1 803d 68cd 723d d6db 823d
00000100: e6c5 643d 4591 453d ccaf 313d c1e9 273d
00000110: eb51 203d 3afd 093d a519 123d 0fcd 1a3d
00000120: 328c 1b3d c3fa 173d d7c3 273d c52d 103d
00000130: 450a 143d 97ad 1e3d 6a56 1f3d 74ab 043d
00000140: eac1 0a3d 0ee7 323d 1d8f 2b3d 16f1 393d
00000150: 0c27 4f3d d417 4b3d 4733 3b3d ff27 203d
00000160: 102f 0d3d cbb7 0d3d 48d0 203d 15b2 393d
00000170: d065 363d 1e9a 603d 7d9e 6e3d 34d5 5e3d
00000180: ea76 4c3d 6383 353d edb8 273d 7aec 3a3d
00000190: 84d5 cdb9 20d3 edb9 553e 883a d842 99b9
000001a0: 4347 0039 2d66 a0ba 6c75 0cba 1f32 b63a
000001b0: f345 4639 b1ab e4ba 112b a53a c54e 8d3a
000001c0: 4f2c 1ebb 58b8 e63a 2fe7 0d3b 55d5 163a
000001d0: 608a 30ba 8023 c0ba 68d0 50b8 9383 3fba
000001e0: f04a f6ba 5d59 9cb7 6b84 6bb9 51cf d1ba
000001f0: bd20 22ba d335 19bb ace6 ecb9 eb20 a63a
00000200: 75d2 453a 492d 1f3a 5418 d139 d91a 80ba
00000210: aeb1 cb38 016e ed3a a30f 873a 6cff 1c3a
00000220: 5ccc 013a e881 a8ba 504b 233a c15e d0ba
00000230: 8481 7839 9092 803a 0e4b d939 34aa 4db7
00000240: ba7a e03a 0966 a8b9 3da1 bc38 cfd4 c9ba
00000250: f8d3 99b9 a8d8 fe39 f201 13ba 4510 04ba
00000260: 9e1e 6cb9 1a12 033a 3e81 06bb a171 84b8
00000270: 5046 8d38 4dec 42b9 42da af39 7808 8539
00000280: d047 993a e124 98ba 5229 8939 4ce5 a039
00000290: 2af9 34ba fc43 0ebb da3f 19ba 618f db39
000002a0: 2411 f13a 27c6 3c3a 31a8 ddba bc21 06ba
000002b0: fdba 2dba 98e0 d23a a09e 12bb 2314 4eba
000002c0: edc6 18ba 8848 f8ba ae89 7039 3389 cfb9
000002d0: 3d31 6f3a 46e3 b83a 18ba 50b9 3427 1d3a
000002e0: 5ae3 de3a 499b b83a 2733 4bb9 cb00 14ba
000002f0: 8cf1 f4ba e3b2 52ba 3f13 ecba a1e6 f3ba
00000300: bb0c a039 9a88 6dba 6344 d4b9 940e 243a
00000310: eb71 d539 97d6 60b9 b94b 9dba 3863 3139
00000320: 909c a2bd 7479 023c e5da 0b3c e267 20bc
00000330: b6c0 97bc 55b1 e6bb 35e8 d0bb 583b eebb
00000340: 0014 233c 6ecf 663c 116d 9f3c 2bce 243b
00000350: 925e f43a 8b2f ab3b 1616 133c 6c8e 1e3c
00000360: 59e1 543c 6774 9e3b b0e9 203b edb5 893c
00000370: c4e4 003d 7f02 c73c ae92 8c3c c447 883c
00000380: ce95 833c 5c30 af3c ee99 d03c bc90 033d
00000390: d046 0d3d c1f5 043d e99e 113d e18c dc3c
000003a0: f2d8 c93c d598 1c3d a007 423d 0de8 3e3d
000003b0: 772b 2b3d 45e1 123d 641d 0b3d 5e46 4a3d
000003c0: c780 553d 1993 743d 5e1c 3c3d 18bc 503d
000003d0: eda5 f23c 6e94 a83c edfe f33c 6f5e bf3c
000003e0: dfa9 cd3c bad6 b53c 72bc 163d 943b 163d
000003f0: ddd1 1b3d 99e6 5d3d ea3c 773d 68c0 573d

encoder.0.bias f4 [149]
-0.0012331862 -0.0004974784 -0.00123097 -0.0053347475 -0.0047804457 -0.0050424617 -0.17141475 -0.009555419
-0.0014807344 -0.06706459 -0.0049756737 -0.0013308765 -0.005131988 -0.0012537587 -0.001245787 0.13567412
-0.0012581986 -0.0011562556 -0.1317774 0.13218479 -0.001310619 -0.0030766248 -0.00487525 -0.07796
-0.0058222087 -0.0010928577 0.1810393 -0.0065493044 -0.0012697243 -0.0012909401 -0.0051269224 0.13755922
-0.0011508897 -0.004598199 -0.0015454231 -0.004881647 -0.0011823273 -0.000972913 -0.001081299 -0.004568377
-0.006148855 -0.0049512004 -0.0012541148 -0.0013289418 -0.0016221422 -0.005132327 -0.001214955 -0.0009892458
-0.0012629889 -0.00489006 0.15536216 0.13678609 -0.0014094668 -0.0048450194 -0.0043110973 -0.0060023577
-0.0072773295 0.14535277 -0.0012454845 -0.00584485 -0.0011711958 -0.0063694557 -0.00546749 -0.0012123891
-0.0013952651 -0.0024924958 -0.0049793823 -0.0063131517 -0.0010572496 -0.0011493494 -0.0047889138 -0.0014520573
-0.0045271744 -0.0013906255 -0.14813937 -0.0056190235 -0.001554836 -0.0048673325 -0.0014971419 -0.0013570277
-0.0014022214 -0.0050097858 0.15253937 -0.005781666 -0.004800343 -0.0011961958 -0.0049418183 -0.003980941
-0.009928701 -0.0031753883 -0.02147239 -0.0014664585 -0.01018305 -0.0010505405 -0.0012821684 0.12958412
-0.113641664 -0.0012905312 -0.0015106567 -0.001537222 -0.0011617112 -0.00011826455 -0.00022958167 -0.14218229
-0.0061183725 -0.0016378547 0.17956121 -0.006978021 -0.0015937042 -0.0012883731 -0.0013550749 -0.0013706781
-0.0014793094 -0.015419303 -0.0011002227 -0.0011668272 -0.0036914928 -0.005285546 -0.005450687 -0.0013614204
-0.006529293 -0.001210795 -0.0006687569 -0.0049111582 -0.0043505975 -0.023856789 -0.0013447466 -0.0014876086
-0.005124977 -0.014313067 -0.00572181 -0.0013176859 -0.0012369206 -0.009831173 -0.0050718957 -0.0044452962
-0.001345978 -0.0043101506 -0.00095172913 -0.008886105 -0.0015251167 -0.0050690565 -0.005387296 -0.0012624981
-0.004935525 -0.0051038577 -0.0087009575 -0.0052075093 -0.00093494356
00000000: dda2 a1ba 3669 02ba 8058 a1ba 1bcf aebb
00000010: 49a5 9cbb 3c3b a5bb 5987 2fbe 558e 1cbc
00000020: 3415 c2ba 2959 89bd fa0a a3bb ce70 aeba
00000030: 3c2a a8bb 2955 a4ba ad49 a3ba 28ee 0a3e
00000040: 24ea a4ba 808d 97ba a8f0 06be 735b 073e
00000050: 13c9 abba 33a1 49bb 90c0 9fbb 7ea9 9fbd
00000060: 3ac8 bebb 383e 8fba 5e62 393e 8c9b d6bb
00000070: e16c a6ba c334 a9ba beff a7bb 53dc 0c3e
00000080: 73d9 96ba 7dac 96bb cb8f caba 39f6 9fbb
00000090: 52f8 9aba 160b 7fba 60ba 8dba 53b2 95bb
000000a0: 567c c9bb ae3d a2bb 1c61 a4ba e32f aeba
000000b0: 0f9e d4ba 142d a8bb 203f 9fba 95a9 81ba
000000c0: e08a a5ba cc3c a0bb 4217 1f3e a711 0c3e
000000d0: dcbd b8ba f8c2 9ebb 1b44 8dbb 6daf c4bb
000000e0: aa76 eebb 5bd7 143e 863f a3ba 2886 bfbb
000000f0: cf82 99ba deb6 d0bb a128 b3bb 07e9 9eba
00000100: 54e1 b6ba 2459 23bb 162a a3bb 8ede cebb
00000110: 6993 8aba c4a5 96ba 52ec 9cbb f552 beba
00000120: b158 94bb a645 b6ba d9b1 17be c91f b8bb
00000130: a4cb cbba 257e 9fbb bf3b c4ba 4bde b1ba
00000140: beca b7ba 2129 a4bb 4833 1c3e 2174 bdbb
00000150: 324c 9dbb acc9 9cba faee a1bb 8e72 82bb
00000160: feab 22bc 2d1a 50bb dee6 afbc 2f36 c0ba
00000170: cfd6 26bc 4ab2 89ba 6f0e a8ba b3b1 043e
00000180: f6bc e8bd 0b27 a9ba 3a01 c6ba 9c7c c9ba
00000190: 8f44 98ba cc04 f8b8 dcbb 70b9 3c98 11be
000001a0: a17c c8bb 49ad d6ba e5de 373e e2a7 e4bb
000001b0: d7e3 d0ba a1de a8ba c59c b1ba 53a8 b3ba
000001c0: 63e5 c1ba 3fa1 7cbc 5935 90ba 39f0 98ba
000001d0: f9ec 71bb 6032 adbb ad9b b2bb b071 b2ba
000001e0: aef3 d5bb 8ab3 9eba 844f 2fba c8ed a0bb
000001f0: 758f 8ebb 506f c3bc 3542 b0ba ddfb c2ba
00000200: 6cef a7bb 5b81 6abc 057e bbbb 34b6 acba
00000210: 2b20 a2ba ee12 21bc 2532 a6bb d9a9 91bb
00000220: 876b b0ba 2a3c 8dbb 767d 79ba 0797 11bc
00000230: 6de6 c7ba 541a a6bb ea87 b0bb 687a a5ba
00000240: 2fba a1bb 433e a7bb 768e 0ebc c1a3 aabb
00000250: 0017 75ba

encoder.3.weight f4 [117, 149]
-0.0021315804 0.002174095 -0.0048011853 -0.0038869628 0.0060711647 0.0064699273 -0.05086078 0.006338793
-0.0010861058 -0.03699851 0.005631455 0.013381092 0.004276338 -0.008669906 -0.009197728 0.08348374
-0.0048522903 -0.0069323527 -0.088353075 0.101622514 -0.0075535853 0.002907071 0.005481606 -0.009255274
-0.006328792 -0.016933462 0.05768369 0.004388657 -0.0032287363 -0.0021652556 0.005600179 0.09574576
-0.010333428 0.0039085145 -0.001643588 0.0049283137 -0.0031555917 0.0012318301 -0.010722175 0.0070246733
-0.0048441943 0.005931678 -0.011106646 0.00062809786 -0.012100233 -0.0037208071 -0.011437208 -0.00043500395
-0.006830055 0.0044171987 0.086203024 0.11870917 -0.011707461 0.003987052 0.0036487936 -0.0002550643
-0.005872434 0.08173814 -0.004124486 -0.004022268 -0.006453279 -0.005306285 0.003530423 -0.005568042
-0.010301252 -0.00093799434 0.004826491 0.0034283407 0.0011042816 -0.010470769 -0.0020706682 -0.005472798
0.0058732633 -0.006397531 -0.02376373 -0.0037187021 -0.0030308694 0.005545751 -0.010352597 -0.003441816
-0.0018297373 0.004246278 0.06345948 0.0036301943 0.0039965366 -0.018128024 0.005045458 0.0060827443
-0.0021589948 0.005696038 0.030891519 -0.0018010527 -0.033046346 0.0007244151 -0.0074810344 0.09122751
-0.040256754 -0.0014022548 -0.011914554 -0.007130104 0.005269288 -0.001011545 0.0007112303 -0.018790642
-0.004278548 -0.0008689188 0.0559245 -0.0066175056 0.0011625796 -0.010721807 -0.0056061964 -0.0037745417
-0.009871569 -0.010892889 -0.0041818875 -0.008699772 -0.0011056028 0.0056813583 0.0001708104 -0.00849376
-0.0073675825 -0.0027346136 0.0003258212 0.0056111454 -0.0015259736 0.0043086475 -0.009299224 0.008928041
0.0052731205 -0.0022144937 -0.0034009533 -0.010158844 -0.025565332 -0.007995829 -0.0063429796 0.004297232
-0.012212346 0.004408154 -0.00030266237 0.0036017755 -0.0053414074 0.005211919 0.006089311 -0.010109787
-0.0061843516 0.003576123 -0.006936426 -0.0065888665 -0.00115278 -0.0074216975 0.00038997474 -0.0081950985
0.003955169 -0.0055404934 0.005076068 0.0060198493 -0.00429675 -0.010775373 0.0016405655 0.0043394556
-0.00854932 0.005564329 -0.0066137933 -0.006516892 -0.0065843496 -0.006813494 -0.007262297 0.0053011873
0.00023297012 -0.0067560836 0.0047809705 -0.001093312 -0.0013636511 0.004625648 -0.0076383017 -0.009936543
0.0003362505 -0.00773534 -0.008454631 -0.00032630374 -0.0031907796 -0.005323574 0.0041552116 -0.007238843
0.0061788177 -0.006969054 -0.000196917 -0.006439128 0.004986113 0.0053236387 0.0053559286 -0.0042824224
-0.009227285 -0.0064681093 -0.0026482763 -0.0061553204 -9.198071e-05 -0.008474237 0.0055208304 -0.0022906626
0.003923562 -0.0101711415 -0.0041333283 0.006153588 0.0056555304 0.0046016676 -0.004111185 -0.0065984935
0.005608173 -0.006035312 0.003982321 -9.932145e-05 -0.006243686 -0.0074073384 0.004264426 0.0038968194
-0.00028007876 0.0016795448 -0.007368821 0.0049994253 -0.0068012127 0.005665538 -0.009191491 0.00051066646
0.005620538 -0.006323952 -0.0065465015 -0.006299296 -0.008833222 -0.0057537425 -0.0044541284 -0.00642914
-0.001686697 -0.0045989063 -0.009474129 0.004478615 -0.005846378 0.0049419682 0.006203835 -0.0050499006
-0.0075879605 0.0020047512 -0.00061869505 -0.0059916317 -0.0026856388 -0.0005689002 -0.008880899 -0.00029468298
-0.009132933 -0.009121344 -0.00011644708 0.00013113374 0.00021584495 0.0068894993 0.0015947432 -0.0050376556
00000000: fcb1 0bbb 437b 0e3b 4353 9dbb 6abc 7ebb
00000010: 9ff0 c63b af01 d43b 6553 50bd a6b5 cf3b
00000020: aa5b 8eba c08b 17bd 1288 b83b 5e3c 5b3c
00000030: 8620 8c3b 390c 0ebc 11b2 16bc 86f9 aa3d
00000040: f6ff 9ebb ca28 e3bb 75f2 b4bd 771f d03d
00000050: 1184 f7bb 8f84 3e3b 0b9f b33b 6fa3 17bc
00000060: c161 cfbb 0bb8 8abc bc45 6c3d b9ce 8f3b
00000070: 3599 53bb f6e6 0dbb b581 b73b 5a16 c43d
00000080: 8a4d 29bc ff12 803b a96d d7ba b17d a13b
00000090: 0bce 4ebb 5c75 a13a 10ac 2fbc 3b2f e63b
000000a0: 0cbc 9ebb 865e c23b a6f8 35bc efa6 243a
000000b0: 0e40 46bc c9d8 73bb 2163 3bbc 3e11 e4b9
000000c0: a7ce dfbb 26be 903b 368b b03d cb1d f33d
000000d0: a7d0 3fbc d1a5 823b 9920 6f3b 27ba 85b9
000000e0: 8c6d c0bb 5366 a73d b226 87bb 3bcd 83bb
000000f0: 0776 d3bb 58e0 adbb ab5e 673b 1f74 b6bb
00000100: 95c6 28bc bce3 75ba 8a27 9e3b 03ae 603b
00000110: 8bbd 903a 978d 2bbc 0cb4 07bb 2855 b3bb
00000120: 8174 c03b 61a2 d1bb 27ac c2bc 78b5 73bb
00000130: 8da1 46bb 22b9 b53b f09d 29bc 1790 61bb
00000140: ccd3 efba 5d24 8b3b 0bf7 813d 8ee8 6d3b
00000150: 61f5 823b 3981 94bc 5f54 a53b c251 c73b
00000160: ec7d 0dbb d4a5 ba3b 3610 fd3c 4d11 ecba
00000170: 9b5b 07bd ade6 3d3a 7723 f5bb 7dd5 ba3d
00000180: 44e4 24bd ddcb b7ba 4335 43bc a6a3 e9bb
00000190: fea9 ac3b d195 84ba dc71 3a3a d5ee 99bc
000001a0: 1033 8cbb 27c8 63ba 1711 653d a9d7 d8bb
000001b0: b361 983a 85aa 2fbc 2fb4 b7bb 4d5e 77bb
000001c0: 5dbc 21bc 1778 32bc 3708 89bb 7d89 0ebc
000001d0: e0e9 90ba b02a ba3b 911b 3339 6929 0bbc
000001e0: c36b f1bb 3437 33bb fbd2 aa39 b3dd b73b
000001f0: 2d03 c8ba 8e2f 8d3b c65b 18bc eb46 123c
00000200: 24ca ac3b 0a21 11bb 87e2 5ebb 4871 26bc
00000210: 636e d1bc f000 03bc c5d8 cfbb cbcf 8c3b
00000220: 4b16 48bc 4772 903b a8ae 9eb9 c40b 6c3b
00000230: f906 afbb bfc8 aa3b d888 c73b 85a3 25bc
00000240: 1aa6 cabb 635d 6a3b f54a e3bb 6be7 d7bb
00000250: e118 97ba b631 f3bb 8675 cc39 bc44 06bc
00000260: 5d9a 813b 078d b5bb 2555 a63b 2842 c53b
00000270: c0cb 8cbb 318b 30bc 3e08 d73a fe31 8e3b
00000280: 7212 0cbc fa54 b63b 85b8 d8bb a78b d5bb
00000290: 87c1 d7bb bb43 dfbb 90f8 edbb 95b5 ad3b
000002a0: 7149 7439 2362 ddbb b0a9 9c3b 774d 8fba
000002b0: 8abc b2ba bf92 973b b84a fabb e2cc 22bc
000002c0: c74a b039 bc78 fdbb 4b85 0abc bf13 abb9
000002d0: 661c 51bb 6071 aebb 7128 883b d133 edbb
000002e0: ae77 ca3b aa5c e4bb 817b 4eb9 52ff d2bb
000002f0: 8c62 a33b eb71 ae3b c980 af3b 9053 8cbb
00000300: 0a2e 17bc 6ff2 d3bb b48e 2dbb 92b2 c9bb
00000310: c5e5 c0b8 87d7 0abc 15e8 b43b f11e 16bb
00000320: 3991 803b dca4 26bc df70 87bb 0aa4 c93b
00000330: 0752 b93b 96c9 963b 1fb7 86bb 2d38 d8bb
00000340: c4c4 b73b dec3 c5bb 217e 823b cc4a d0b8
00000350: d697 ccbb 42b9 f2bb 99bc 8b3b c861 7f3b
00000360: 89d7 92b9 2c24 dc3a 2776 f1bb 38d2 a33b
00000370: b5dc debb faa5 b93b e897 16bc 3fde 053a
00000380: 7d2c b83b 2839 cfbb 0984 d6bb 536a cebb
00000390: 38b9 10bc e489 bcbb f0f3 91bb 89ab d2bb
000003a0: 2914 ddba 6cb2 96bb 6139 1bbc 58c1 923b
000003b0: f992 bfbb 3cf0 a13b 8a49 cb3b a379 a5bb
000003c0: 6da4 f8bb 2562 033b ec2f 22ba 7355 c4bb
000003d0: 8b01 30bb 3f22 15ba 3181 11bc ae7f 9ab9
000003e0: 4ca2 15bc b171 15bc 0d35 f4b8 f280 0939
000003f0: 7054 6239 4fc1 e13b b406 d13a eb12 a5bb

encoder.3.bias f4 [117]
0.19702019 -0.0058938665 -0.0051997732 -0.006697382 -0.0044097127 -0.006066353 -0.0051931622 -0.0045626964
-0.006849588 -0.004920657 -0.0050865076 -0.0046977256 -0.010664562 -0.004559761 -0.0055850656 -0.005314312
-0.011655689 0.20438676 -0.075975865 -0.060955588 -0.0051629976 -0.013305952 -0.004839151 -0.0045626275
-0.08013418 -0.005049134 -0.014501435 -0.008916847 0.20910043 -0.011118656 0.20163032 -0.07451188
0.007277174 -0.0056289085 -0.0053275297 -0.005032513 -0.004474803 -0.005091509 -0.0043283394 0.0031780463
-0.004863712 -0.0041403114 -0.004620022 -0.0048593455 -0.006444514 -0.0046253507 0.28553686 -0.04537862
-0.005150971 -0.004882275 -0.004969122 0.22629175 0.08909009 0.20944455 -0.004969544 -0.004405191
-0.059070624 -0.003998296 -0.0048481873 0.21626869 -0.005443338 -0.0045550964 0.2847543 -0.0053671873
0.1999707 -0.0050284816 -0.005964426 -0.0046623275 -0.0049215606 -0.078414746 -0.0059973793 -0.003823762
0.27084303 -0.005538411 -0.004944047 -0.010393585 -0.0044874214 -0.0056138863 -0.005988183 -0.0051957937
-0.05480728 -0.01358911 -0.0057284543 0.3216343 0.2360139 -0.0049097682 -0.0053353515 -0.0050182804
-0.0063505117 -0.0068468233 0.2711352 0.22332282 -0.004787201 0.21139827 -0.006011695 -0.013264237
-0.004542651 -0.0046265926 -0.002677256 -0.0057836664 -0.0046973485 -0.004810304 -0.004912469 -0.0017600292
-0.0047955997 -0.05925939 -0.05976663 -0.005036422 -0.005359368 -0.00052884984 -0.060687542 -0.008825191
-0.0057210103 -0.008958742 -0.004814699 -0.005804086 -0.0049670935
00000000: a9bf 493e 5621 c1bb dc62 aabb b675 dbbb
00000010: 5a7f 90bb 42c8 c6bb 672b aabb ac82 95bb
00000020: 8272 e0bb 763d a1bb b8ac a6bb 61ef 99bb
00000030: 6aba 2ebc 0c6a 95bb ed02 b7bb ae23 aebb
00000040: 81f7 3ebc c34a 513e 3c99 9bbd 91ac 79bd
00000050: 5d2e a9bb 3501 5abc be91 9ebb 1882 95bb
00000060: 641d a4bd 3573 a5bb 6d97 6dbc f817 12bc
00000070: 6c1e 563e 062b 36bc 2e78 4e3e af99 98bd
00000080: 5c75 ee3b b572 b8bb 8f92 aebb c7e7 a4bb
00000090: 5ea1 92bb acd6 a6bb bed4 8dbb c546 503b
000000a0: c65f 9fbb 73ab 87bb 8e63 97bb 253b 9fbb
000000b0: 802c d3bb 4190 97bb e331 923e efde 39bd
000000c0: 7ac9 a8bb 7efb 9fbb 04d4 a2bb 06b9 673e
000000d0: dd74 b63d a278 563e 8ed7 a2bb 6c59 90bb
000000e0: 0af4 71bd 2304 83bb 8bdd 9ebb 8a75 5d3e
000000f0: 075e b2bb eb42 95bb 51cb 913e 3bdf afbb
00000100: 1fc5 4c3e f6c5 a4bb 3b71 c3bb 70c6 98bb
00000110: 0b45 a1bb e997 a0bd aa85 c4bb 1598 7abb
00000120: f0ab 8a3e 8f7b b5bb ac01 a2bb db49 2abc
00000130: 380b 93bb b1f4 b7bb 8538 c4bb 7a41 aabb
00000140: 997d 60bd dca4 5ebc c2b5 bbbb 40ad a43e
00000150: a1ad 713e 1fe2 a0bb 2cd4 aebb 6370 a4bb
00000160: f417 d0bb 515b e0bb 3cd2 8a3e bdae 643e
00000170: f4dd 9cbb ca78 583e c1fd c4bb 3e52 59bc
00000180: 85da 94bb ac9a 97bb e774 2fbb e984 bdbb
00000190: 37ec 99bb c19f 9dbb c7f8 a0bb c8b0 e6ba
000001a0: 6824 9dbb f9b9 72bd dbcd 74bd 9208 a5bb
000001b0: a39d afbb 83a2 0aba 8093 78bd 8997 10bc
000001c0: 5077 bbbb b0c7 12bc 9fc4 9dbb 3430 bebb
000001d0: 00c3 a2bb

encoder.6.weight f4 [18, 117]
0.01298916 0.06301763 -0.05449116 -0.013417046 -0.068067305 -0.008444605 0.08325623 0.0496791
-0.04123355 0.024129897 -0.07859075 -0.0004992794 -0.045191683 -0.059508726 -0.08958764 -0.033988573
-0.05151537 0.07922527 0.017847996 0.025418798 -0.07013561 0.022831943 -0.08032878 -0.064540595
0.004039759 -0.016852034 -0.010446308 0.0881059 0.031019563 0.062914155 -0.002698644 -0.013395389
-0.031546053 0.003746325 0.0411018 0.041303426 -0.01293503 0.006810437 0.039590895 0.04142085
-0.043622114 -0.019442573 0.03107074 -0.03181473 0.028660273 -0.021755386 -0.06510999 0.0040491056
-0.05564899 0.03219917 0.06791257 -0.013203246 -0.014809286 -0.03876068 -0.044902116 -0.07284471
-0.0054756915 0.018102543 0.008338118 0.0042935163 0.07965976 0.035089575 0.019036703 0.015336301
0.08554811 -0.04880448 -0.043897882 -0.022074642 -0.054185893 0.050906397 -0.06655448 0.036267743
-0.17287059 0.020136157 -0.061293174 -0.065897554 0.039422326 0.014032666 0.04325646 -0.057698302
0.031076813 -0.018846642 -0.034406118 0.09120889 0.13377148 -0.04757243 -0.058033116 -0.039858863
0.06644314 0.07052685 -0.17312549 -0.012584069 -0.028409392 0.07728668 0.051810823 -0.06144386
-0.051940914 0.015515705 0.086661845 -0.05044998 -0.060224257 0.014884577 0.0020017019 0.05681182
0.07468842 -0.014061734 -0.0057488163 0.025818588 0.08374882 -0.041287996 -0.011917018 0.042533007
-0.05833057 -0.04048918 -0.07147482 0.03947299 -0.06389182 -0.23803712 0.0071927486 -0.07848923
-0.017769966 0.0749794 -0.014192772 -0.02369474 -0.019817585 0.030437248 0.01982372 0.05129318
0.0082474705 -0.038123846 -0.023687176 0.004761485 -0.082663566 0.056461196 -0.33423415 0.14328425
0.13233456 0.07147337 0.0978415 -0.073828265 0.0010472086 0.14657162 -0.09482731 0.080010876
0.07335804 -0.3613919 -0.09353664 -0.32645327 0.099919505 -0.0002288009 0.06875963 0.07547016
0.077625535 -0.032519717 0.019928899 -0.06170743 0.027812019 0.0486868 0.03607324 -0.060618065
0.044519372 0.035525504 0.014573748 -0.7464532 0.08125063 0.054908186 -0.044211447 -0.059637807
-0.29795563 0.084385864 -0.33728746 0.016195253 -0.08850244 0.16475673 -0.024971426 0.0077898647
-0.39731508 -0.08703213 -0.06272514 -0.102810435 -0.035047982 -0.33492672 -0.04733989 0.011138003
0.037911966 -0.09759311 0.17374682 -0.022886422 0.023930067 -0.5607509 0.01025138 -0.038187698
0.06114892 0.01890224 0.03149495 0.08230929 -0.035410646 0.1183246 0.07733948 -0.087836914
-0.09408274 -0.19928916 -0.080266215 0.07691793 -0.05302518 0.0039590765 -0.0701915 -0.7953756
-0.34600663 0.05799577 -0.33915058 0.02920174 0.0082972655 -0.03874647 -0.083438374 0.025012814
0.060617637 -0.03225729 0.01789044 0.06390501 -0.051932488 -0.09671548 0.15317222 0.09809708
-0.031941887 0.019191744 0.050903566 0.123585485 0.03853187 -0.009243956 -0.041659843 0.055966612
0.032476217 0.056203473 -0.036454853 -0.036095865 -0.00181615 -0.0966631 -0.0927022 0.0636083
-0.05198404 0.08716149 -0.05222404 -0.06791276 -0.022998057 -0.08749935 -0.024929281 -0.08365499
-0.04681039 0.040134896 -0.064368136 0.020901896 -0.057151742 -0.01392779 0.02444023 0.042568605
00000000: 7cd0 543c 630f 813d 1f32 5fbd 2bd3 5bbc
00000010: df66 8bbd 3e5b 0abc 3e82 aa3d 507c 4b3d
00000020: 83e4 28bd 10ac c53c 30f4 a0bd 13e2 02ba
00000030: ea1a 39bd 6cbf 73bd b979 b7bd 9a37 0bbd
00000040: c801 53bd dc40 a23d f635 923c 153b d03c
00000050: 42a3 8fbd 0e0a bb3c 6a83 a4bd dc2d 84bd
00000060: f45f 843b 470d 8abc fe26 2bbc de70 b43d
00000070: bd1c fe3c 23d9 803d bcdb 30bb 5578 5bbc
00000080: 6f36 01bd e784 753b 5c5a 283d c82d 293d
00000090: 73ed 53bc 162a df3b 102a 223d e9a8 293d
000000a0: 1aad 32bd 0846 9fbc 1188 fe3c 2a50 02bd
000000b0: f3c8 ea3c 5a38 b2bc 6358 85bd 5cae 843b
000000c0: 32f0 63bd 47e3 033d bf15 8b3d 6d52 58bc
000000d0: a6a2 72bc 85c3 1ebd 48eb 37bd 9b2f 95bd
000000e0: 6e6d b3bb c94b 943c 9a9c 083c a0b0 8c3b
000000f0: a824 a33d 16ba 0f3d dcf2 9b3c 1c45 7b3c
00000100: d933 af3d 35e7 47bd 44ce 33bd e1d5 b4bc
00000110: 07f2 5dbd 3a83 503d b74d 88bd 7c8d 143d
00000120: fd04 31be 95f4 a43c 8d0e 7bbd 4cf5 86bd
00000130: 4e79 213d 44e9 653c b02d 313d 0e55 6cbd
00000140: cd94 fe3c 4664 9abc 6eed 0cbd bacb ba3d
00000150: 64fb 083e 4fdb 42bd 22b4 6dbd 0c43 23bd
00000160: 5713 883d 6270 903d cf47 31be 692d 4ebc
00000170: d0ba e8bc 7b48 9e3d 9637 543d 8fac 7bbd
00000180: ffbf 54bd 9535 7e3c c47b b13d a3a4 4ebd
00000190: b6ad 76bd 71de 733c fc2e 033b 83b3 683d
000001a0: 3ef6 983d 3063 66bc 9160 bcbb 8181 d33c
000001b0: 8084 ab3d 9a1d 29bd 993f 43bc 1737 2e3d
000001c0: 09ec 6ebd fbd7 25bd 6461 92bd 6eae 213d
000001d0: b7d9 82bd 01c0 73be 26b1 eb3b f6be a0bd
000001e0: 5292 91bc cd8e 993d cd88 68bc 791b c2bc
000001f0: 7d58 a2bc 8957 f93c 5b65 a23c cc18 523d
00000200: 6620 073c c027 1cbd 9c0b c2bc 3b06 9c3b
00000210: 844b a9bd db43 673d bd20 abbe 1bb9 123e
00000220: b682 073e a160 923d 2061 c83d 4633 97bd
00000230: 7d42 893a df16 163e d234 c2bd bedc a33d
00000240: bd3c 963d 5c08 b9be 2390 bfbd e224 a7be
00000250: 99a2 cc3d 46ea 6fb9 d9d1 8c3d 1990 9a3d
00000260: 23fa 9e3d 6533 05bd ee41 a33c eec0 7cbd
00000270: 08d6 e33c cf6b 473d 89c1 133d a64a 78bd
00000280: f259 363d 3183 113d bbc6 6e3c 8f17 3fbf
00000290: bb66 a63d 68e7 603d 1017 35bd c646 74bd
000002a0: a48d 98be 7fd2 ac3d f1b0 acbe e8ab 843c
000002b0: c440 b5bd fdb5 283e e090 ccbc 1f42 ff3b
000002c0: e26c cbbe e73d b2bd 0a76 80bd 478e d2bd
000002d0: 798e 0fbd 847b abbe 79e7 41bd 2c7c 363c
000002e0: 9449 1b3d e5de c7bd b0ea 313e 4e7c bbbc
000002f0: fd08 c43c 5f8d 0fbf 67f5 273c b46a 1cbd
00000300: 4a77 7a3d dfd8 9a3c d900 013d c691 a83d
00000310: c10a 11bd 2b54 f23d 2964 9e3d d7e3 b3bd
00000320: 74ae c0bd 7512 4cbe 9d62 a4bd 2687 9d3d
00000330: ee30 59bd 24bb 813b 90c0 8fbd bc9d 4bbf
00000340: c827 b1be f98c 6d3d 25a5 adbe 7d38 ef3c
00000350: 41f1 073c 9eb4 1ebd bde1 aabd ace7 cc3c
00000360: 334a 783d 3820 04bd f98e 923c a1e0 823d
00000370: 29b7 54bd c412 c6bd 2ed9 1c3e 1fe7 c83d
00000380: 7fd5 02bd 0138 9d3c 4280 503d 631a fd3d
00000390: 98d3 1d3d f673 17bc 83a3 2abd 3f3d 653d
000003a0: c805 053d 9d35 663d af51 15bd 42d9 13bd
000003b0: e20b eeba 4ef7 c5bd a7da bdbd 1245 823d
000003c0: 37ed 54bd b981 b23d e0e8 55bd d815 8bbd
000003d0: 6c66 bcbc dc32 b3bd 7e38 ccbc 4f53 abbd
000003e0: 40bc 3fbd 7d64 243d 71d3 83bd 743a ab3c
000003f0: f217 6abd 6331 64bc e136 c83c 6b5c 2e3d

encoder.6.bias f4 [18]
-0.100054115 -0.10495477 0.21796359 0.07399319 -0.03150419 0.04602919 -0.036738485 -0.10252902
0.110317856 -0.021086559 -0.91085005 -0.10343675 -0.011655841 -0.038136363 -0.04409324 0.0001650989
-0.054735236 -0.076361716
00000000: 2ce9 ccbd 87f2 d6bd d931 5f3e be89 973d
00000010: 8a0a 01bd 1b89 3c3d 187b 16bd bcfa d1bd
00000020: 54ee e13d b8bd acbc 782d 69bf a6d6 d3bd
00000030: 24f8 3ebc e034 1cbd 1d9b 34bd 661e 2d39
00000040: 0e32 60bd 8863 9cbd
