models/VAE saves/best_enc_v3.pt (torch, 246935 bytes, 6 tensors)

encoder.0.weight f4 [73, 600]
0	0x3db11cac	0.08648047
1	0x3deb4318	0.114874065
2	0x3dd04708	0.10169798
3	0x3dbf6342	0.09345104
4	0x3dfaebf9	0.122520395
5	0x3e1f6bf5	0.15568526
6	0x3df75ca7	0.12078219
7	0x3e1f3cff	0.15550612
8	0x3e4f98ca	0.20273128
9	0x3e44f6f1	0.19234826
10	0x3e47208e	0.19446012
11	0x3e4c90d0	0.19977117
12	0x3e29b298	0.16572034
13	0x3dd4820c	0.10376367
14	0x3dd63c95	0.10460774
15	0x3d63ef03	0.05564786
16	0x3d9a6fcc	0.07540855
17	0x3da1cfe0	0.07900977
18	0x3dd513f5	0.10404197
19	0x3e0700a7	0.13183843
20	0x3e03cf78	0.12872112
21	0x3e109f67	0.14123307
22	0x3e0bf01d	0.13665815
23	0x3dd7393c	0.105089635
24	0x3d8f64a3	0.07001617
25	0x3d073bff	0.0330162
26	0x3d1957a2	0.03743709
27	0x3bb210ed	0.0054341466
28	0xbc88b221	-0.016686501
29	0x3c4b78b5	0.0124189155
30	0x3cc5c432	0.024141405
31	0x3d0c519d	0.03425752
32	0x3c54a6b7	0.012979201
33	0x3c39c353	0.011338073
34	0x3cb745ba	0.022372115
35	0x3ce272d4	0.027642645
36	0x3ba3af7f	0.004995286
37	0xbd134446	-0.035953782
38	0xbd624615	-0.055242617
39	0xbd5a6580	-0.053319454
40	0xbd8d143b	-0.06888624
41	0xbd82f836	-0.06394999
42	0xbdbd5c57	-0.09246128
43	0xbd8b52c1	-0.068028934
44	0xbd9384ab	-0.07203039
45	0xbd959ebd	-0.073056675
46	0xbd823532	-0.063578025
47	0xbda63d9c	-0.0811722
48	0xbd8c3873	-0.06846704
49	0xbd9696d9	-0.07352991
50	0xbd78286c	-0.060585424
51	0xbd6f845e	-0.058475845
52	0xbd166201	-0.036714558
53	0xbc290637	-0.010316423
54	0xbc48598c	-0.012228381
55	0x3c62335b	0.013806189
56	0x3cbfd0dc	0.023415022
57	0xbc050ac7	-0.008120245
58	0xbc45a6a9	-0.012063661
59	0xbaa00cc2	-0.0012210833
60	0x3ce59ea8	0.028029755
61	0x3d5d4f19	0.05403051
62	0x3d40dcbd	0.047085512
63	0x3d545ec2	0.05184818
64	0x3d9aaa8b	0.0755206
65	0x3e11f979	0.14255323
66	0x3e12ddf9	0.14342488
67	0x3e76bab0	0.24094653
68	0x3e7c9544	0.24666315
69	0x3e6b614f	0.22986339
70	0x3dcd24ff	0.10016822
71	0x3d0beeb9	0.03416321
72	0x3d54f66b	0.051992815
73	0x3df5c5df	0.120006315
74	0x3e2ef637	0.17086111
75	0x3e087ed9	0.13329639
76	0x3e27d4c4	0.16389757
77	0x3e37c671	0.17946793
78	0x3e309af8	0.17246616
79	0x3e25be57	0.1618589
80	0x3e2d6f81	0.16937067
81	0x3de1d0c2	0.110261455
82	0x3dddb6ac	0.108258575
83	0x3db77bca	0.08959158
84	0x3cc60539	0.024172412
85	0x3ce77fc1	0.02825916
86	0x3d3ad494	0.045612887
87	0x3d22cdef	0.039747175
88	0x3c49f2b8	0.012325935
89	0xbbffd220	-0.0078070313
90	0xbbc5ee9f	-0.0060404087
91	0x3acacbff	0.0015472173
92	0x3a8dc025	0.001081471
93	0x3c34004c	0.010986399
94	0x3d6074ca	0.05479888
95	0x3d8508a0	0.06495786
96	0x3d837be0	0.06420112
97	0x3d281e81	0.041044716
98	0x3d11dc6c	0.0356106
99	0x3caa92dd	0.020821983
100	0x3c88399a	0.016629029
101	0x3b055e70	0.0020350479
102	0x3b5360d6	0.0032253764
103	0x3d455ab0	0.04818219
104	0x3cfaf2db	0.03063338
105	0x3c9d743e	0.019220468
106	0x3b493248	0.0030700136
107	0xbcd442e1	-0.025910797
108	0xbd067dad	-0.032834698
109	0xbd549c13	-0.051906656
110	0xbd964bbb	-0.07338663
111	0xbd94edf5	-0.07271949
112	0xbd366912	-0.044533797
113	0xbd1e2878	-0.038612813
114	0xbcfa8b90	-0.030584127
115	0x3af7e1e6	0.0018911927
116	0xbcb716c8	-0.02234973
117	0xbd4c3eb0	-0.04986447
118	0xbdc35410	-0.09537518
119	0xbddb9f97	-0.10723799
120	0x3dae9856	0.085251495
121	0x3d8cb368	0.068701565
122	0x3dcd3048	0.100189745
123	0x3e34ffb8	0.17675674
124	0x3e70c374	0.2351206
125	0x3e83e35f	0.25759408
126	0x3e8c0c7b	0.27353272
127	0x3e7dcced	0.24785204
128	0x3e835508	0.2565081
129	0x3e7ef65d	0.24898668
130	0x3e95bf54	0.29247534
131	0x3e88520d	0.266251
132	0x3e3bb8fa	0.18332282
133	0x3df8bd87	0.121455245
134	0x3e1281bc	0.14307302
135	0x3e382dbd	0.17986198
136	0x3e334065	0.17505033
137	0x3e4abc1a	0.19798318
138	0x3e085976	0.13315377
139	0x3dae6cbf	0.085168354
140	0x3da7226c	0.08160862
141	0x3d84101e	0.064483866
142	0x3da3fc57	0.080071144
143	0x3d7a116d	0.061051775
144	0x3d5f84b8	0.05456993
145	0x3d5d2566	0.053990744
146	0x3d3937c3	0.045219194
147	0x3caba676	0.020953398
148	0xbc8b75d2	-0.017023955
149	0xbcb65f7e	-0.022262331
150	0xbc919a3b	-0.017773738
151	0x3bd6faa2	0.0065606395
152	0x3c6cee1c	0.014461067
153	0x3ce40ca4	0.027838059
154	0x3d2148bb	0.039376
155	0x3d11aa66	0.035562895
156	0xbc03cfd2	-0.008045154
157	0xbc761909	-0.015020617
158	0xbcf39c18	-0.029737517
159	0xbd2a1082	-0.04151965
160	0xbcdef972	-0.027218554
161	0xbc8fcb4a	-0.01755299
162	0x3ace1510	0.001572283
163	0xbbb4e4e7	-0.0055204513
164	0x3bafd2f9	0.005365726
165	0xbbb8b099	-0.0056362865
166	0xbb9a9eac	-0.004718622
167	0xbca03462	-0.019556228
168	0xbccdd9df	-0.025128303
169	0xbc88592a	-0.01664408
170	0xbd761025	-0.06007399
171	0xbd52f1f3	-0.051500272
172	0xbd72af3f	-0.05924916
173	0xbd5b2f1c	-0.053511724
174	0xbd3780ff	-0.044800755
175	0xbd3c7c8e	-0.046017222
176	0xbd7d3a88	-0.061823398
177	0xbd4fa3b0	-0.050693214
178	0xbd91aa40	-0.07112551
179	0xbdb55775	-0.08854572
180	0xbacc142a	-0.0015569974
181	0x3d36ca81	0.044626717
182	0x3daa4c4c	0.08315334
183	0x3e2f2f20	0.1710782
184	0x3e6ab9f4	0.22922498
185	0x3e7fa48f	0.24965118
186	0x3e770d2c	0.24126118
187	0x3e96dafd	0.2946395
188	0x3e6d6718	0.23183858
189	0x3e6eab37	0.23307501
190	0x3e7b974c	0.24569434
191	0x3e3683e9	0.17823757
192	0x3e0bacca	0.13640133
193	0x3e047f0f	0.12939094
194	0x3e1c0fcb	0.152404
195	0x3e3a02d5	0.18165143
196	0x3e420b68	0.18949664
197	0x3e315eaf	0.17321275
198	0x3e4110b2	0.18854025
199	0x3e36da73	0.1785677
200	0x3e652104	0.22375876
201	0x3e42bc4d	0.19017144
202	0x3e1ccaad	0.1531169
203	0x3d4cecc1	0.050030474
204	0xbcb72223	-0.022355145
205	0xbd1245ca	-0.035711087
206	0x3c946830	0.018116087
207	0x3d10b962	0.035333045
208	0x3d1ddcc5	0.03854062
209	0x3d25c0c4	0.04046704
210	0x3d2a9a57	0.041651096
211	0x3cf7ba46	0.03024019
212	0x3d15b8aa	0.036553062
213	0x3d612c6b	0.054974
214	0x3d7153a9	0.058917675
215	0x3d9b17f3	0.07572927
216	0x3d87cd6e	0.066309795
217	0x3d1a415a	0.03765998
218	0x3c0d7194	0.008633036
219	0x3c1c4aa2	0.009539278
220	0xbcaa64e2	-0.020800058
221	0xbce22078	-0.027603373
222	0xbd04484a	-0.032295503
223	0xbd305b02	-0.04305554
224	0xbcf40608	-0.029788032
225	0xbd108fdc	-0.035293445
226	0xbd0778eb	-0.0330743
227	0xbd1e4f58	-0.038649887
228	0xbd4112ad	-0.04713695
229	0xbd9c49b0	-0.07631242
230	0xbdb97232	-0.09054984
231	0xbdb02e03	-0.08602526
232	0xbdbe55e2	-0.092937246
233	0xbda874fa	-0.082254365
234	0xbd95cb06	-0.07314114
235	0xbd2575c2	-0.040395506
236	0xbd4e11b5	-0.050309855
237	0xbd4a986d	-0.04946177
238	0xbdaeada4	-0.08529213
239	0xbdf0a7fb	-0.1175079
240	0x3d14cc4c	0.036327645
241	0x3d89d85d	0.06730721
242	0x3dca3cde	0.09874891
243	0x3e22542e	0.15852425
244	0x3e64a8a5	0.22329958
245	0x3e77c4a8	0.24196112
246	0x3e9558f5	0.2916943
247	0x3e99a3d2	0.30007797
248	0x3ea0092b	0.31256995
249	0x3ea54c03	0.32284555
250	0x3eaddf06	0.33959216
251	0x3eb1a83d	0.34698668
252	0x3ead5a7d	0.338581
253	0x3ea14d21	0.31504157
254	0x3e7f425d	0.2492766
255	0x3e5378f1	0.20651604

encoder.0.bias f4 [73]
0	0x3c623597	0.013806722
1	0xbc35937c	-0.011082526
2	0xbb850299	-0.0040591476
3	0xbdbec6d7	-0.093152694
4	0xbd9a033d	-0.07520149
5	0xbcfea791	-0.031085761
6	0xbd1dc4cb	-0.038517755
7	0xbdd4f913	-0.1039907
8	0x3b31f6ed	0.0027155236
9	0xbd93d262	-0.07217862
10	0x3cc8c4e6	0.024507951
11	0xbc3a5138	-0.011371903
12	0xbd10518f	-0.03523403
13	0xbd0d6e86	-0.03452923
14	0xbc2b117f	-0.010441183
15	0xbd095592	-0.03352887
16	0xbd4e1145	-0.05030944
17	0xbd868cc4	-0.06569818
18	0xbd96963e	-0.07352875
19	0xbc4e454a	-0.012589762
20	0xbd12fdde	-0.035886638
21	0xbcc47749	-0.02398266
22	0x3bf4ed2a	0.007474561
23	0x3aec3a31	0.0018022713
24	0x3d374e7a	0.044752575
25	0xbc8d9f9f	-0.017288027
26	0xbc9dbd96	-0.01925544
27	0xbc2faaab	-0.010721843
28	0xbd0094c1	-0.031391863
29	0x3d323657	0.043508854
30	0xbd89519c	-0.06705019
31	0xbccae642	-0.024767999
32	0x3a4c58a2	0.000779519
33	0xbd67cb20	-0.0565902
34	0xbd7fd23f	-0.062456366
35	0xbc51d6c7	-0.012807555
36	0x3d648738	0.055793017
37	0xba9408d8	-0.001129414
38	0x3b0474d1	0.002021123
39	0xbbab29a1	-0.0052234684
40	0xbb565c6a	-0.0032708892
41	0xbc8502d0	-0.016236693
42	0xbad751c6	-0.0016427569
43	0xbd38c228	-0.045107037
44	0xbdaa7455	-0.0832297
45	0xbdecd159	-0.115633674
46	0xbd8ef313	-0.069799565
47	0xbce553be	-0.027994033
48	0xbd0779ad	-0.033075023
49	0xbd0779aa	-0.033075012
50	0xbd1fcca9	-0.03901354
51	0xb99e6f51	-0.00030219046
52	0x3cbd1c05	0.02308465
53	0x3cd5c99a	0.026097108
54	0xbb568162	-0.0032730927
55	0x3d17d9cb	0.037072938
56	0xbc5c8e76	-0.0134617
57	0xbda218a5	-0.07914857
58	0xbd9c2f8f	-0.076262586
59	0xbd5366c8	-0.05161169
60	0x3c974c95	0.018469134
61	0xbdc9cf2a	-0.098539665
62	0xbd5de8ab	-0.054176968
63	0xbc6f48ef	-0.014604791
64	0x3ce2fc22	0.027708117
65	0x3cfb6241	0.0306865
66	0x3bcfc9ea	0.0063412087
67	0xbd52f940	-0.051507235
68	0x3ba41901	0.0050078635
69	0x3cf403e1	0.029787006
70	0x3b83adc3	0.0040185167
71	0xbd09227d	-0.033480156
72	0x3bf62e7a	0.0075128647

encoder.3.weight f4 [188, 73]
0	0x3d83913a	0.06424184
1	0x3c6e4d4c	0.014544796
2	0x3d4f221f	0.05056965
3	0x3cb15469	0.021646695
4	0x3db6c1b5	0.089236654
5	0xbde3bafa	-0.11119647
6	0xbd8bdbb5	-0.06829015
7	0xbe0bc33f	-0.13648699
8	0x3c9366f7	0.017993433
9	0xbdd66322	-0.10468127
10	0x3dc8ad3f	0.09798669
11	0xbd462998	-0.04837951
12	0x3cb3dae1	0.021954956
13	0xbcb8600e	-0.02250674
14	0xbd28b6ed	-0.041190077
15	0x3c269972	0.01016842
16	0xbaf610ac	-0.0018773279
17	0xbd29044b	-0.04126386
18	0xbd4e5ca9	-0.050381336
19	0x3d08bd11	0.033383433
20	0x3adaf06b	0.001670373
21	0x3d9d2154	0.076723725
22	0xbc6c6869	-0.01442919
23	0x3d606a72	0.054789014
24	0x3df2a28c	0.118474096
25	0xbc5d52e1	-0.013508529
26	0xbdddda93	-0.10832705
27	0xbcd32e3e	-0.025778886
28	0xbdd28900	-0.10280037
29	0x3d3a76bf	0.0455234
30	0x3ccb1d08	0.024794117
31	0x3d0df388	0.034656078
32	0x3e019687	0.12655078
33	0xbdda662c	-0.10664019
34	0x3ca36cf3	0.019949412
35	0x3a4c5ca1	0.0007795785
36	0x3dee6de2	0.11642052
37	0x3db83ebc	0.08996341
38	0x3bab0267	0.0052187922
39	0x3db1aa97	0.086751156
40	0xbadf2c34	-0.0017026723
41	0xbdc8c826	-0.098038
42	0xbcaf326b	-0.021386346
43	0x3c0e1629	0.008672276
44	0x3c2640cf	0.0101472875
45	0xbdeb427e	-0.11487292
46	0x3afdf2b4	0.0019374699
47	0xbce444c1	-0.027864816
48	0xbd245bbd	-0.04012655
49	0x3d7edb62	0.06222094
50	0x3d3c898b	0.04602961
51	0xbcf3d0fb	-0.029762736
52	0x3da5305d	0.08065865
53	0x3daffec2	0.08593513
54	0x3dcc9fba	0.09991403
55	0x3d6fe521	0.058568124
56	0xbd5d8890	-0.054085314
57	0xbe072b10	-0.13200021
58	0xbdbd7842	-0.09251453
59	0xbcb54700	-0.022128582
60	0x3d85f720	0.06541276
61	0xbe1da491	-0.15394808
62	0xbe41f406	-0.18940744
63	0xbc0f7afe	-0.008757351
64	0x3d9134e7	0.070901684
65	0x3c83320c	0.016015075
66	0x3d484d7d	0.048902024
67	0xbb97deb3	-0.004634702
68	0x3cc8072c	0.024417482
69	0x3d8cfe72	0.06884469
70	0xb9a1af95	-0.00030839132
71	0xbd7d85cf	-0.061895188
72	0xbd481b09	-0.048853908
73	0x3ba82b0c	0.0051320847
74	0xbcbe04fb	-0.023195734
75	0x3c2e01c8	0.010620542
76	0xbcb1b854	-0.02169434
77	0xbc441c6e	-0.011969669
78	0x39f7c7cb	0.0004726037
79	0xbc3893c9	-0.0112657035
80	0xbcbecb7f	-0.023290394
81	0xbcc7d549	-0.024393694
82	0xbc3e5752	-0.0116174985
83	0xbc1978ae	-0.009367151
84	0xbca9f9d8	-0.020749018
85	0xbcadcca1	-0.021215739
86	0x395e71ec	0.00021214009
87	0x38d7f743	0.00010298055
88	0xbcbb9f6f	-0.022903172
89	0xbcab0ce8	-0.020880178
90	0x3c18b6e9	0.009320953
91	0xbcacae70	-0.021079272
92	0xbcac6bca	-0.021047492
93	0xbca8b100	-0.020592213
94	0xbcaff852	-0.021480713
95	0xbcb8e436	-0.022569757
96	0xba721b3a	-0.00092356245
97	0xbbb0fd02	-0.0054012546
98	0xbcb9af8f	-0.02266672
99	0xbc2d0dcf	-0.010562374
100	0xbcb7bc4c	-0.022428654
101	0x3ba0d27d	0.0049079047
102	0xbc28d692	-0.010305064
103	0xbc3b0b03	-0.0114162
104	0xbc3bb923	-0.011457714
105	0xbbf8d08c	-0.00759322
106	0xbcb98ffd	-0.022651667
107	0xbcad9e21	-0.021193566
108	0xbcaecc03	-0.021337515
109	0xbcc52dba	-0.024069656
110	0xbbf350ba	-0.007425395
111	0xbcb05810	-0.021526366
112	0xbcb4eef9	-0.022086607
113	0xbcbafd1e	-0.022825774
114	0x3c12ef20	0.008968145
115	0x3c3d9676	0.011571517
116	0x3be6cf74	0.0070437733
117	0x3c2cdcf6	0.010550728
118	0x3aeb5dc2	0.0017957019
119	0xbcb43940	-0.021999955
120	0xbc379926	-0.011205947
121	0xbc22c4ff	-0.009934663
122	0xbcaeafce	-0.021324065
123	0xbc26a772	-0.010171758
124	0xbc5202e9	-0.012818077
125	0xbcbe8a13	-0.023259198
126	0xbce7f61b	-0.028315594
127	0xbcbc34cd	-0.022974396
128	0x3c660193	0.014038461
129	0xbccc8fda	-0.024970938
130	0x393a6263	0.00017774994
131	0xbc1b02aa	-0.009461084
132	0xbcb9384c	-0.022609852
133	0xbc286f2a	-0.01028041
134	0xba918cef	-0.0011104624
135	0xbcc0011f	-0.023438035
136	0xbc36f94f	-0.011167838
137	0x3c3e05ec	0.011598092
138	0xbbf4cfe5	-0.007471072
139	0xbcb916ab	-0.022593817
140	0xbc507614	-0.0127234645
141	0xbcaf9989	-0.021435516
142	0xbcc71d40	-0.02430594
143	0xbcc42171	-0.023941727
144	0xbc448880	-0.011995435
145	0xbcbbbddf	-0.022917686
146	0x39e95070	0.00044501154
147	0x39f0afbe	0.00045907305
148	0xba6111cb	-0.000858572
149	0x38b206e5	8.4889856e-05
150	0x3ac5698a	0.001506136
151	0xbc413d26	-0.011794364
152	0xbc351bb2	-0.011053966
153	0xba2ce52f	-0.00065954303
154	0xba11fa73	-0.0005568631
155	0x3999bdd8	0.0002932388
156	0xbc27e9af	-0.010248586
157	0xbc2c09bb	-0.010500367
158	0xba612211	-0.0008588145
159	0x3a3e695e	0.0007263626
160	0xbaa03410	-0.0012222547
161	0x3af2ecec	0.0018533743
162	0x39ebeedc	0.00045000657
163	0xba581d0c	-0.00082440744
164	0xb9c5fc9b	-0.00037762974
165	0xbc3afb8e	-0.011412514
166	0x3b0781e3	0.0020676784
167	0x3a1dcc12	0.00060194836
168	0xbc31e568	-0.010857917
169	0xb938dedb	-0.00017630628
170	0xbc26fde4	-0.010192368
171	0xbc2a2c63	-0.010386559
172	0x38fa6053	0.00011938871
173	0xbc310eee	-0.010806782
174	0xbb09ba66	-0.0021015643
175	0x3a014d4b	0.0004932477
176	0xb8561369	-5.1039653e-05
177	0x3a17a5f4	0.0005784922
178	0xbc1e9e4b	-0.009681295
179	0x3ac3d777	0.0014941533
180	0x3a0d82f7	0.00053982384
181	0xbaad62f0	-0.0013228338
182	0xbc30de7e	-0.010795234
183	0xbc15c543	-0.009141269
184	0xbb250997	-0.0025182718
185	0xbc4b808e	-0.012420787
186	0x3a151014	0.0005686295
187	0x3a0c7229	0.00053575874
188	0xbc3203b4	-0.010865141
189	0xba8d1b8c	-0.0010765656
190	0x39ab8785	0.00032716632
191	0x39272262	0.0001593917
192	0x3a1a3325	0.0005882255
193	0x3a32c43a	0.0006819401
194	0xbc238e16	-0.009982606
195	0x38ceed19	9.867008e-05
196	0x3aafef3d	0.0013422739
197	0xba84a6c3	-0.00101205
198	0x3a916254	0.0011091926
199	0x3889e0cc	6.574541e-05
200	0xb98333a5	-0.00025024745
201	0xba51fce6	-0.0008010402
202	0xbc27dfd1	-0.010246233
203	0xb8479377	-4.7582635e-05
204	0xb9e14381	-0.0004296564
205	0x3a9809d3	0.0011599608
206	0xbc1b80b6	-0.009491136
207	0xbc35bc03	-0.011092189
208	0x3a361a3a	0.0006946657
209	0xba9e219a	-0.0012064457
210	0xbc35f8f9	-0.011106723
211	0xbc30994d	-0.010778737
212	0xbad5c758	-0.001631002
213	0x395158d5	0.00019964886
214	0xbc40379e	-0.01173201
215	0xbc503daa	-0.012710014
216	0x3a02ab74	0.0004984655
217	0x39161aa4	0.00014315039
218	0xbc306a27	-0.010767496
219	0xb8846874	-6.3137064e-05
220	0x3c21de8a	0.009879718
221	0xbc304ceb	-0.010760526
222	0xbc1e5836	-0.009664586
223	0xbc2916c1	-0.010320366
224	0xbc44e254	-0.012016851
225	0xbc2faffb	-0.010723109
226	0xbc2cb5c1	-0.01054138
227	0xbc459c71	-0.012061224
228	0x3a47eadd	0.0007626245
229	0xbc3ca7be	-0.011514602
230	0xbc14370d	-0.009046328
231	0xbc2bee2f	-0.010493799
232	0x39849db8	0.00025294512
233	0xba9230bd	-0.0011153441
234	0xbc4cb8ef	-0.0124952635
235	0xbc39d970	-0.011343345
236	0xbc290217	-0.01031544
237	0xbc20e583	-0.009820345
238	0xbc4c9326	-0.012486255
239	0xbc32a766	-0.010904169
240	0xbc2818dc	-0.010259833
241	0xbc212916	-0.009836456
242	0x3ab13a16	0.0013521339
243	0xbc32df75	-0.010917534
244	0xbc39e491	-0.011345998
245	0xbaaf8453	-0.0013390876
246	0x3c3cc3ff	0.0115213385
247	0x3c1f9f39	0.0097425515
248	0x372948dd	1.009015e-05
249	0xbc0e411c	-0.0086825155
250	0x3c5814ab	0.013188521
251	0xbba8ab77	-0.0051473933
252	0xbc37ac19	-0.011210465
253	0xbc2a735f	-0.010403483
254	0xbc61a613	-0.013772505
255	0xbc36835b	-0.011139716

encoder.3.bias f4 [188]
0	0x3e0f2030	0.13977122
1	0xbc497ec8	-0.012298293
2	0xbc4d7767	-0.012540675
3	0xbc2b369b	-0.010450031
4	0xbc47ab5f	-0.012186854
5	0xbc49c20a	-0.012314329
6	0xbae82fae	-0.0017714405
7	0xbc6935c2	-0.014234008
8	0xbca7cbb6	-0.02048288
9	0xbc9f7964	-0.019467063
10	0x3dd8953d	0.1057534
11	0xbca22b69	-0.01979609
12	0xbc3d08aa	-0.01153771
13	0xbc350a34	-0.011049796
14	0x3d7cb140	0.061692476
15	0xbb863f21	-0.004096881
16	0x3e0acb80	0.13554192
17	0x3cde2f43	0.027122146
18	0xbc620806	-0.013795858
19	0x3e36f9f3	0.17868786
20	0x3b7d8a6a	0.0038687238
21	0xbcca23ad	-0.024675215
22	0x3e14743c	0.14497465
23	0xbcaf8817	-0.021427197
24	0x3dd6a02e	0.104797706
25	0xbc3bc81f	-0.011461287
26	0xbcc982a8	-0.024598435
27	0xbc14f0b5	-0.009090592
28	0x3e06d4fe	0.13167188
29	0x3ddd4b10	0.10805333
30	0x3dd891d9	0.10574693
31	0xbce157c3	-0.027507668
32	0xbc4d8ba1	-0.012545497
33	0x3cdb0767	0.026736928
34	0xbc445b4e	-0.011984659
35	0x3e1677ec	0.14694184
36	0x3e2e4b6c	0.17020959
37	0xbc2b57c6	-0.010457939
38	0x3e410e61	0.18853141
39	0x3e64312b	0.22284381
40	0xba7464c2	-0.00093228754
41	0x3c18a14b	0.009315799
42	0xbc2f15d3	-0.010686356
43	0xbd4bbcd2	-0.04974062
44	0x3c4aa64a	0.012368748
45	0x3cb7f8e7	0.022457553
46	0xbc438cbd	-0.01193541
47	0x3c938a51	0.01801029
48	0xbc9a1ada	-0.018811632
49	0x3d846ded	0.06466279
50	0x3c0b3504	0.008496527
51	0x3cc37f4c	0.02386441
52	0x3b7f13c5	0.0038921696
53	0x3c60e824	0.013727222
54	0x3de305fc	0.11085126
55	0x3deb8f32	0.11501922
56	0xbc2f46d9	-0.010698044
57	0xbcbe929f	-0.023263274
58	0xbd10870e	-0.03528505
59	0xbcd0b97b	-0.025479069
60	0x3c94b9f0	0.018155068
61	0xbcac81b0	-0.021057934
62	0x3d93811f	0.07202362
63	0xbc38e029	-0.011283913
64	0x3e0640ad	0.1311061
65	0x3de534aa	0.111916855
66	0xbc49a69a	-0.012307787
67	0x3d9894d9	0.074502654
68	0x3cbfba1a	0.02340417
69	0x3ddc533d	0.10758064
70	0xbc26a6a6	-0.010171568
71	0xbcaf8866	-0.021427345
72	0xbc35d208	-0.011097439
73	0xbc45ef2f	-0.012080952
74	0xbb776b18	-0.0037753042
75	0xbc97f098	-0.018547341
76	0xbc5b3c9c	-0.01338115
77	0xbcaf6293	-0.021409309
78	0xbc2be5f3	-0.010491836
79	0x3d5aea44	0.05344607
80	0xbd0fc157	-0.035096493
81	0xbc24dedf	-0.010062902
82	0x3d5ef8c0	0.054436445
83	0x3dd27c6c	0.10277638
84	0x3e02dbf4	0.12779218
85	0xbca735db	-0.020411422
86	0xbcfae04b	-0.03062453
87	0xbc450715	-0.012025614
88	0x3e446314	0.1917842
89	0x3d931fc5	0.07183794
90	0xbc3d4a55	-0.011553367
91	0x3d6f9d88	0.058499843
92	0x3ddcc367	0.107794575
93	0xbcbb5de9	-0.022871928
94	0x3ca2f4c2	0.0198921
95	0xbc0841a0	-0.0083164275
96	0x3e661b46	0.22471341
97	0x3e0cf610	0.1376574
98	0xbbfec5fb	-0.007775066
99	0x3df70208	0.12060934
100	0xbc734d15	-0.014849921
101	0xbc6b6f02	-0.014369728
102	0xbcad3935	-0.021145443
103	0x3d2d852a	0.042363323
104	0x3d4f5596	0.05061873
105	0x3d70ac1c	0.058757886
106	0x3e517bed	0.2045743
107	0x3d310616	0.043218695
108	0xbc33806e	-0.010955913
109	0xbc909c6b	-0.01765271
110	0xbae1f124	-0.0017238003
111	0xbcb72a41	-0.022359015
112	0xbbe6d970	-0.0070449635
113	0xbc474a9c	-0.012163784
114	0xbbd1d5e6	-0.0064036725
115	0x3da72e19	0.08163089
116	0x3d363b23	0.04448999
117	0x3dadcffd	0.08486936
118	0x3e160aa4	0.14652497
119	0xbc2d2af6	-0.010569325
120	0x3c4a41e3	0.01234481
121	0xbcfb1e61	-0.030654134
122	0x3d8f0619	0.06983585
123	0x3d236cbd	0.039898623
124	0xba5aa2fd	-0.0008340327
125	0xbb3dfa9f	-0.0028988493
126	0x3d7e0e6b	0.06202547
127	0x3e83fb9f	0.2577791
128	0xbb38afce	-0.002818096
129	0xbc8986e3	-0.016787952
130	0x3dcc6a38	0.09981197
131	0x3e5d3ba3	0.21604781
132	0xbc38e48e	-0.01128496
133	0xbc827d08	-0.01592876
134	0x3dcc1e70	0.09966743
135	0xbc094207	-0.008377559
136	0xbc4b60e9	-0.012413242
137	0x3cff8be4	0.031194635
138	0x3d3d664d	0.04624014
139	0x3e3c17f7	0.18368517
140	0x3dce6b27	0.100790314
141	0x3d76304f	0.060104664
142	0x3e39cc6e	0.1814439
143	0xbc3e9225	-0.011631523
144	0xbc8092b3	-0.015694952
145	0xbc72cc46	-0.01481921
146	0x3d26bd88	0.040708095
147	0x3e411271	0.18854691
148	0x3e1e6fe6	0.15472373
149	0x3e8dcaa1	0.27693656
150	0x3d80852e	0.06275402
151	0x3ce68da9	0.02814372
152	0xbcb8a98b	-0.022541782
153	0x3e624410	0.22096276
154	0xbcb8ac62	-0.022543136
155	0xbcbc8069	-0.02301045
156	0x3dc5b7e0	0.09654212
157	0xbc211b3d	-0.009833154
158	0xbc43bcae	-0.01194684
159	0xbc257b09	-0.010100135
160	0xbc254a00	-0.010088444
161	0xbc5a4adf	-0.013323515
162	0x3e16732a	0.14692369
163	0x3e723da9	0.23656334
164	0x3d3e01a5	0.046388287
165	0xbc3d5e03	-0.011558059
166	0xbc46eeb3	-0.012141871
167	0xbc538301	-0.012909652
168	0x3dea66ff	0.11445426
169	0x3e0e51a6	0.13898334
170	0x3dea6a69	0.114460774
171	0x3db0cd17	0.08632868
172	0xbc1e18bc	-0.009649452
173	0xbc94e599	-0.018175887
174	0xbcc7a7b5	-0.024371961
175	0x3e0ff809	0.14059462
176	0x3e1291de	0.14313456
177	0xbc875f2c	-0.016524874
178	0x3d2a4223	0.04156698
179	0xbc2e337c	-0.010632392
180	0xbca5c11b	-0.020233681
181	0xbd4ea151	-0.050446812
182	0x3cc26b41	0.023732783
183	0xbc8bce8d	-0.017066265
184	0xba8b7bac	-0.0010641715
185	0xbc505964	-0.012716625
186	0xbc301493	-0.010747093
187	0xbc29db04	-0.010367159

encoder.6.weight f4 [18, 188]
0	0xbd9cdf3e	-0.076597676
1	0x3cc29643	0.023753291
2	0xbd00edbc	-0.03147672
3	0xbd57c1d0	-0.05267507
4	0x3d93dfe2	0.07220437
5	0x3c93e36f	0.018052785
6	0x3d6d7506	0.05797293
7	0xbd89f67d	-0.06736467
8	0x3d085728	0.033286244
9	0x3d191ae0	0.037379146
10	0xbccae46d	-0.024767125
11	0xbd11e886	-0.035622142
12	0x3bf46faa	0.0074596005
13	0xbda3b6d5	-0.07993857
14	0xbc63ebb1	-0.013911174
15	0xbc34ecfd	-0.0110428305
16	0xbd1351c0	-0.035966635
17	0xbd134524	-0.03595461
18	0xbd84f62d	-0.06492267
19	0xbd84d2e6	-0.06485538
20	0xbd5367c2	-0.051612623
21	0x3d12fb70	0.03588432
22	0x3d9c44e2	0.07630326
23	0xbad02b26	-0.0015882
24	0xbbd9d00b	-0.006647115
25	0x3ca4c712	0.020114455
26	0xbc9e1ce8	-0.019300893
27	0xbda4d352	-0.08048119
28	0xbd9023c3	-0.07038071
29	0x3c94f849	0.018184798
30	0xbca5fb9b	-0.020261576
31	0xbd8b7a40	-0.06810427
32	0x3d9a796d	0.075426914
33	0xbcab7e06	-0.020934116
34	0x3ccd1439	0.025034057
35	0xbde95397	-0.113928966
36	0xbcc52a70	-0.024068087
37	0x3a98d6c1	0.0011660681
38	0x3d0d1739	0.034445975
39	0x3d9babc3	0.0760112
40	0x3d0fdc7c	0.03512238
41	0xbd15d820	-0.036583066
42	0xbd91cf8f	-0.07119667
43	0x3d88753d	0.066629864
44	0x3c3fe4e9	0.011712291
45	0x3d9601cb	0.07324561
46	0x3c17def3	0.009269464
47	0x3d33dba0	0.043910623
48	0x3d19366a	0.03740541
49	0x3c278b1a	0.0102260355
50	0x3c424c7c	0.011859056
51	0xbb6eed53	-0.0036457374
52	0x3b61a3ee	0.0034429985
53	0x3d95bd8c	0.07311544
54	0x3ccf44fe	0.025301453
55	0x3d4b333f	0.04960942
56	0xbcd8eb67	-0.026479436
57	0x3cbf9e37	0.023390872
58	0xbcb10774	-0.02161
59	0x3da529d8	0.08064622
60	0x3d24dab7	0.040247645
61	0xbd74a0b9	-0.05972359
62	0xbd425ee1	-0.047453765
63	0x3d081a47	0.033228185
64	0x3d1b4620	0.037908673
65	0xbb927859	-0.004469913
66	0x3c19a46f	0.009377583
67	0x3db8b9be	0.090198025
68	0xbd1a4a4e	-0.03766852
69	0xbd07fa6d	-0.03319781
70	0x3d4c49dc	0.049875125
71	0xbc82e406	-0.01597787
72	0xbd531a72	-0.051538892
73	0xbc82a47e	-0.015947577
74	0xbd4786e7	-0.048712637
75	0x3d2ca64a	0.042150773
76	0xbc269b7e	-0.010168908
77	0xbd1b3c53	-0.037899327
78	0xbd3cbdb8	-0.046079367
79	0x3c81c5e3	0.01584143
80	0x3a8ab239	0.0010581679
81	0xbd0c8a7d	-0.03431176
82	0x3d888ae1	0.06667114
83	0xbc9d505b	-0.019203356
84	0x3d28f7c2	0.041251905
85	0x3bacba95	0.0052712657
86	0x3c731f38	0.014838986
87	0x3cb26a33	0.021779155
88	0x3bdf56b4	0.0068157557
89	0xbc7d02c6	-0.015442556
90	0xbd63706f	-0.055527147
91	0xbc343f3c	-0.011001404
92	0x3d11ea02	0.035623558
93	0x3c610c03	0.013735774
94	0xbb75119b	-0.0037394527
95	0x3daf286e	0.08552633
96	0x3d4cbe40	0.049986124
97	0x3d4781fa	0.04870794
98	0xbd6b5fbc	-0.057464346
99	0x3d670c80	0.056408405
100	0xbba5fbed	-0.0050654323
101	0xbc831374	-0.016000487
102	0xba7cd85d	-0.0009645278
103	0xbcccc4b3	-0.024996137
104	0x3c5bd1d1	0.013416723
105	0x3db00ea1	0.0859654
106	0x3c81ac41	0.015829207
107	0xbdcc1044	-0.0996404
108	0x3caec0da	0.021332193
109	0xbb62c696	-0.003460323
110	0x3d632749	0.055457387
111	0xbd74a7bf	-0.059730288
112	0xbcfaa2a2	-0.030595127
113	0xbe340d71	-0.17583252
114	0xbd4b9cbb	-0.049710017
115	0x3d1ed93e	0.038781397
116	0x3dc3d7fc	0.0956268
117	0x3c18f520	0.009335786
118	0x3c35bee4	0.011092875
119	0x3ccd01ae	0.025025215
120	0xbdf28abd	-0.118428685
121	0xbd0d18ae	-0.034447365
122	0x3cea8bad	0.028631056
123	0xbaf58697	-0.0018732128
124	0x3beb2fab	0.0071773133
125	0xbc9ff7ab	-0.019527277
126	0x3e06246c	0.13099831
127	0x3cb205a2	0.021731202
128	0xbc675e71	-0.014121638
129	0x3d13c8e1	0.036080245
130	0x3c089295	0.008335729
131	0x3dd30160	0.10302997
132	0x3d62ee21	0.05540288
133	0xbd55f187	-0.05223229
134	0xbc3f5463	-0.011677834
135	0xbcb2bb42	-0.021817807
136	0xbd47dc9f	-0.048794385
137	0x3c9ca649	0.01912226
138	0xbcb480d5	-0.022034088
139	0x3d6260c0	0.05526805
140	0xbd99c879	-0.0750894
141	0xbd52448a	-0.051334895
142	0x3ce8e56a	0.028429706
143	0x3c91f95e	0.017819103
144	0x3c8df48b	0.017328521
145	0x3c483d3a	0.012221629
146	0x3c87eb93	0.016591823
147	0xbcdf55e9	-0.027262645
148	0x3d156984	0.03647758
149	0x3d08580a	0.033287086
150	0x3df47fde	0.11938451
151	0xbcb00337	-0.021485908
152	0x3d429a2a	0.047510304
153	0xbcf184f8	-0.02948235
154	0xbd96a245	-0.07355169
155	0xbcf79bbc	-0.030225627
156	0x3cae9a83	0.021313911
157	0x3bbd5ee9	0.0057791364
158	0xbd14f801	-0.036369327
159	0x3ce75ed3	0.028243458
160	0xbc913bee	-0.017728772
161	0xbd315ebb	-0.043303233
162	0x3d595de0	0.05306804
163	0x3c394048	0.01130683
164	0x3da40d96	0.08010404
165	0x3d9b4f13	0.075834416
166	0xbcad194a	-0.021130223
167	0xbd06f4d1	-0.03294832
168	0x3c2c7aa3	0.010527286
169	0x3d092d2e	0.033490352
170	0x3df6b9d2	0.12047161
171	0xbbe56515	-0.0070005753
172	0x3c910e16	0.017706912
173	0xbc3df9f1	-0.011595235
174	0x3b77a903	0.0037789948
175	0x3d72ca95	0.05927523
176	0xbb8c4625	-0.004280823
177	0xbc7e2e32	-0.0155139435
178	0xbddedf61	-0.1088245
179	0xbd1ba4e2	-0.03799904
180	0x3cc8154b	0.024424216
181	0x3dae3ece	0.08508073
182	0xbbb9359d	-0.005652143
183	0xbc8433e3	-0.016138023
184	0xbda11741	-0.078657635
185	0x3d31d0e8	0.04341212
186	0x3d53c8ad	0.05170505
187	0xbcab5e3c	-0.020918958
188	0xbc639fad	-0.01389305
189	0xbdcc3144	-0.09970334
190	0xbc597c7d	-0.013274309
191	0x3d9f7412	0.077858105
192	0xbd1dfebf	-0.038573023
193	0x3c04e36e	0.008110864
194	0xbd5a9649	-0.05336598
195	0x3dae1bb2	0.08501376
196	0x3d92fd59	0.071772285
197	0xbcff7ebf	-0.031188367
198	0x3ca2663e	0.019824143
199	0xbd8cc947	-0.06874328
200	0x3d51cb74	0.05121942
201	0x3c092562	0.008370729
202	0xbaf8920a	-0.0018964421
203	0xbd8ee6e9	-0.06977636
204	0x3c3c7297	0.01150193
205	0xbc337313	-0.010952729
206	0xbd6124ad	-0.054966617
207	0x3c30daac	0.010794323
208	0xbc949399	-0.018136786
209	0xbc1e2686	-0.009652739
210	0xbc980977	-0.0185592
211	0xbbea69cf	-0.0071537266
212	0x3ce3cc7a	0.027807463
213	0xbb4f6dbf	-0.0031651107
214	0x3d50b26f	0.050951418
215	0x3da358c6	0.079759166
216	0x3d926c9e	0.07149623
217	0x3cb8ba6a	0.022549827
218	0xbbfc1d7e	-0.0076939454
219	0x3c1a8877	0.00943195
220	0x3c13f330	0.009030148
221	0x3c6224ff	0.013802766
222	0x3d70fa06	0.05883219
223	0xbda3afee	-0.0799254
224	0x3b84792a	0.004042764
225	0xbd8b1953	-0.067919396
226	0x3d0fc545	0.03510024
227	0x3d85850f	0.065195195
228	0x3d384b74	0.044993833
229	0x3a360fb9	0.0006945092
230	0x3d25cc0f	0.04047781
231	0xbc26d4db	-0.010182585
232	0xbd8b6783	-0.06806853
233	0xbc516f47	-0.012782878
234	0xbd2ef37c	-0.042712674
235	0x3ce5f9d4	0.028073229
236	0x3d82a6cb	0.063794695
237	0x3b49f31b	0.0030815068
238	0xbc30d5c3	-0.010793152
239	0x3b37a275	0.0028020416
240	0xbd0622a3	-0.032747876
241	0x3df81d5e	0.12114976
242	0xbd5dc505	-0.05414297
243	0x3d2685d3	0.04065497
244	0x3d022a71	0.031778757
245	0xbd888c4f	-0.06667387
246	0xbc2d49e2	-0.010576697
247	0xbcc9d9c5	-0.024639973
248	0x3c2cd74d	0.010549379
249	0xbc6cc889	-0.014452108
250	0x3d10d48e	0.035358958
251	0xbc348fd8	-0.011020623
252	0x3dcf5315	0.101232685
253	0xbd79dbe1	-0.06100071
254	0xbd288524	-0.041142598
255	0xbd6676b3	-0.056265544

encoder.6.bias f4 [18]
0	0x3cbf6d0d	0.02336743
1	0x3c4e9103	0.012607816
2	0xbb94f82d	-0.0045461864
3	0xbcc8c9e9	-0.02451034
4	0x3d267266	0.040636443
5	0x3d4073a3	0.04698528
6	0xbdb39849	-0.087692805
7	0x3c452f87	0.012035257
8	0xbce156b3	-0.027507162
9	0xbe55a352	-0.20863083
10	0xbe0e6c94	-0.13908607
11	0xbdab948b	-0.08377942
12	0xbf13dfcd	-0.5776337
13	0xbe3e1dcf	-0.18566059
14	0xbd85435f	-0.06506991
15	0xbf12de5d	-0.5737055
16	0xbe42da0b	-0.1902849
17	0xbe43c9a5	-0.1911989
