models/VAE saves/best_enc_v2_1.pt (torch, 650583 bytes, 6 tensors)

encoder.0.weight f4 [197, 600]
00000000: ec95 33bc 6fa8 903a a9d6 483a 6a6b 0bb7
00000010: 540c 10bc 8164 8abb dcce fcb9 8b88 c139
00000020: 1c9e 3d39 68a9 02bc fe11 babb df3d 50bb
00000030: fafb 0ebc 0b52 16bc 31d1 33bc 1532 d8bc
00000040: 5d93 b7bc 06ab 88bc 92cd 3dbb e7a5 53bc
00000050: f2fa 1fbc a40d cc3b 945a b83c 1beb 333d
00000060: 3177 283d 4932 903c 1c80 1e3b e26e 16ba
00000070: 9b22 aeba 967f 76bb ad84 c1bb 9772 44bc
00000080: 3a3a 8fbc 0d91 8fbc dd2c 4dbc c5f6 163c
00000090: 892d a03c 36c3 5e3c d941 423c b4f2 963c
000000a0: 18bc a83c 61cf 9e3c 7ad5 883c 0205 8b3c
000000b0: 0406 8e3c ad43 483c fa29 1e3c 41c2 b33b
000000c0: b740 933b 73d3 733b cee6 873b ae93 4c3c
000000d0: 2026 2f3c b488 4b3c 5117 653c 786d 333b
000000e0: 80c9 763c 63e5 d13a 132c 0d3c 9bc5 d33b
000000f0: ef3b 21bc 3864 e4ba 7a69 05bb 29c5 813b
00000100: 7c31 66bb f412 26bb 5d90 013a e444 ad3b
00000110: 6474 b6bb bf2f dbbb b9e0 4fbc 2b83 70bc
00000120: 2e50 a6bc 83c1 34bc 49b4 2bbc c6e2 febb
00000130: 659d 08bc b375 07bc 98e9 97ba ab88 0a3c
00000140: b3bd 713c ec46 483c ba50 423c 5aac b93c
00000150: 65de 293d fd40 173d 5e77 ac3c 6852 393c
00000160: b4ff e63b 678a d437 2591 59bb 3400 07bc
00000170: fc8c 56bc 67b4 89bc d3a6 8abc 1342 06bb
00000180: 082d 4e3c b9c5 2a3c 8382 453c 591c 533c
00000190: 6bbc 613c 4494 713c 8d4c 803c f666 4f3c
000001a0: 6bd0 813c 3838 123c a1a4 493c 62ad 8a3b
000001b0: a9a8 df3b c106 4b3b 59cd 183b 88f5 4b3b
000001c0: 9b12 7a3b 6f03 283b 043a 9f3b f161 6cbb
000001d0: 10f9 eaba bb4a 4fbb 1687 09bb 0e1a 213b
000001e0: e5f9 5cbb c215 31bb 3f9d cd3b c085 6c3b
000001f0: 68f1 513b 92bb 383b 192e 873b c736 1b3b
00000200: b92c 90ba e246 15bc 1764 54bc 345f bfbb
00000210: d130 26bc e7af 59bc 8220 1fbc 3fd8 ccba
00000220: 9a80 003b 7b40 2cbb 977e 3abb 4de4 9ebb
00000230: 5119 c639 3bc7 6c3b 6d79 5d3c 5d67 b03c
00000240: 31b2 033d 4658 dd3c 663b 443c da79 333b
00000250: 27c9 1fb9 956d 2cbb 4b05 a4bb 250c ecbb
00000260: 3335 debb b6e1 e0ba 5040 12b8 fbd2 023c
00000270: e71b 213c 9e75 033c 1b10 b63b ca8d e53b
00000280: c01a 923b 1177 a83b b281 ac3b b8b0 6d3b
00000290: c017 5a3b 2587 373b a125 ac3a 1ec0 55ba
000002a0: 8376 c3ba 2a6b 0d3b 6812 0f3b 14d8 8b3b
000002b0: 8002 583b 94bd a23b bdfe 883b 21c9 893b
000002c0: 5bbc f63a 2606 3d3b 2a4a 2f3b d290 743b
000002d0: 7659 6cbc 519e 22ba bd32 723c 9d1e 343c
000002e0: 6bf9 873c 531f 7b3c 9b53 7b3c 5b36 c03b
000002f0: d2ec 04bc fde0 84bc 81f5 03bc e1f8 63bc
00000300: 3c78 c0bc 19ec 19bd d3dd edbc a1c2 ffbc
00000310: f28e 85bc ec0c 85bc 73ea 75bb 7afa 573b
00000320: c0df 2f3c 12fa 983c e862 0c3d a51d 473d
00000330: 0dec 5a3d 59db 203d 2e1e 483c a17c 033c
00000340: cc88 cb3b 5125 0b39 5c0e 1dbb b400 76bb
00000350: 847d d03a 9eb7 21bc ff5f 24bc fdfe ceba
00000360: e536 093c 6634 9b3b 2827 cd3b 7306 bc3b
00000370: 5aea a63b c586 883b 214d 803b aefa 943b
00000380: ec7d 8f3b c4b0 743b 6b50 7f3b cdf9 aa3a
00000390: ff77 053b d8e0 95bb 50dd 8abb 419d 0bbb
000003a0: fbdf 8bbb 680c 67bb a7df 0dbb 6f5d c3bb
000003b0: 8687 40bb 0b3f a0bb e696 a6bb 1cce dfbb
000003c0: 3cef 02bc 1b25 bd3b 998f 3d3c fa78 8d3b
000003d0: a3b9 2f3b 8952 2e3b 9e38 493b 3123 6d3b
000003e0: a873 94bb 9d44 aebb 7f24 b0bb 9283 94b8
000003f0: 16b1 ab3b ad25 96ba 2c08 d3bb cc64 44bc
-0.010961037 0.0011036525 0.00076613814 -8.310055e-06 -0.008792002 -0.004223407 -0.00048219308 0.0003691356
0.00018083345 -0.00797496 -0.0056784144 -0.003177516 -0.008727068 -0.009174834 -0.010975168 -0.026391068
-0.022409135 -0.016683113 -0.002896164 -0.012917972 -0.00976442 0.006227212 0.022504129 0.043925386
0.041129295 0.017602103 0.0024185246 -0.0005738569 -0.001328546 -0.0037612668 -0.0059057088 -0.011990211
-0.01748382 -0.01752522 -0.012522903 0.009214108 0.019552963 0.013596347 0.01185652 0.018426277
0.020597503 0.019385995 0.016703356 0.016970161 0.017336853 0.012223166 0.009653563 0.0054858034
0.0044937986 0.003720489 0.004147387 0.012486381 0.010690242 0.012422729 0.01398261 0.002737848
0.01506269 0.0016013797 0.008616465 0.0064627654 -0.009840949 -0.0017424887 -0.0020357058 0.003960271
-0.003512471 -0.0025340887 0.0004942471 0.0052877534 -0.005568074 -0.0066890414 -0.012687855 -0.01467971
-0.020301905 -0.011032465 -0.010479995 -0.0077784983 -0.008338307 -0.008267808 -0.0011590002 0.008455436
0.0147547005 0.01222394 0.011860067 0.022665191 0.041471858 0.036927212 0.021053012 0.011311151
0.007049525 2.5336818e-05 -0.0033198085 -0.0082397945 -0.013095137 -0.016809655 -0.016925251 -0.002048616
0.0125839785 0.010423117 0.012055042 0.012885177 0.0137778325 0.014744822 0.015661502 0.012658825
0.015846452 0.008924536 0.012307317 0.0042320946 0.006825526 0.0030979367 0.0023315756 0.003112169
0.0038158062 0.0025636812 0.004859211 -0.003606912 -0.001792701 -0.0031630236 -0.0020985059 0.002458218
-0.0033718285 -0.0027021025 0.0062748487 0.0036090463 0.0032034758 0.0028187972 0.0041253683 0.0023683773
-0.0010999657 -0.009111138 -0.012963316 -0.0058402065 -0.010143475 -0.013286567 -0.00971234 -0.0015628411
0.0019607903 -0.002628355 -0.00284568 -0.004848993 0.00037784365 0.0036129493 0.01351772 0.021533662
0.03215236 0.027019631 0.011977052 0.0027385862 -0.00015238357 -0.0026310433 -0.005005514 -0.007203596
-0.006781244 -0.0017157111 -3.486901e-05 0.007984872 0.009833313 0.008023648 0.005556119 0.007005428
0.0044587553 0.005141147 0.0052644843 0.0036268663 0.0033278316 0.0028004136 0.0013133773 -0.0008153933
-0.0014912639 0.0021578767 0.002183104 0.004267702 0.0032960474 0.004966447 0.004180758 0.0042048846
0.0018824445 0.0028842776 0.0026747086 0.0037317765 -0.014425626 -0.00062034006 0.014782605 0.010993627
0.016598424 0.0153272925 0.015339757 0.0058658547 -0.008113103 -0.016220564 -0.008054138 -0.013914318
-0.023494832 -0.037578676 -0.029036438 -0.031220736 -0.016303513 -0.016241513 -0.0037523776 0.0032955692
0.0107344985 0.01867393 0.03427401 0.048612256 0.05344777 0.039271686 0.012214227 0.008025319
0.006211376 0.00013269974 -0.0023964858 -0.003753704 0.0015906547 -0.009870438 -0.010032653 -0.0015792545
0.008374904 0.004736471 0.0062607713 0.0057380735 0.005093855 0.0041664564 0.0039154445 0.004546485
0.0043790247 0.0037336806 0.0038957845 0.0013044417 0.0020365713 -0.0045739226 -0.0042378083 -0.0021303447
-0.004268644 -0.0035255197 -0.00216482 -0.005962066 -0.0029377653 -0.004890328 -0.0050839065 -0.00682999
-0.007991608 0.0057722456 0.011569881 0.0043174 0.002681353 0.0026599488 0.0030703912 0.0036184306
-0.004530389 -0.005318238 -0.0053754444 -7.081697e-05 0.005239616 -0.001145532 -0.006440183 -0.0119869225

encoder.0.bias f4 [197]
00000000: d24b 953d a789 413e 31bb 9ebb 3492 e93a
00000010: 594c 313d 4c7a 7bbb e6b4 6ebc 25b7 e7bc
00000020: 7e53 a8bc 5f39 8ebc aacb 063c e854 733d
00000030: 8b16 ce3c d461 71bb 8e90 1dbd cc40 ecbb
00000040: bf17 313a e83c ec3c ed92 dd36 03d1 23bc
00000050: cc2d b53c 9390 343c 0936 b93c 8202 713d
00000060: bc25 0d3d 9c04 c0bc 8112 14bd bbc0 1ebd
00000070: 44fe 90bc ce71 9bb8 30fd d9bb c049 303d
00000080: ec25 3ebc 575b c73c fbc3 01bc 361f 9f3d
00000090: de44 923d 4256 813d 8b78 d13c db23 753d
000000a0: 3496 a4bc cc09 3dbd 14bf f03c 7001 6bbc
000000b0: a4a9 003e eea0 93b9 29a1 22bd 3163 643c
000000c0: 9bb3 a0bd 9d3a cc3a bd85 44bc 6b4e 813d
000000d0: 5e89 c7bb ff96 d43d 9142 37bd 08ee 153c
000000e0: 203a 163c 6b76 8a3d 4e6a 40bb 44b7 623d
000000f0: 9c30 4ebc 87b8 f3b9 0d07 a33c 6ab1 efbc
00000100: 963b e2ba 5411 5a3d 30d3 113b bf31 87bc
00000110: 4c4b be3c 4517 e83c 93a7 aebb 10e2 673d
00000120: 0e51 88bb b832 653d 867b d33c 03bf 2f3d
00000130: 0093 22bb ff5e 2dbc 7eb6 4cbb 40d4 dcbb
00000140: 6dfa 8bbc 5cbf 35bc c9da c53d 1131 ac3b
00000150: 9a15 693d 9457 6c3d bd77 813d 61d7 163b
00000160: 6545 c8bc 91db 1abc a17e febb 675d c73b
00000170: d46b 7d3d ec97 13bc 4818 253b 52f8 38bc
00000180: 171f 693d f7a0 6c3d fbdd 843d 142c 763d
00000190: d36a 133d 8b63 14bc 42ac d2bb a4f5 1c3d
000001a0: 05d8 523d 9080 d5bb 1fe6 953d a114 e13a
000001b0: 4ba6 b93d 7761 8a3c d02d 88bb 5f83 bebc
000001c0: 0a4e 873c 8068 853c c642 ec3c 72e2 743d
000001d0: 35cb 8d3c a664 f6ba 7084 a1bc 53c2 163c
000001e0: 7b02 893d b960 fbbb 67f4 9ebc 814d 79bb
000001f0: 8d8b b43c 921b 033d 51cd f33c aee6 b93d
00000200: dcb7 3c3c 107b a63c 0bee f3bb 7fb6 d1bc
00000210: 7aa1 23bc ad12 033d 920c 763d c76f 2ebb
00000220: ba4d cf3d a5cd 16ba b0c0 ef3b 51bf 163e
00000230: 4e34 90bb 31ca c73c eb7e 513d 2073 003d
00000240: 15f5 df3a df57 893d 88d2 663d ea54 683d
00000250: 63e9 b53a 17e9 e7ba 47c7 1b3e 1caa 7d3b
00000260: 3c34 fdbb 5027 c9bb 043d 273d fa51 cfbc
00000270: 15f8 603d aebb c2bb 45e0 7c3d 31ba 1cbc
00000280: 5e89 d0bb ed3e 233d 90f2 7c3d 2e1c 67bc
00000290: e1a4 ddbb 17ae 873d 6135 84ba acfe a63c
000002a0: bfc8 5e3e 0125 9c3d f2a2 5cbb 5e83 753d
000002b0: 6517 89bc 11b5 24bc 7b6c c23d be87 863d
000002c0: 3b88 5cbc c977 17bc fde6 063c 2173 253d
000002d0: bd56 b43c 772f d4bb 4015 08bc ae93 c13d
000002e0: 634d 00ba a0f7 09bd c19c e23d 64a5 873d
000002f0: 3d7c 953d 4dde 5bbc 0487 15bd a27c a33c
00000300: d78c 8b3d 0333 31bc 1212 8e3d 8365 f83a
00000310: 3bed 12bc
0.07289852 0.18900166 -0.0048440923 0.0017820061 0.0432857 -0.0038372455 -0.014569497 -0.028285572
-0.020547625 -0.017361341 0.008227268 0.059407145 0.025157234 -0.0036831992 -0.038467936 -0.007209873
0.00067555526 0.028837636 6.6034177e-06 -0.009998563 0.022116564 0.011020797 0.022608774 0.058840282
0.034459814 -0.023439698 -0.03615046 -0.03875802 -0.017699368 -7.412174e-05 -0.0066524968 0.043039083
-0.011605721 0.024335546 -0.007920261 0.07769625 0.071420416 0.063152805 0.025570175 0.059848648
-0.020091154 -0.04615192 0.029387988 -0.014343604 0.12564713 -0.00028157927 -0.039704476 0.013939665
-0.07846757 0.0015581433 -0.011994776 0.06313785 -0.0060893735 0.10380363 -0.044741217 0.009150989
0.0091691315 0.06760868 -0.0029360238 0.055350557 -0.012584832 -0.00046486055 0.019900823 -0.029259402
-0.001726019 0.05323918 0.0022251122 -0.016503213 0.023229264 0.028331408 -0.005330035 0.056612074
-0.004160053 0.055956572 0.025815737 0.042906772 -0.0024806857 -0.010581731 -0.0031236704 -0.0067391694
-0.017087186 -0.011092987 0.096608706 0.0052548726 0.056905366 0.05770071 0.063216664 0.002301656
-0.024447152 -0.009451763 -0.00776656 0.0060841325 0.06187041 -0.009008389 0.0025191475 -0.011289673
0.056914415 0.057770696 0.06487652 0.06010063 0.035990547 -0.009056936 -0.006429226 0.0383202
0.051475544 -0.00651557 0.07319283 0.0017172286 0.09064921 0.016892178 -0.004155852 -0.023256002
0.016516704 0.016285181 0.028840434 0.059786268 0.01730881 -0.0018798306 -0.019716471 0.009201604
0.06689926 -0.0076714423 -0.01940365 -0.003804058 0.0220392 0.032008715 0.029760988 0.09077202
0.011518445 0.020322353 -0.0074441484 -0.025599716 -0.0099872295 0.032000232 0.06007058 -0.0026616917
0.10122247 -0.00057526893 0.0073166713 0.14721419 -0.0044007665 0.024388405 0.05114643 0.03135979
0.001708659 0.06706213 0.056353122 0.056721605 0.0013878759 -0.0017693368 0.15212737 0.003870613
-0.007727174 -0.0061387196 0.040829673 -0.025307644 0.05492409 -0.0059427833 0.061737318 -0.009565876
-0.0063640317 0.039854933 0.061754763 -0.01410584 -0.00676404 0.06625002 -0.0010086709 0.020385109
0.21756266 0.076242454 -0.003366646 0.059939735 -0.016734788 -0.010052935 0.09493347 0.065688595
-0.013460214 -0.009244868 0.008233783 0.040393 0.022014016 -0.006475385 -0.008305848 0.09451996
-0.0004894344 -0.03368342 0.11065055 0.06623343 0.07299087 -0.0134197 -0.036505714 0.01995689
0.068139724 -0.010815385 0.069370404 0.0018951151 -0.008967693

encoder.3.weight f4 [195, 197]
00000000: ff73 353c a253 a739 2834 dd39 5922 013b
00000010: 6d07 0e38 b60c 523a ba45 c5b9 bdac 9aba
00000020: 1bf2 47b9 9c7a 20ba 3f55 07ba 93ff 45bc
00000030: 64aa 61bc b4ab 1c39 43f4 8c39 6443 a3ba
00000040: e27a ab3a fd22 24bb 8ff9 423a 6e72 46ba
00000050: 2807 38bc e6a6 8a3a 13e7 9639 d559 5e3a
00000060: f797 363c c055 4a39 e6be 443a 9663 50ba
00000070: c032 21b9 fe42 823a 986b 453a 7098 433c
00000080: 3768 f3b9 a0b8 c0b8 32e2 56ba e5c6 d4b9
00000090: 2dda f7ba 15d7 64bc 943e 0db9 4059 8e3a
000000a0: 3e19 04ba 6d22 86b7 f8b1 3a39 2080 0638
000000b0: 421e a4ba a9bf 91ba c534 e83a d1db 83ba
000000c0: 5bd6 cfb9 17a3 243a ef84 143a 90f1 5a3c
000000d0: f577 d3b7 fce4 10b9 c4b0 cf38 792d 803a
000000e0: be0f b5b9 6621 4f3c 23a6 81ba 2522 103b
000000f0: dc0c 83b9 504c ba37 ee4f 9ab9 b18f 3dba
00000100: bf0b afba 803c f239 037e 77ba 2b0f e23a
00000110: b16e 75bc 306f 9b39 216e 3f39 1d5d 82bc
00000120: f295 073a efb5 4cbc 1d37 89b9 83f3 9fba
00000130: 8406 3a3a 1b5f 373a 2115 373a 6e67 363a
00000140: cbe6 9dba ab04 8eb9 e84a 4e3a e522 33ba
00000150: d3a7 52bc fb48 55bc c68b 42bc 5437 29bb
00000160: 3550 8739 43a0 5c3a b292 9b3a ebb0 6d38
00000170: d7b4 553c 419d c4ba e158 18bb b1e3 8db9
00000180: 1293 f4ba 9ac7 e1b9 1896 5bbc 55c3 3f3c
00000190: afa0 69bc b7b5 b939 9be3 ecba ac89 52bc
000001a0: dca4 86ba 2a18 41ba 2405 19b9 7a2c 8fb9
000001b0: 4a78 0fba 0921 f83a 36e9 29ba dee8 acba
000001c0: c074 d13a 2bda 123a f773 1338 3660 66bc
000001d0: 3954 90ba bf9d 43ba ede1 90ba 400d 0ab8
000001e0: 2f12 0aba bdbe e43a 9e2a 0f3a 69ed e6b9
000001f0: 0eb8 023b e1f5 0c3b 4121 9dba e2a9 9e39
00000200: ae2d e9ba 14fe c3ba 5a7d 11b9 5e61 be39
00000210: 9d41 08ba 49c7 39ba cf55 53bc e145 793a
00000220: e844 4bbc 70a0 fa3a f758 173b 1cb1 3bbc
00000230: fa2e 2039 b262 b6b9 0568 9d3a cc6a 46bc
00000240: 9192 3eb9 c945 65bc 0f12 4abc 6301 38bc
00000250: 9495 903a 8abd 7dba 8427 6f39 28ef 9238
00000260: 079d 19ba fcb3 ceba 57d9 84b9 deb0 aa39
00000270: 72a7 5cbc b852 9fba 0d76 4dbc dc9f 8dba
00000280: f8ac 05b9 6463 93b9 7994 40bc a065 3fba
00000290: c274 5a3a 6ceb 55bc 4517 fdb9 0899 983a
000002a0: 5dc5 21b9 c63a b43a d1a2 973a 68d8 1dba
000002b0: 4912 00b9 480a c33a f50b b1ba 1264 56bc
000002c0: 08b6 acba 1f89 b2ba c9c3 01ba 644f a13a
000002d0: ce8f 8d39 0fbb cfb9 f9af a738 94e7 8bb9
000002e0: 5f03 7938 ff42 9d38 da40 9dba 9d09 66bc
000002f0: a6bf 5c3c 9373 1739 52b0 763a ddd2 81b9
00000300: b25e 5fbc 8b09 233b faf7 6cbc ba88 83b9
00000310: 5e26 51ba 7b8d eebb ca44 37bb 270c f1bb
00000320: 56ee 63bb 490e e6ba 7fb0 5ebb 010a 33bb
00000330: bee4 1abc 1f3e 8ebb 7f73 83b9 0eef 31bc
00000340: 6e6f f6bb cabb dcbb 5a20 fdbb 04d9 a7bb
00000350: 586b 10bc da56 14bc 42f8 9fbb 2bae 28bc
00000360: 3e0e a9bb 0a91 a9bb b715 83ba 65ab 8dbb
00000370: c516 ebbb 2659 e3bb 6cca c5bb 121d 9fbb
00000380: b3fd 13bc 272d dabb 3b75 f3bb 5614 ccbb
00000390: 5858 d7bb 581d 0dbc 3425 14bc 63d0 95ba
000003a0: 4441 65ba a47c aabb 5b54 e1bb e225 17bc
000003b0: 6085 b5bb d98b d8ba ab5a 02bc 7092 08bc
000003c0: 9aaa e6ba 3b6e 5fbb 4614 cebb 5e2c 6939
000003d0: 4e0a eabb b6fc c7bb bfd9 10bb 50a8 94bb
000003e0: 4a89 a4bb 3172 d0bb 0b49 76bb 7c9c 0cbb
000003f0: da8c 23bb 8cf5 10bc 6a10 03bc bcbf 09bc
0.011075019 0.00031915033 0.00042191264 0.001970431 3.3862354e-05 0.00080127583 -0.00037626718 -0.0011800748
-0.0001906831 -0.0006121786 -0.0005162544 -0.012084859 -0.013773534 0.00014941284 0.0002688487 -0.0012455997
0.0013082887 -0.0025045269 0.00074377 -0.0007570152 -0.011232175 0.0010578304 0.00028782393 0.0008482014
0.01114463 0.00019296166 0.0007505253 -0.000794941 -0.00015373062 0.0009938178 0.00075309863 0.011938199
-0.00046426218 -9.1896625e-05 -0.0008197158 -0.0004058398 -0.0018909626 -0.013967295 -0.0001347012 0.0010860339
-0.0005039162 -1.5990076e-05 0.00017804641 3.2067415e-05 -0.0012521225 -0.0011119741 0.0017715922 -0.0010060017
-0.00039641824 0.0006280406 0.00056655606 0.013363257 -2.520902e-05 -0.00013818213 9.903454e-05 0.0009779177
-0.0003453474 0.01264224 -0.0009891432 0.0021993008 -0.00024995848 2.2208464e-05 -0.0002943272 -0.00072311895
-0.0013354941 0.00046202913 -0.00094410795 0.0017246952 -0.014980004 0.00029646745 0.00018256206 -0.01591354
0.0005172185 -0.012494548 -0.0002617174 -0.001220331 0.0007096308 0.0006995068 0.00069840444 0.0006958161
-0.0012046931 -0.00027087828 0.0007869438 -0.0006833508 -0.012857395 -0.013017888 -0.011874145 -0.0025820332
0.00025808965 0.0008416215 0.001186928 5.666997e-05 0.013043604 -0.0015000479 -0.0023246335 -0.0002706326
-0.0018659553 -0.0004306406 -0.013402484 0.011704286 -0.014259501 0.00035421338 -0.0018073203 -0.012850206
-0.0010272521 -0.00073659664 -0.00014593132 -0.00027308223 -0.00054729416 0.0018930744 -0.00064815895 -0.0013191958
0.0015980229 0.00056019676 3.515553e-05 -0.014061024 -0.0011011428 -0.00074621657 -0.0011053659 -3.2914104e-05
-0.0005266992 0.0017451864 0.00054613675 -0.00044045903 0.001994613 0.002150886 -0.001198806 0.0003026268
-0.0017790103 -0.001495304 -0.00013874975 0.00036312168 -0.00051977654 -0.0007086886 -0.012898876 0.0009509009
-0.012406565 0.00191213 0.0023093799 -0.0114558 0.00015276289 -0.0003478728 0.001200915 -0.012110423
-0.00018174412 -0.013993689 -0.012333407 -0.011230799 0.0011030906 -0.00096794276 0.00022807537 7.006369e-05
-0.0005859886 -0.0015770192 -0.00025338933 0.00032556703 -0.013467656 -0.0012155389 -0.0125403525 -0.0010805088
-0.00012748304 -0.00028112077 -0.011754149 -0.0007301215 0.00083334383 -0.013056617 -0.00048273258 0.0011642287
-0.0001542768 0.0013750426 0.0011568909 -0.0006021322 -0.00012213843 0.0014880383 -0.0013507592 -0.013085382
-0.0013176808 -0.0013621188 -0.0004950134 0.0012306985 0.0002700076 -0.00039621486 7.995958e-05 -0.00026684685
5.9369366e-05 7.4988224e-05 -0.0011997477 -0.014040378 0.013473427 0.00014443537 0.0009410429 -0.00024761903
-0.013633417 0.0024877514 -0.014463419 -0.00025088136 -0.00079784344 -0.0072800494 -0.0027964585 -0.007356185
-0.003477951 -0.0017551865 -0.0033979712 -0.0027319195 -0.00945395 -0.0043409015 -0.00025072318 -0.010860218
-0.0075206077 -0.0067362534 -0.007724804 -0.005122306 -0.008814655 -0.00905391 -0.0048818896 -0.010295431
-0.0051591685 -0.0051747607 -0.0010000978 -0.0043234103 -0.007174345 -0.0069381176 -0.0060360935 -0.0048557604
-0.009032655 -0.0066582146 -0.0074297464 -0.00622801 -0.0065718107 -0.008612953 -0.009042073 -0.0011429902
-0.0008745382 -0.0052028466 -0.006876511 -0.009225341 -0.005539581 -0.001652117 -0.007956187 -0.008335695
-0.0017598451 -0.0034092802 -0.006289038 0.0002223714 -0.0071423417 -0.0061031235 -0.0022102443 -0.004536666
-0.005021249 -0.006361269 -0.0037580158 -0.0021455577 -0.002495578 -0.008847605 -0.007999519 -0.008407529

encoder.3.bias f4 [195]
00000000: 9404 7dbc a2f2 58bb 459d 0ebc 9685 16bc
00000010: 0e8e 95bc 4bde 123e de5f 643d 7373 1cbc
00000020: c911 ecbc d978 13bc a4d0 923c 6c2f 10be
00000030: 2f2a 58bc 0738 883d f683 1bbc e8a7 18bc
00000040: ddf9 17bc 96ee a43b f05a 1b3b 0764 403c
00000050: c1a2 16bc bfca 76b9 65ec 6c3d afa9 15bc
00000060: 7440 a139 9c94 0cbc bbce 4dbb fd25 033e
00000070: 1b97 18bc 6080 52bd 1bc0 13bc f112 08bc
00000080: b765 2abc 46af 1dbc cbed 15bc 1c69 6f3b
00000090: 0cbb 32bc 3e54 1abc 3581 e9bb ddfc 28bb
000000a0: 0fe4 1bbc f0f4 be3d 31f6 1b3a 532e 053d
000000b0: fc8b b9bc 60f6 44bc 8221 093e 1d30 1ebc
000000c0: 0bf0 0e3d 0355 2d3a cf9a a23d bfde 2f3e
000000d0: 3350 18bc fc68 363e 1521 01bc 3c98 1fbc
000000e0: c76d 19bc 9cf5 0cbb a72b 21bc 1dbf 07bc
000000f0: 3984 39bd ce0d 0ebc cb99 0fbc c942 6438
00000100: 52a6 8b3a f0c0 1ebb 97b7 873d a42d 17bc
00000110: d226 14bc c393 853c 48de 19bc 56c2 0dbc
00000120: 2e52 13bc f36f 923b 4926 cabc ea5e 14bc
00000130: 9fd8 88bc cd3f 0dbc 9518 0dbc 6a2e 1b3e
00000140: 19db 1cbc 0b6a 08bc e8bd d5bb c36e a83b
00000150: 9284 1dbc 0384 a6bc ce43 acbc 9e31 dfbb
00000160: 57dd 0abc 538d 17bc 5ab7 c73b 8e5a 1cbc
00000170: 4ad5 5e3a 9cb0 00bc 9f2c 18bc 4bab adbc
00000180: 0eef 35bc 562f e7bc 48f0 453c 4291 15bc
00000190: b4a7 1dbc 1ebd 0cbc 7bc0 b2bc 554b a9b9
000001a0: 529a 1ebd 6cd9 363e b8f8 08bc 466d 1ebc
000001b0: a8f4 14bc 7027 053e 7c2a 7a39 b652 09bc
000001c0: 663f 36bc 1d0e 25bc 6120 23bc 5ba6 f33d
000001d0: 942b 683c d686 d63b 2e71 22bc dd22 52bc
000001e0: b8f0 10bc 164d eebc cba3 80bc ac90 0fbc
000001f0: b60f 973e 866c 3cbc 8e5e 1ebc 3bf6 00bc
00000200: 0130 15bc b406 863b 814d bb3b 3174 11bc
00000210: d8d9 24bc 4f4c 5abc 461b 68bc 5c33 25bb
00000220: 204a 17bc 2f94 b23b 5c13 07bc b494 1ebc
00000230: 6355 f23d bf56 2ebc a81e 24bc 30fa e83d
00000240: edcc 1fbc 8674 91bc 0554 0bbc 0fa0 02bc
00000250: 2f69 b73b cd05 1dbc cee3 11bc 954f 6d3d
00000260: 4ce1 16bc a9ec 1cbc d4ec 19bc cd5b 143e
00000270: 3823 2dbc c797 dc3a 10ad eabc 2c47 5ebc
00000280: a8c7 b23b 13a2 383c 88c2 0bbc 1a48 c73a
00000290: f459 03bc ba3d 7dbd cd8b 14bc 0721 15bc
000002a0: 64b6 00bd db38 21bc 6d15 1abc ead8 37bc
000002b0: b19e 0bbc 7dc6 ab3b d4e5 7f3a 21ba 8bbc
000002c0: bc33 ee3c 52af deba 6606 a13b 1694 873b
000002d0: ca7d 2fbb c7a1 2a3e 9cb6 14bc fbf0 6fbc
000002e0: cf3f 12bc dba2 9f3d 846e 12bc fb0c 1abc
000002f0: 8db8 0dbc 044f 303b 9ab3 743c 5595 8d3e
00000300: 28fc 09bc f739 44bc f18c 053b
-0.015442986 -0.0033103605 -0.008704488 -0.009187123 -0.018256214 0.1434261 0.05575549 -0.00954901
-0.028817074 -0.00900098 0.017921753 -0.1408059 -0.013193651 0.06651311 -0.009491911 -0.009317376
-0.009275881 0.0050333245 0.0023705326 0.011742598 -0.009194077 -0.00023535917 0.05784263 -0.009134694
0.00030756334 -0.008580353 -0.0031403739 0.1280746 -0.00931337 -0.05139196 -0.0090179695 -0.008305297
-0.010400227 -0.009624308 -0.009150933 0.0036531156 -0.010908853 -0.009419499 -0.0071259984 -0.0025785484
-0.009514823 0.09324062 0.0005949466 0.03251488 -0.022649758 -0.012021631 0.13391688 -0.009655026
0.03489689 0.0006612094 0.07939684 0.17174815 -0.009296465 0.17813486 -0.0078814225 -0.009740885
-0.009364552 -0.00215087 -0.009837068 -0.008285311 -0.045292113 -0.0086702835 -0.008764694 5.4421635e-05
0.0010654426 -0.0024223886 0.06626814 -0.00922719 -0.009042459 0.01630581 -0.009391375 -0.00865229
-0.008991761 0.004468912 -0.024676459 -0.009055832 -0.016704855 -0.008621168 -0.008611818 0.15154424
-0.009573721 -0.008326064 -0.0065228827 0.005140157 -0.009614127 -0.02032662 -0.021028426 -0.0068113348
-0.008475623 -0.009250003 0.0060948553 -0.009543074 0.00085004105 -0.007854607 -0.009287982 -0.021199843
-0.011104358 -0.028220814 0.012081213 -0.00912887 -0.009622503 -0.008590011 -0.021820297 -0.0003229032
-0.03872139 0.17856377 -0.00836008 -0.0096696075 -0.009091534 0.13003325 0.00023857685 -0.008381536
-0.011123514 -0.010074166 -0.00995645 0.11896964 0.014170546 0.0065468354 -0.009914679 -0.012825695
-0.008846454 -0.029089492 -0.015703103 -0.00876252 0.29504174 -0.011500483 -0.009666098 -0.007871206
-0.009105683 0.0040901545 0.0057160263 -0.0088778 -0.010061704 -0.013323857 -0.014166659 -0.0025207615
-0.009233981 0.005449794 -0.008244362 -0.009679008 0.118326925 -0.010640799 -0.010017075 0.113758445
-0.009753448 -0.017755758 -0.008503919 -0.007972731 0.0055972557 -0.009583903 -0.0089044105 0.057937223
-0.009208988 -0.009577909 -0.009394843 0.14488144 -0.010567479 0.0016829901 -0.028646976 -0.013566773
0.00545593 0.01126911 -0.008530267 0.0015203983 -0.008017052 -0.061826445 -0.009066534 -0.009102113
-0.03142394 -0.009840216 -0.009404522 -0.01122115 -0.008521722 0.0052421675 0.0009761725 -0.017056527
0.029077403 -0.0016989505 0.004914093 0.0041375263 -0.0026777857 0.16663276 -0.009076741 -0.014644857
-0.008926346 0.07794734 -0.008937482 -0.009402509 -0.008649957 0.0026902566 0.0149353985 0.27652994
-0.008421935 -0.0119767105 0.0020378197

encoder.6.weight f4 [26, 195]
00000000: 91f8 7c3c 6c9d 143d 0f91 a33d f59b a33d
00000010: 0eac a73c 31c9 3a3c 8ebf a43d 55ef 22bd
00000020: 56dc 6abc 7df5 bbbc 6c29 173c a430 02bd
00000030: f16e 113d e8fe c63c c6cd f23c dae1 c43c
00000040: 19bc 41bd 4f4c 153d 1cb4 2f3d f3a6 fb3a
00000050: 44fc 04bc edfc 5b3c 292e 753d dd53 2abd
00000060: 867b 6fbd 32bb 9f3d 8c2b 0bbd f878 863c
00000070: b10a 423c a859 d23d df01 7aba cf85 16bd
00000080: d0ee e43c 9838 3bbd 5dd3 2f3d bd94 493d
00000090: 5ba1 13bc 9a3a e6bc 22cb 69bc 941e 47bd
000000a0: 5db6 8f3d 3498 f23b 2c53 19bd 2785 093d
000000b0: 5205 073d e366 6abd 1a29 b03b 793d 6fbc
000000c0: da3d 753d 319f 553d cc63 27bd 76eb 8d3c
000000d0: 1800 9c3d c1d7 3eba 2366 bf3b a722 87bc
000000e0: 956e ac3d 4171 8ebd af6c 213d 7305 99bc
000000f0: 33cc 82bc 4a26 203d 8193 9c3d ca30 6f3d
00000100: 2d1a 103d 31e5 333d 1985 423b ffd6 833d
00000110: 94cc aebb dcc6 aa3c 5751 61bd c3c2 23bd
00000120: a54b 043d f1bb 4e3d 5d7b 8a3d 9641 4a3d
00000130: 8e7b 3dbc aa90 f7bc c9ef c2bc 77b8 a93d
00000140: e581 8dbd 3a0f 15bc 9100 803c f9c0 76bd
00000150: 9f0e 8bbd a7bf 2ebd 67e4 1ebc a45f 673d
00000160: 9622 a23d 15bc c8ba fad9 2b3d 39ef c53b
00000170: 2a3d 493d 094d 92bc 558b baba 6bb4 44bd
00000180: 4227 9dbc aabb e1bc 5ef7 923d bf74 47bd
00000190: 798d 8dbd adfb 9c3d efb7 63bc 65f7 863d
000001a0: 2e3d ed3c 3e4b 8fbd c9d9 a33c 26e3 383d
000001b0: 4f45 58bd e4b4 10bc b5e7 23bc b017 34bd
000001c0: 390d 2c3d 182f 33bd 469f 803d fbd1 153d
000001d0: 2f15 dabc 7890 8d3d 650d 113d 478c 1dbc
000001e0: b858 2c3d 63d4 df3c 2be7 8a3a 880c abbc
000001f0: 9f24 1cbc d7cc 2c3d 1190 0fbd 1ba5 60bb
00000200: 2c48 8f3d d39c 9c3c 52e8 05bc cb3f b03c
00000210: 5799 2a3d 4042 fa3c 1306 823c e4c2 26bd
00000220: f679 713d 44c6 d03c 5b5f 1cbd f19a 2c3d
00000230: 7aa5 c73c a80b 723b de05 033d 9fd2 c73c
00000240: debe 7c3c 89aa 49bd d9fe 2d3d c08c febc
00000250: 0977 753d 6e99 103d bdd0 28bd bda5 d03c
00000260: b121 2ebd 40dc 133d 6c92 63bc f548 7e3d
00000270: 3a49 7a3d ecb2 823d b597 4a3d 6df2 ab3d
00000280: 44f2 0fbd 1387 433b d14b 2abd cc01 73bd
00000290: bc2c 1e3d c638 663d 3e24 7539 2e10 033d
000002a0: 3571 1b3d a6a8 a1bb 90ae ce3c 220f 2b3d
000002b0: fa33 82bd c087 a1bc 2dd4 bdbc 593c 9fbd
000002c0: 93fb 713d 7294 79bd d60a 0dbb 60fc 46bd
000002d0: 267c 863b 974a 7e39 44da 71bc 8f62 443c
000002e0: b71c 0dbd 4f5f ac3c f301 383b 5b37 743c
000002f0: be77 7bbd 9bf3 5a3d f76d 3f3c 7bb0 5a3d
00000300: 8606 063d fa43 363b 38b7 d9bc bdf2 773d
00000310: 1168 6dbd b3ea 42bd bfb1 10bd b8b9 a83c
00000320: 17aa 4a3b e380 983c 5aaf 843d 9b9f b9bc
00000330: 4bab f73c 029b 483c 8d5b 4cbd 8dcd 4abc
00000340: 23bb 913d 10b4 d83b 0d6b 64bd bb82 953d
00000350: 3f9d 3dbd b361 323d 2e92 013b 5c8b e03c
00000360: 6dda ab3c bd6f af3d ebe7 0c3d 4dbb e7bc
00000370: c255 8cbc deb2 463c ad1d 1c3c 9afa b5bc
00000380: 5637 0b3d 5f08 403d 5194 45bd 610f 4f3d
00000390: c6cf dabb 3884 db3a 2876 113d 64bf 013d
000003a0: f62b 1ebd 59ed f33d 2395 0fbd 22b8 153d
000003b0: 96d4 26bc 84d9 db3b 17f0 0a3d f114 083d
000003c0: 4303 133d feac 793d 3151 963c 40a5 d13c
000003d0: 72c6 93bd 5750 d63d 5a2f 153c 04c5 3f3d
000003e0: c04e ea3a ec42 2abd eda7 813c 1508 173c
000003f0: 6e05 373d c23e e0bc f242 93bc 25a6 f83b
0.015440122 0.03628294 0.07986652 0.07988731 0.020467784 0.011400507 0.08044349 -0.039779026
-0.014334759 -0.022944206 0.009226184 -0.03178467 0.035506193 0.02429147 0.029639136 0.024033476
-0.047298525 0.036449727 0.042896375 0.0019199535 -0.008116785 0.013427001 0.059858475 -0.041583885
-0.05846741 0.077993765 -0.033977076 0.016415104 0.011843369 0.10271007 -0.0009537022 -0.036748704
0.027945906 -0.04570827 0.04292618 0.049214114 -0.009010638 -0.028104115 -0.014269622 -0.048613146
0.07017205 0.007403398 -0.037432835 0.03357425 0.03296406 -0.057227027 0.0053759934 -0.014602059
0.05987344 0.05215377 -0.040866658 0.01732419 0.076172054 -0.00072800746 0.005841033 -0.016496016
0.08419529 -0.06955195 0.03941029 -0.018679356 -0.01596651 0.039099015 0.07645322 0.05839614
0.035181213 0.043919746 0.0029681383 0.064374916 -0.005334446 0.020846777 -0.055009212 -0.03998066
0.032298703 0.050472204 0.06761811 0.049378954 -0.011565102 -0.030220348 -0.02379598 0.08287137
-0.06909541 -0.009097869 0.01562527 -0.060242627 -0.06789898 -0.042663243 -0.00969801 0.056487694
0.07916753 -0.0015314842 0.041955926 0.0060404805 0.049130596 -0.017858999 -0.0014232198 -0.048023622
-0.019183759 -0.027555306 0.07176088 -0.048695322 -0.069117494 0.07665191 -0.013898834 0.065901555
0.028959837 -0.06996773 0.020001309 0.0451385 -0.052800473 -0.00883219 -0.010003974 -0.043967903
0.042004798 -0.043746084 0.06280379 0.036577206 -0.02662143 0.06912321 0.035413165 -0.009615964
0.042076796 0.027322954 0.0010597458 -0.020879999 -0.0095302155 0.042187538 -0.0350495 -0.0034278098
0.069961876 0.019117748 -0.008173065 0.021514794 0.041650143 0.030549169 0.015872037 -0.040713206
0.0589542 0.025485165 -0.038176876 0.04213995 0.024370898 0.0036933217 0.031988017 0.024392424
0.015426366 -0.0492349 0.04247937 -0.031072974 0.059927974 0.035302572 -0.041214693 0.025469655
-0.0425126 0.03609872 -0.01388989 0.062081296 0.06110499 0.06381783 0.049461085 0.083958484
-0.035143152 0.002983515 -0.04157621 -0.059327886 0.03861688 0.056206487 0.00023378522 0.031997852
0.03794976 -0.0049334345 0.025229722 0.04176248 -0.0635757 -0.019718051 -0.023172462 -0.07775182
0.05907781 -0.060932584 -0.0021521351 -0.048580527 0.004104155 0.00024251115 -0.014761511 0.011986389
-0.034451213 0.02104154 0.0028077334 0.014905776 -0.061393492 0.053454977 0.0116839325 0.05339096
0.032721065 0.0027811513 -0.026576623 0.060534228 -0.057960574 -0.047587108 -0.035325762 0.02059637
0.0030924135 0.018616145 0.06478758 -0.022659114 0.030233046 0.012243988 -0.049891997 -0.012378109
0.071157716 0.006613262 -0.055766154 0.073003255 -0.04629254 0.043550204 0.0019770968 0.027410202
0.020978177 0.08566234 0.03440086 -0.028287554 -0.017130736 0.012127606 0.00952856 -0.022214223
0.03398832 0.046882983 -0.04823715 0.050551776 -0.0066776006 0.0016747778 0.035513073 0.031676665
-0.038616143 0.11910505 -0.035054337 0.036552556 -0.01018252 0.0067092795 0.033920374 0.033223096
0.035891782 0.060955994 0.018349262 0.025591493 -0.07215585 0.10464542 0.009105528 0.046818748
0.0017876253 -0.041567728 0.015827144 0.0092182355 0.044682913 -0.027373675 -0.017976258 0.0075881653

encoder.6.bias f4 [26]
00000000: 6afd 81bd 94b6 073e cd86 893b 20f4 b53d
00000010: 2c6a 8039 db47 6fbc e400 073e 4b03 75bc
00000020: 2f49 39be 5894 383d 250f 113c 7f1d a9bd
00000030: ae24 6d3d 14a3 97bd 3805 6ebd eb44 87bd
00000040: f7ae 19be 694e 61bd c2a2 1fbd e047 e5bd
00000050: b8e3 173d 4884 1bbe 29bc f0bd 1fe0 7bbd
00000060: 49b2 c8bd 8673 18be
-0.06347163 0.13253242 0.0041969777 0.08884454 0.00024493167 -0.014604534 0.13183933 -0.014954398
-0.18094324 0.045063347 0.008853708 -0.08257579 0.05789631 -0.074041516 -0.058110446 -0.06604942
-0.1500815 -0.05500642 -0.038973577 -0.1119535 0.037082404 -0.1518718 -0.11754639 -0.061493035
-0.0979963 -0.14887819
