models/VAE saves/best_dec_v3.pt (torch, 420055 bytes, 6 tensors)

decoder.0.weight f4 [188, 9]
0	0xbdfc8d6a	-0.1233166
1	0x3e0cf030	0.137635
2	0x3d3c3197	0.04594573
3	0xbdb01714	-0.08598152
4	0xbdd0c77a	-0.10194297
5	0x3c68e5dc	0.014214959
6	0xbe36caea	-0.17850843
7	0x3db5ca3d	0.088764645
8	0xbb51eb3b	-0.0032031077
9	0x3e154634	0.14577562
10	0xbd887e70	-0.06664741
11	0x3e0e6430	0.13905406
12	0x3d2e39af	0.04253548
13	0x3d378847	0.0448077
14	0x3df4e2be	0.1195731
15	0x3e7a4cbf	0.24443339
16	0xbda854e8	-0.082193196
17	0x3de872ff	0.11350059
18	0x3df6e64b	0.12055644
19	0x3d70af5d	0.05876099
20	0x3b156892	0.0022797924
21	0xbe48a36e	-0.19593593
22	0xbd3ae543	-0.045628797
23	0x3da8d84b	0.082443796
24	0x3e0a5b9c	0.13511509
25	0x3c9d0ad7	0.019170208
26	0xbdcaaf17	-0.09896677
27	0x3ceb407f	0.028717278
28	0xbd59084e	-0.052986436
29	0xbcebd717	-0.028789086
30	0xbe06bdfd	-0.13158412
31	0x3c392f95	0.011302848
32	0x3e297eb2	0.16552237
33	0x3d95ca15	0.07313935
34	0xbcefd96c	-0.02927848
35	0x3d9b639e	0.0758736
36	0xbd7f6fce	-0.062362485
37	0xbdf96772	-0.12177934
38	0xbdd57758	-0.10423154
39	0xbeb933ed	-0.3617243
40	0xbe199249	-0.1499721
41	0x3c93b16a	0.018028934
42	0x3ea21063	0.31653127
43	0xbe4369ec	-0.19083375
44	0x3e2419f6	0.16025528
45	0xbd23d24e	-0.039995484
46	0x3bc4cf23	0.006006138
47	0xbd907d58	-0.070551574
48	0x3d06a225	0.032869477
49	0x3e1e3f2a	0.15453783
50	0x3e25fc2f	0.16209482
51	0xbd90822f	-0.070560805
52	0x3e234a92	0.15946415
53	0xbe4d0fcd	-0.20025559
54	0xbe3cbad7	-0.18430649
55	0xbe3f69e7	-0.18692742
56	0x3e029869	0.12753452
57	0xbe78954d	-0.24275704
58	0xbd8a9b68	-0.06767923
59	0xbd3222a3	-0.043490063
60	0x3d913f7d	0.070921876
61	0xbe11339a	-0.1417984
62	0xbb55608d	-0.003255877
63	0xbde80a6a	-0.11330111
64	0x3d85457e	0.06507395
65	0xbd1747b2	-0.03693361
66	0xbe20c848	-0.15701401
67	0xbe13b53a	-0.14424601
68	0x3cd06db0	0.025442928
69	0x3d23e128	0.040009648
70	0xbb6bcef9	-0.003598152
71	0xbd5c0880	-0.053719044
72	0x3d97996f	0.07402312
73	0x3dbef827	0.09324675
74	0xbcda2e80	-0.026633501
75	0xbe490e08	-0.19634259
76	0xb8fc682e	-0.000120357014
77	0x3cf31fe8	0.0296783
78	0xbdd25ed6	-0.10271995
79	0x3dbc5551	0.0919596
80	0xbdc36bda	-0.095420554
81	0xbe467023	-0.19378714
82	0x3dd0e137	0.10199206
83	0xbbc31029	-0.005952854
84	0xbed0ee10	-0.40806627
85	0xbe115a62	-0.14194635
86	0x3df20d33	0.11818924
87	0x3e5da74e	0.21645853
88	0x3d0ce7a6	0.034400605
89	0xbe06411a	-0.13110772
90	0xbd01ea25	-0.03171744
91	0xbe517daf	-0.204581
92	0x3d8d72f4	0.06906691
93	0x3e6276a2	0.22115567
94	0x3e134c5c	0.14384598
95	0x3e46ca9d	0.19413228
96	0xbea1c6ec	-0.31597078
97	0xbd8f8597	-0.07007902
98	0x3ddf9872	0.109177485
99	0xbdd6992c	-0.10478434
100	0x3dec511b	0.11538907
101	0x3dfe592c	0.12419352
102	0x3d962914	0.07332054
103	0xbdb43ff8	-0.088012636
104	0x3e4bbe16	0.19896731
105	0xbde88cbe	-0.113549694
106	0x3e583e6b	0.2111756
107	0x3cd1a096	0.025589269
108	0x3d2692b0	0.040667236
109	0xbc873954	-0.016506828
110	0xbb9af9ab	-0.00472947
111	0x3ddb90d6	0.10720985
112	0x3e02b8d8	0.12765825
113	0x3cf44432	0.029817674
114	0xbe6cd36d	-0.23127528
115	0xbc8fa620	-0.01753527
116	0xbc01a027	-0.007911718
117	0x3e1c05a5	0.15236528
118	0x3d3027be	0.04300665
119	0xbc237e26	-0.009978807
120	0xbe8cb897	-0.2748458
121	0x3b86f80b	0.0041189245
122	0x3b9c6015	0.004772196
123	0x3ddfab1b	0.10921308
124	0xbe154972	-0.14578798
125	0xbd02c88b	-0.031929534
126	0x3dc85506	0.09781842
127	0x3df8c624	0.12147167
128	0xbe002809	-0.12515272
129	0x3d1b1a4c	0.037866876
130	0xbca5c84d	-0.020237112
131	0xbe21b1ca	-0.15790477
132	0x3e3fdd48	0.18736756
133	0xbccad153	-0.024758017
134	0x3dcaa5fc	0.0989494
135	0x3d3598d6	0.04433521
136	0x3c93c4b8	0.018038139
137	0xbd8fc9db	-0.07020923
138	0xbec816f9	-0.39080027
139	0xbbbeb3c7	-0.005819771
140	0xbd8e5eae	-0.069516525
141	0x3e388e0c	0.18022937
142	0x3c313644	0.010816161
143	0x3db68d26	0.08913641
144	0xbe31f974	-0.17380315
145	0xbda89454	-0.08231416
146	0xbdb3422c	-0.08752856
147	0xbe5bfb75	-0.21482642
148	0xbe1331f4	-0.14374524
149	0xbe0a93bd	-0.1353292
150	0x3e812418	0.2522285
151	0xbd7821e5	-0.0605792
152	0x3e200058	0.15625131
153	0x3df71673	0.12064829
154	0xbdf42b45	-0.119223155
155	0xbdc77a19	-0.09740085
156	0xbde3746f	-0.11106192
157	0xbe47bd6e	-0.19505855
158	0x3e42c384	0.19019896
159	0xbe70e355	-0.2352422
160	0xbd875def	-0.06609713
161	0xbb8299ca	-0.0039856182
162	0x3da8391c	0.08214018
163	0xbd4f7344	-0.050647035
164	0xbbfbb0a2	-0.0076809684
165	0xbd1e83ed	-0.038700033
166	0xbe572a4a	-0.21012226
167	0xbd58dbbf	-0.05294394
168	0xbb951d52	-0.0045506144
169	0xbdae264d	-0.08503399
170	0x3df2f3bf	0.11862897
171	0xbd210c71	-0.039318506
172	0xbd96383f	-0.07334947
173	0x3c91c4fa	0.017794121
174	0xbe16d0d2	-0.14728096
175	0x3b377cdc	0.0027998006
176	0x3d355b1e	0.04427635
177	0x3cc9c93d	0.02463209
178	0xbda2bdac	-0.07946333
179	0x3d7918ab	0.06081454
180	0x3d69cd76	0.05708071
181	0xbe0a1649	-0.13485064
182	0xbe11cd7d	-0.14238544
183	0xbe0c2e24	-0.13689476
184	0xbd706eec	-0.058699533
185	0x3da28dd7	0.0793721
186	0xbdb96d91	-0.09054101
187	0x3e2334e1	0.1593814
188	0xbdfc7175	-0.12326328
189	0x3dda5e46	0.106625125
190	0x3c246aba	0.010035211
191	0x3d704ea9	0.058668766
192	0xbdbe8295	-0.0930225
193	0x3e460c88	0.19340718
194	0xbc10faa7	-0.008848823
195	0x3c3d2a40	0.011545718
196	0x3e4966fd	0.19668193
197	0x3de2189c	0.1103985
198	0xbd069c1a	-0.032863714
199	0xbd889d18	-0.06670588
200	0x3cd14df4	0.025549866
201	0xbe5cffe6	-0.21581993
202	0xbdf7c3e4	-0.1209791
203	0x3d12c58a	0.03583292
204	0xbe39b967	-0.18137132
205	0xbc63b9e4	-0.0138993
206	0xbcd1d9a6	-0.025616478
207	0x3e86f1a6	0.26356238
208	0xbe20e025	-0.15710504
209	0xbd430f65	-0.047622103
210	0x3d7277a0	0.059196115
211	0x3cef3533	0.029200172
212	0x3e25ee32	0.16204146
213	0x3db7416d	0.08948026
214	0x3c49c178	0.012314193
215	0x3c0b7d2d	0.008513731
216	0x3e294e04	0.16533667
217	0x3da616b3	0.08109798
218	0xbd63ded0	-0.055632412
219	0xbccecae7	-0.025243236
220	0xbe353705	-0.1769677
221	0x3dcea42d	0.10089908
222	0xbcd9fcd7	-0.026609821
223	0xbdf0d4e8	-0.11759359
224	0x3e09d3c5	0.1345969
225	0x3e0e001b	0.13867228
226	0x3d12c0b1	0.035828296
227	0xbe875438	-0.2643144
228	0xbe915477	-0.28384754
229	0xbe088de3	-0.13335375
230	0xbe3a8101	-0.18213274
231	0x3e2c86ef	0.16848348
232	0x3cf8b16e	0.030358043
233	0x3c0363d7	0.008019409
234	0xbd82ed4b	-0.06392916
235	0x3cd20c8e	0.025640752
236	0xbd1cb941	-0.03826261
237	0xbd52d87a	-0.05147598
238	0x3e0919ce	0.1338875
239	0x3e023b85	0.12718017
240	0xbe07e54d	-0.13271065
241	0xbe00193a	-0.12509623
242	0x3d3c9763	0.04604281
243	0xbd4e6f28	-0.050398976
244	0xbc92f4bd	-0.017938966
245	0x3c7da223	0.015480551
246	0xbe7b3a95	-0.24534066
247	0xbd51d3b7	-0.051227298
248	0x3e09dcb7	0.13463102
249	0xbc8cf514	-0.017206706
250	0xbe010c35	-0.12602313
251	0xbcd42871	-0.02589819
252	0xbd7c1db7	-0.061551776
253	0xbc63fd13	-0.013915318
254	0xbde915b6	-0.11381094
255	0xbdaaa28b	-0.08331784

decoder.0.bias f4 [188]
0	0x3e5a9e11	0.2134936
1	0x3e9dbe7e	0.30809397
2	0x3d9a0bba	0.07521768
3	0xbe0e3c0f	-0.13890098
4	0xbdd737ad	-0.10508666
5	0xbe915755	-0.28386942
6	0xbe8e32b1	-0.2777305
7	0x3e8d722e	0.27626175
8	0x3e754dfb	0.23955528
9	0xbd24882c	-0.040168926
10	0xbea7c683	-0.3276864
11	0xbe74f272	-0.2392061
12	0xbdc1d6cc	-0.094647974
13	0xbe913f1e	-0.28368467
14	0x3e1d1897	0.15341412
15	0xbc894918	-0.016758487
16	0x3e41d9a6	0.18930683
17	0xbea04575	-0.31302992
18	0x3e939073	0.28821144
19	0x3e064340	0.13111591
20	0x3e8ce016	0.27514714
21	0xbea92dde	-0.33042806
22	0x3e7d044a	0.24708667
23	0xbed95b0b	-0.42452273
24	0x3e447b14	0.19187576
25	0xbea837e2	-0.32855135
26	0x3e18496a	0.14871755
27	0xbe693ef2	-0.22777918
28	0x3d93ec07	0.07222753
29	0x3e2e108f	0.16998504
30	0xbd1e8d2e	-0.03870886
31	0xbe12b054	-0.14325076
32	0xbe59be40	-0.21263981
33	0xbea06556	-0.31327313
34	0xbe36976e	-0.17831203
35	0x3e7d0708	0.24709713
36	0xbe25ba2c	-0.161843
37	0xbdfc6ce9	-0.123254605
38	0x3e60a986	0.21939668
39	0x3e8dc787	0.2769129
40	0xbe720bad	-0.23637266
41	0xbe36a566	-0.17836532
42	0x3e1cf4f3	0.15327816
43	0xbe0195a6	-0.12654743
44	0xbe455102	-0.19269183
45	0xbebf6cea	-0.37387782
46	0x3e776a87	0.2416173
47	0xbe6e4629	-0.23268951
48	0x3e94e41b	0.2908028
49	0x3dbf87fe	0.0935211
50	0x3e47c220	0.19507647
51	0xbe16c83f	-0.14724825
52	0x3e3066ae	0.17226669
53	0x3e796836	0.2435616
54	0xbec337ad	-0.38128415
55	0xbe8a1a92	-0.26973397
56	0xbe808b85	-0.25106445
57	0xbe6283b4	-0.22120553
58	0xbda18870	-0.078873515
59	0x3e8227d6	0.25421017
60	0x3e9549c6	0.29157847
61	0xbe974a4d	-0.29548874
62	0xbe8c2440	-0.27371407
63	0xbecd7bca	-0.40133506
64	0xbe2385ea	-0.15969053
65	0xbe65862e	-0.22414467
66	0xbe6b2390	-0.22962785
67	0x3e3b1c81	0.18272592
68	0x3c3234d8	0.010876857
69	0xbdc23958	-0.09483594
70	0xbe3cdc53	-0.18443422
71	0xbd51f126	-0.051255368
72	0xbecff281	-0.40614703
73	0xbe10fbdd	-0.14158578
74	0xbe13b1f9	-0.1442336
75	0xbe89c8d4	-0.26911032
76	0x3e1803bb	0.14845173
77	0xbe1ffd1e	-0.156239
78	0x3e90cdb3	0.28281936
79	0xbe7a73ea	-0.2445828
80	0xbe1efea3	-0.15526824
81	0xbe58937f	-0.21150015
82	0xbe6cec64	-0.23137051
83	0xbe82afba	-0.25524694
84	0xbe386404	-0.18006903
85	0x3e9b61ac	0.30347955
86	0xbe88a4e0	-0.2668829
87	0xbe10424b	-0.14087789
88	0xbe91b113	-0.2845541
89	0x3d295412	0.04133994
90	0xbdef8dba	-0.11696954
91	0x3de083f5	0.10962669
92	0x3e92d73d	0.2867984
93	0xbe825820	-0.2545786
94	0xbd648e96	-0.055800043
95	0xbe1f5bac	-0.15562314
96	0xbe8a87b4	-0.27056658
97	0x3e17ee21	0.14836933
98	0x3c80c665	0.015719602
99	0xbd01421c	-0.031557187
100	0xbeb32e8e	-0.34996456
101	0x3e9bf5de	0.3046102
102	0xbe1794b0	-0.14802814
103	0x3e6c0b76	0.23051247
104	0xbd360672	-0.04443974
105	0x3e87c2f8	0.26515937
106	0xbe74484b	-0.23855703
107	0xbea2c284	-0.3178903
108	0xbeae93c7	-0.3409712
109	0xbe7771eb	-0.2416455
110	0xbe8b6297	-0.27223656
111	0xbeb0c752	-0.3452707
112	0x3e7d409a	0.24731675
113	0xbe1a4a57	-0.15067421
114	0xbd082a6b	-0.033243578
115	0x3e1f4200	0.15552521
116	0xbebca815	-0.36846986
117	0xbe35de98	-0.17760694
118	0xbcdce3b6	-0.02696405
119	0xbe80cadb	-0.25154766
120	0x3e14db94	0.14536887
121	0xbeb58502	-0.3545304
122	0xbe948436	-0.2900712
123	0xbea92c0b	-0.33041415
124	0x3e95b874	0.2924229
125	0xbc7048a3	-0.014665755
126	0xbe9f9a19	-0.31172255
127	0xbe062fcd	-0.13104172
128	0x3e63987a	0.22226134
129	0x3e45ecd8	0.1932863
130	0x3e8a1bfe	0.2697448
131	0x3e618ce7	0.22026406
132	0xbec27501	-0.37979892
133	0x3e6300e7	0.22168313
134	0x3e8621b0	0.26197577
135	0xbe815fda	-0.2526844
136	0xbd588fa1	-0.05287135
137	0xbe583778	-0.2111491
138	0x3e417df7	0.18895708
139	0xbea01067	-0.31262514
140	0x3e101f4d	0.1407444
141	0x3d4d5ca7	0.05013719
142	0xbe170758	-0.14748895
143	0x3e60fc09	0.21971144
144	0xbea16055	-0.31518808
145	0xbc07b000	-0.008281708
146	0xbe721005	-0.23638923
147	0xbe238808	-0.1596986
148	0xbd832072	-0.06402673
149	0xbdd7613a	-0.10516591
150	0xbe1d9c8f	-0.15391754
151	0xbed490c6	-0.41516703
152	0x3e4a40e8	0.19751322
153	0xbd16a8c2	-0.036782034
154	0x3e8edc80	0.27902603
155	0xbe5a2c54	-0.21305972
156	0x3e82e1b2	0.25562817
157	0xbdd6bf6b	-0.10485729
158	0x3e251fdd	0.16125436
159	0xbebbf301	-0.36708835
160	0x3e91fb71	0.28512147
161	0x3da04fcc	0.0782772
162	0xbe9e4848	-0.3091452
163	0xbe416e67	-0.18889771
164	0xbe88bf3b	-0.26708397
165	0xbe4472de	-0.19184443
166	0xbe89b401	-0.26895145
167	0x3d129ab8	0.035792083
168	0x3e75cc4b	0.24003713
169	0x3e08a82f	0.13345407
170	0xbe582d18	-0.21110952
171	0x3e866221	0.2624674
172	0xbe53b04b	-0.20672719
173	0xbe91d0c5	-0.2847959
174	0xbe30e111	-0.17273356
175	0x3d8e5399	0.06949539
176	0x3e00e1d6	0.1258615
177	0xbeb26aba	-0.3484705
178	0x3d73b2b8	0.05949661
179	0xbe723597	-0.23653255
180	0xbeb6cbc3	-0.35702333
181	0x3e587683	0.21138959
182	0xbea7e0c2	-0.32788664
183	0xbd018e2a	-0.03162972
184	0xbec78ebe	-0.3897609
185	0xbe634be9	-0.22196926
186	0x3d52537e	0.051349156
187	0xbec27046	-0.37976283

decoder.3.weight f4 [73, 188]
0	0x3c8c5dc2	0.017134551
1	0x3c2bc83b	0.01048475
2	0x3c30f005	0.010799413
3	0xbc0b67e9	-0.008508661
4	0xbc89e3d1	-0.016832264
5	0xbc2d3b6a	-0.010573247
6	0xbcd15d2d	-0.025557125
7	0x3ca95413	0.020669973
8	0x3cec48e1	0.028843345
9	0x3b1a4846	0.0023541613
10	0xbc8b4bb1	-0.017003866
11	0xbce94dcd	-0.028479481
12	0xbbc8c153	-0.0061265617
13	0x3b79387a	0.0038028047
14	0x3c6c2ecf	0.014415457
15	0xbbc40861	-0.005982444
16	0x3c160005	0.009155278
17	0xbbd28190	-0.0064241365
18	0x3c6e3690	0.014539376
19	0x3cc9706d	0.024589742
20	0x3c923ad1	0.017850311
21	0x3c7449bd	0.014910159
22	0x3cd05224	0.025429793
23	0xbcfdcc3e	-0.03098118
24	0x3c459641	0.012059749
25	0x3acdf47e	0.0015713123
26	0x3c35e5e4	0.0111021735
27	0x3c2c8aaa	0.010531107
28	0x3bd4a229	0.0064890576
29	0x3c97aaa8	0.018513992
30	0xbc706f3b	-0.014674957
31	0xbbbced18	-0.0057655685
32	0xbb9e0f46	-0.004823598
33	0xbcb0e8ae	-0.021595325
34	0xbbb8359b	-0.0056216246
35	0x3ccddc7f	0.025129555
36	0x3b9d6d40	0.0048042834
37	0x3beac5d5	0.0071646967
38	0x3ce978c5	0.02849997
39	0x3c5a1abe	0.01331204
40	0xbbb5a5b1	-0.0055434336
41	0x3cb0daa3	0.02158863
42	0x3c0b6f15	0.008510371
43	0x3ba40962	0.0050060013
44	0x3a104602	0.0005503596
45	0xbd51432c	-0.05108945
46	0x3bef800e	0.0073089665
47	0xbcf31548	-0.029673234
48	0x3c107707	0.008817441
49	0x3c31a016	0.01084139
50	0x3ccd9060	0.025093257
51	0xbba50939	-0.0050365
52	0x3cc31767	0.02381487
53	0x3c54b630	0.01298289
54	0xbc7aecf9	-0.015315288
55	0xbbed07ce	-0.0072335964
56	0x3cb5a01d	0.022171075
57	0xbb793245	-0.0038024348
58	0xbb341073	-0.0027475625
59	0x3ca8db5c	0.020612411
60	0x3c9791c3	0.018502122
61	0xbc18739c	-0.009304907
62	0xbca5334d	-0.020166064
63	0xbc7f4db2	-0.015582489
64	0x3d239f5c	0.0399469
65	0xba03a7b4	-0.0005022243
66	0xbc590574	-0.013245929
67	0x3cad5566	0.021158885
68	0xbb67909f	-0.0035334004
69	0xbd3823bb	-0.04495595
70	0xbb1baeaf	-0.0023755243
71	0xbbaca452	-0.005268612
72	0xbad562c9	-0.0016280051
73	0xbba26584	-0.0049559493
74	0x37bbf9e7	2.2408507e-05
75	0x3b96be3d	0.004600315
76	0x3c22b1f7	0.009930125
77	0xbc9e177f	-0.019298313
78	0x3c092f5f	0.008373111
79	0xb95f46e2	-0.00021293343
80	0xbb928c4b	-0.0044722906
81	0x3ca8a17e	0.020584818
82	0xbcd32511	-0.02577451
83	0xbd1afeb1	-0.03784055
84	0xbca5df0f	-0.020247964
85	0x3c8f5161	0.01749486
86	0xbc5f58b9	-0.013631993
87	0x3cf9aaef	0.030477015
88	0x3d13cac5	0.036082048
89	0xbb88c26d	-0.004173568
90	0xbc6fd8c4	-0.014639083
91	0x3bc15a25	0.0059006386
92	0x3ca9b1fc	0.020714752
93	0xbc82caf3	-0.015965914
94	0xbb99dfaa	-0.0046958523
95	0xbd18fe6b	-0.037352007
96	0xbce46e03	-0.027884489
97	0x3c8545bb	0.016268602
98	0xbbbc6cdf	-0.005750283
99	0xbc733659	-0.0148445
100	0x3c0bfca1	0.008544118
101	0x3c819fcd	0.01582327
102	0xbc591e43	-0.013251844
103	0x3c8dd7a0	0.017314732
104	0xbb55172a	-0.0032515028
105	0x3c5725bc	0.013131555
106	0x3bfb8c55	0.007676641
107	0xbbe482c9	-0.0069735986
108	0xbcf5abd2	-0.029989157
109	0x3ca5f990	0.020260602
110	0x3c95ba29	0.018277245
111	0x3ae5169b	0.001747805
112	0x3cd8f119	0.026482152
113	0xbd09c253	-0.033632588
114	0x3c1029ff	0.008799075
115	0x3c7d83b4	0.015473295
116	0xbd02ba04	-0.03191568
117	0xbbf0e3b7	-0.0073513645
118	0xbc08df7c	-0.008354064
119	0xbb8096bf	-0.0039242203
120	0x3c8e38e7	0.017361118
121	0xbd3579bc	-0.044305548
122	0xbd00054e	-0.03125506
123	0xbc21630b	-0.009850274
124	0x3cb25c60	0.021772563
125	0x3ab693f2	0.0013929589
126	0xbbdc1b7c	-0.0067171436
127	0x3c0891da	0.008335555
128	0x3c788db5	0.015170504
129	0x3c41221e	0.011787919
130	0x3c9470be	0.018120166
131	0x3ce55961	0.02799672
132	0xbce25f4f	-0.027633337
133	0x3c9bdf11	0.019027265
134	0x3cb00323	0.02148587
135	0xbc0335bf	-0.00800842
136	0xbbeb1158	-0.0071736984
137	0xbcef47e2	-0.029209081
138	0x3ca8da25	0.020611832
139	0x3c88f0f7	0.016716463
140	0x3c4d7b62	0.012541624
141	0x3b3a00c4	0.0028381804
142	0x3c0e6c89	0.008692869
143	0x3c44517c	0.011982318
144	0xbb69eed0	-0.0035695322
145	0xbb6e2c8b	-0.0036342468
146	0xbb3cc6d8	-0.0028805044
147	0xbc542054	-0.012947161
148	0xbb878ff5	-0.004137034
149	0xbc30efbd	-0.010799346
150	0xbc854a34	-0.016270734
151	0xbd038bda	-0.032115795
152	0x3c90a4b7	0.017656667
153	0xbb8ce363	-0.0042995675
154	0x3c8b72d7	0.017022533
155	0xbcd71bbd	-0.026258344
156	0x3c713e07	0.014724261
157	0x3b0d255f	0.0021537167
158	0x3cbe6ff3	0.02324674
159	0xbcc6b32f	-0.024255363
160	0x3c9d1a1b	0.019177487
161	0x3b85d1a0	0.004083827
162	0x3b9dbc76	0.004813726
163	0x3c7f548b	0.015584121
164	0xbd3ffcbd	-0.04687189
165	0xbc878622	-0.016543452
166	0x3cd1e406	0.025621425
167	0x3c763e6d	0.015029532
168	0x3cea5e52	0.028609429
169	0x3cba00f8	0.02270554
170	0xbce84d10	-0.028357059
171	0x3c82b71f	0.01595646
172	0x3c7870c6	0.015163606
173	0xbc8c258f	-0.017107753
174	0xbc0e5586	-0.008687383
175	0x3c94c26c	0.018159114
176	0x3c2b58b8	0.010458164
177	0x3bbf29ef	0.0058338563
178	0x3c08a736	0.008340647
179	0xbbffc756	-0.007805745
180	0x3ba82a7f	0.005132019
181	0x3c4a25cb	0.012338112
182	0x3b59e61c	0.0033248728
183	0xbc8dc0fd	-0.017303938
184	0xba8be681	-0.0010673554
185	0xbcbaaaef	-0.022786586
186	0x3c09a659	0.008401477
187	0x3cd6f763	0.02624101
188	0x3c31870d	0.010835421
189	0x3c4f31e0	0.0126461685
190	0x3cc160a6	0.023605656
191	0xbb91ccc3	-0.0044494583
192	0xbacb12ba	-0.0015493252
193	0x3a46c2a7	0.0007582106
194	0xbcb44180	-0.02200389
195	0x3cb82d35	0.022482494
196	0x3ca844f7	0.020540698
197	0x3c90b9f0	0.017666787
198	0xbc2b0d0d	-0.010440123
199	0xbc95d01e	-0.018287715
200	0xbc42a082	-0.011879088
201	0xbc8144de	-0.015779909
202	0x3c684add	0.014178005
203	0xbc098792	-0.008394139
204	0x3c9c0d2b	0.019049248
205	0xbc891987	-0.016735805
206	0x3c5768a3	0.013147506
207	0x3cdd0fe2	0.026985113
208	0x3c3c7824	0.011503253
209	0x3bd81e85	0.006595435
210	0x3c9999ef	0.01875016
211	0xbc8b30ee	-0.016991105
212	0x3c507ab4	0.012724567
213	0x3c8a3e58	0.016875431
214	0x3c0fadda	0.008769477
215	0xbbad8b79	-0.0052961675
216	0x3c539a70	0.012915239
217	0x3c92ae99	0.01790552
218	0xbb1a16a0	-0.002351202
219	0x3bbde2d7	0.0057948637
220	0x3c841678	0.016123995
221	0x3c1705dc	0.009217706
222	0x3c080f3e	0.008304415
223	0x3ccc4e13	0.024939572
224	0x3cfcaf93	0.030845439
225	0x3c1faed2	0.00974627
226	0x3cb93364	0.022607513
227	0x3c6748a3	0.014116439
228	0xbccf7769	-0.025325494
229	0xbc251e5e	-0.010078041
230	0x3c9f9c4e	0.019483712
231	0x3b5583b4	0.0032579722
232	0xbced7e2a	-0.028990824
233	0x3cef350e	0.029200103
234	0x3bf902bf	0.0075992043
235	0xbc936231	-0.017991157
236	0x3c509fb6	0.012733391
237	0x3b075178	0.0020647924
238	0x3c8b8e00	0.017035484
239	0x3bee3185	0.007269087
240	0x3cafd203	0.021462446
241	0x3c9527f9	0.018207537
242	0xbc6814e8	-0.014165141
243	0x3b1bd842	0.0023780023
244	0x3c766a47	0.015039987
245	0xbba32e20	-0.0049798638
246	0x3bed0ba1	0.0072340523
247	0x3c8e881d	0.017398888
248	0x3c2375b1	0.00997679
249	0x3c5a1bc6	0.013312286
250	0xbc19beb7	-0.009383849
251	0x3b6d5da0	0.0036219135
252	0xbc2ef820	-0.010679275
253	0xbc50b60e	-0.012738718
254	0xbba003e9	-0.0048832786
255	0x3cb57931	0.022152515

decoder.3.bias f4 [73]
0	0x3e26b693	0.16280584
1	0x3e2402ae	0.16016647
2	0x3e2117f2	0.1573179
3	0x3e222397	0.15833889
4	0xbc3f88fa	-0.011690373
5	0xbc33ecf3	-0.010981786
6	0x3e244611	0.16042353
7	0x3e23c20f	0.15991996
8	0x3e282c88	0.16423237
9	0x3e2fff71	0.17187287
10	0xbc2b88a2	-0.0104695875
11	0x3e00666d	0.12539072
12	0x3e202655	0.15639623
13	0xbc3406ca	-0.010987947
14	0x3e2485d0	0.1606667
15	0xbc24a2a5	-0.010048543
16	0x3e25fc35	0.1620949
17	0xbc299a46	-0.010351723
18	0x3e1f065e	0.15529773
19	0xbc2d390a	-0.010572681
20	0xbc567480	-0.013089299
21	0xbc3a91fc	-0.011387344
22	0xbc248e63	-0.010043713
23	0x3e09bc79	0.13450803
24	0xbc38955d	-0.01126608
25	0x3e22d9c4	0.15903383
26	0x3e2bd50d	0.16780491
27	0xbc3477ec	-0.01101492
28	0xbc3481b7	-0.011017255
29	0xbc4192bc	-0.011814769
30	0xbc4aa706	-0.012368923
31	0x3e239877	0.1597613
32	0xbc370bfa	-0.011172289
33	0xbc399b6c	-0.011328559
34	0x3cef39c3	0.029202348
35	0xbc3be881	-0.0114690075
36	0x3e260c9a	0.16215745
37	0xbc2416ec	-0.010015231
38	0x3e22b60e	0.15889761
39	0x3e176450	0.1478436
40	0xbc454348	-0.012039967
41	0x3e2635ca	0.16231456
42	0x3e2732b3	0.16327934
43	0x3e23570d	0.15951176
44	0x3e22375b	0.15841429
45	0xbc3e7943	-0.011625591
46	0xbc37215f	-0.01117739
47	0x3e2d57d1	0.1692803
48	0x3e299fd4	0.16564876
49	0x3e2d40e2	0.16919282
50	0x3e258ada	0.16166249
51	0x3e29c4cd	0.1657898
52	0xbc328401	-0.01089573
53	0x3e20dd31	0.15709378
54	0xbc4a2ef5	-0.012340297
55	0x3e216a28	0.15763152
56	0xbc51cacc	-0.012804698
57	0xbc3550a7	-0.011066592
58	0x3e233733	0.15939026
59	0xbc30a933	-0.010782528
60	0x3e21dd5f	0.15807103
61	0xbc39a28c	-0.011330258
62	0xbc2aa253	-0.010414678
63	0x3e256db0	0.16155124
64	0x3e09e067	0.13464509
65	0xbc2e37ee	-0.010633452
66	0xbc302bc0	-0.010752618
67	0x3e20c521	0.15700199
68	0x3e24e405	0.16102608
69	0x3e20ec55	0.15715154
70	0xbc2efcb3	-0.010680365
71	0x3e244566	0.16042098
72	0xbc4dd0f1	-0.012562023

decoder.6.weight f4 [1200, 73]
0	0x392840cf	0.00016045872
1	0x38262773	3.9614224e-05
2	0xb8e8fe43	-0.00011109982
3	0x38a0a4ff	7.6601274e-05
4	0x3dfa0b23	0.122091554
5	0xbd90162f	-0.07035481
6	0x3910d171	0.00013810933
7	0x37d4a0f5	2.534732e-05
8	0x3986f911	0.0002574404
9	0x38b9ce8b	8.859959e-05
10	0xbdaaa60e	-0.08332454
11	0xbb604da1	-0.0034225958
12	0x3931afd0	0.0001694553
13	0xbcd30d24	-0.025763102
14	0x3957fbbd	0.00020597778
15	0x3dfb5e49	0.12273843
16	0x38d64963	0.000102179845
17	0xbcaaaa93	-0.02083329
18	0x38240b7c	3.9111343e-05
19	0xbda103b9	-0.07862038
20	0x3de88313	0.113531254
21	0x3db3c91a	0.087785915
22	0x3d00b1af	0.031419452
23	0xbaea9a82	-0.001789883
24	0x3da43cda	0.08019419
25	0x39008999	0.0001225829
26	0x39115ad2	0.00013862111
27	0x3da38f8f	0.07986366
28	0x3d227542	0.039662607
29	0xbcef704d	-0.029228354
30	0x3de0c73a	0.109754995
31	0x394cc2e4	0.00019527558
32	0x3dfd5cbd	0.12371204
33	0xbd91d944	-0.07121518
34	0xbcde2bc8	-0.027120486
35	0x3dbfa498	0.09357566
36	0x3927735a	0.00015969333
37	0xbdc597c5	-0.09648088
38	0x35dcfc68	1.6464737e-06
39	0x39a29b13	0.00031014587
40	0xbd64991f	-0.05581009
41	0x396687ca	0.00021985095
42	0x38c13eec	9.214677e-05
43	0x379f1316	1.8963165e-05
44	0x3902bfdb	0.00012469238
45	0xbdbc5d6f	-0.091975085
46	0xbd9ad62f	-0.075603835
47	0x37fb7e46	2.9980332e-05
48	0x38a0eab9	7.673115e-05
49	0x39394569	0.00017668832
50	0x39331fec	0.00017082662
51	0x38df6bcd	0.00010653548
52	0x3dd40b3c	0.10353705
53	0x394c1efc	0.00019466499
54	0x3cd396a0	0.02582866
55	0x391e8fcc	0.00015121623
56	0x3cbbb496	0.022913259
57	0xbab4a39e	-0.0013781672
58	0x38ee9bf9	0.000113777765
59	0x3c65f232	0.014034795
60	0x363ba45a	2.7960837e-06
61	0x3db73726	0.089460656
62	0xbd9d065a	-0.07667227
63	0x38008d0e	3.0648946e-05
64	0xb81ca660	-3.7348247e-05
65	0x3c070ac4	0.008242313
66	0xbae938ec	-0.0017793453
67	0x390d5573	0.0001347864
68	0x39280f55	0.0001602744
69	0xb825fdc9	-3.957542e-05
70	0xbdad253d	-0.08454368
71	0x3900dba0	0.00012288848
72	0x3dd5c404	0.10437778
73	0x3912610f	0.00013959802
74	0x38f95650	0.00011889322
75	0xb86d20ed	-5.6535868e-05
76	0x390c647b	0.00013388872
77	0xbd8db7b7	-0.069198065
78	0xbdcdd07d	-0.100495316
79	0x3941f123	0.00018495745
80	0x38aa2c8d	8.11453e-05
81	0x39ada542	0.00033120258
82	0x39578761	0.0002055443
83	0xbd5cf51e	-0.0539447
84	0xbb645218	-0.003483897
85	0x397849a6	0.00023678559
86	0x3cec89cf	0.028874306
87	0x39973989	0.0002884383
88	0x3df2e649	0.1186033
89	0x3957e8cf	0.00020590726
90	0xbd190771	-0.037360612
91	0x379bbaca	1.856442e-05
92	0xbd2bec54	-0.041973427
93	0xbdb8ac0f	-0.090171926
94	0x3c90aef5	0.017661551
95	0xbd5c16d8	-0.053732723
96	0xbae9e57d	-0.0017844882
97	0x3c821276	0.015877943
98	0x3971d53a	0.00023062984
99	0x398a38c1	0.00026363696
100	0x3de28ee8	0.110624135
101	0x3db1033f	0.08643197
102	0xbd3a56af	-0.045492824
103	0x3dabb66c	0.083844036
104	0x39a780cb	0.0003194868
105	0xbdb63dcb	-0.08898505
106	0xbd4d758f	-0.05016094
107	0xbd0d984c	-0.03456907
108	0x3df8187a	0.121140435
109	0x39874de4	0.0002580724
110	0x3d95750f	0.07297718
111	0x38f6f080	0.00011774991
112	0x39de6a5b	0.0004242238
113	0xbd4ed7a9	-0.05049864
114	0x3978a659	0.00023713092
115	0x394e0817	0.00019648705
116	0x38ccc1bd	9.7635646e-05
117	0x39326c10	0.00017015659
118	0xbbfbe424	-0.0076871086
119	0xbd3cee3c	-0.046125636
120	0x38501a60	4.9615628e-05
121	0x39066731	0.00012817678
122	0x395e4d39	0.00021200338
123	0x39a376f8	0.0003117842
124	0x39105225	0.00013763511
125	0xbcc16630	-0.023608297
126	0x398c1cbd	0.00026724293
127	0xbaddc246	-0.001691886
128	0x39322ef4	0.00016992894
129	0xbc57f758	-0.01318153
130	0x3dd8e1ef	0.105899684
131	0x38c7c13a	9.525051e-05
132	0xbd5e2359	-0.05423293
133	0x39177591	0.00014444279
134	0xbd0122d1	-0.031527344
135	0xbd6c31cb	-0.057664674
136	0x38876852	6.456733e-05
137	0xb930b867	-0.00016853363
138	0x3c9629c5	0.018330464
139	0x3e01bb47	0.12669097
140	0x39346d15	0.00017206774
141	0x39426888	0.00018540223
142	0x36a227cf	4.8326106e-06
143	0x3cf0ce81	0.029395344
144	0x396b69b2	0.00022450721
145	0xbd8e3199	-0.06943054
146	0x3897ec11	7.244212e-05
147	0x392af733	0.00016304552
148	0xb8df4db1	-0.0001064794
149	0x38b9f184	8.866473e-05
150	0xbcfbb0bd	-0.030723924
151	0xbdd4a88b	-0.103837095
152	0x39296f1b	0.00016158486
153	0x37427aa2	1.1591854e-05
154	0x3990a118	0.00027585845
155	0x3928d895	0.00016102412
156	0x3c5fa84a	0.013650963
157	0xbb6e54c7	-0.003636645
158	0x38d5405c	0.00010168619
159	0x3d946215	0.0724527
160	0x398b8351	0.00026609984
161	0x3d225d38	0.03963968
162	0x39325ae5	0.00017009264
163	0xbdd34c36	-0.103172705
164	0x38753bac	5.8468126e-05
165	0xbd36f648	-0.044668466
166	0xbd71e4c4	-0.05905606
167	0xbda78267	-0.08179169
168	0xbda0444f	-0.07825529
169	0xbb0fa7b0	-0.0021920018
170	0xbd1b369e	-0.037893884
171	0x39661d3f	0.00021945404
172	0x3990a334	0.00027587416
173	0x3d6587d7	0.05603775
174	0x3c1eee81	0.009700418
175	0xbdaea9b4	-0.08528462
176	0x3bc03e7a	0.005866823
177	0x39b15fd5	0.0003383147
178	0x3c8cf386	0.017205965
179	0x3d9f3b8b	0.07775029
180	0x3cb0b3e5	0.021570155
181	0xbdc3029c	-0.09521982
182	0x398396b3	0.00025098547
183	0x3dbfe449	0.09369714
184	0xb72d342b	-1.032375e-05
185	0x398a564a	0.00026385701
186	0xbda4ca1b	-0.08046361
187	0x397dee08	0.00024216634
188	0x3911113d	0.000138347
189	0x38f7b9db	0.00011812496
190	0x391a7f8e	0.00014734102
191	0x3cf09c04	0.029371269
192	0xbd078edc	-0.033095226
193	0x3890ae8e	6.8989684e-05
194	0x3963633a	0.00021685372
195	0x38f5779b	0.000117047886
196	0x398cd021	0.0002685795
197	0x395b3c63	0.00020907963
198	0x3dc7af8e	0.09750281
199	0x3968077e	0.00022128035
200	0x3d6df345	0.058093328
201	0x3911dfd8	0.00013911666
202	0xbde8f1e7	-0.11374264
203	0x3db3a3c9	0.08771474
204	0x39055243	0.00012714513
205	0xbdc82148	-0.09771973
206	0x382a6ff9	4.063544e-05
207	0x3d8e236d	0.06940351
208	0x3c6d15d9	0.014470541
209	0x38152921	3.5562673e-05
210	0xb9f26c23	-0.00046238405
211	0x3bc86b2f	0.006116293
212	0x3dd56d0f	0.10421192
213	0x3921a822	0.00015416791
214	0x39906a7a	0.00027545152
215	0x36bce6f3	5.6297226e-06
216	0x3dac82a0	0.08423352
217	0x3980cb6d	0.00024565627
218	0xbddd9594	-0.108195454
219	0x389dd3b1	7.525774e-05
220	0x38ce7d2c	9.8461605e-05
221	0xb8bf9015	-9.134427e-05
222	0x386ad55f	5.5988665e-05
223	0x3d2c8580	0.042119503
224	0x3dc0d11f	0.09414887
225	0x3947203b	0.00018990126
226	0x37ee95c5	2.8441553e-05
227	0x398fdff4	0.00027441944
228	0x391bacc5	0.00014846314
229	0x3df1aeb8	0.11800903
230	0xbb859d44	-0.0040775854
231	0x3904693f	0.00012627708
232	0xbcfa774a	-0.03057446
233	0x3979fafb	0.00023839988
234	0xbc9f2628	-0.019427374
235	0x387b561c	5.992326e-05
236	0x3cd78c02	0.026311878
237	0x38b98b39	8.84742e-05
238	0x3ceda04f	0.029007105
239	0x3dfd0a7d	0.12355516
240	0x3d883b37	0.06651919
241	0x3d0363bc	0.032077536
242	0xbb04f329	-0.0020286536
243	0x3b87476a	0.0041283863
244	0x38bd4a70	9.026087e-05
245	0x39974549	0.00028852586
246	0x3dabfa81	0.08397389
247	0xbd0d8e0d	-0.0345593
248	0x3ddc2177	0.107485704
249	0xbc2b6a5e	-0.010462372
250	0x39addd9c	0.00033162243
251	0x3d48e9d4	0.04905112
252	0x3ddde527	0.10834723
253	0x3cc9ecc8	0.024649039
254	0xbdbcdc69	-0.092217274
255	0x3984299d	0.00025208006

decoder.6.bias f4 [1200]
0	0xbb2df1c3	-0.0026541806
1	0xbb4256e2	-0.0029653837
2	0xbb25d57b	-0.0025304246
3	0xbb2a2bb1	-0.0025965984
4	0xbb478238	-0.0030442607
5	0xbb260e85	-0.0025338244
6	0xbb2c7abd	-0.0026318275
7	0xbb3c4845	-0.00287296
8	0xbaf62d18	-0.001878175
9	0xbad17628	-0.0015980648
10	0xba947fe1	-0.0011329615
11	0xbac3124c	-0.0014882772
12	0xbb0fce40	-0.0021943003
13	0xba73835d	-0.0009289289
14	0xbafaa77d	-0.0019123402
15	0xbaec35b0	-0.0018021371
16	0xba8790a9	-0.0010342795
17	0xbac7f4c6	-0.0015255443
18	0xbafe5429	-0.0019403744
19	0xbb1bfd9b	-0.0023802284
20	0xbb1389d8	-0.0022512581
21	0xbaa19268	-0.0012326958
22	0xbaea7a1b	-0.0017889173
23	0xbacad024	-0.0015473408
24	0xba702149	-0.00091602333
25	0xbac4e285	-0.0015021121
26	0xba23a96a	-0.0006243201
27	0xbb93ba27	-0.004508275
28	0xbb79fbac	-0.0038144393
29	0xbc1731eb	-0.00922821
30	0xbc6442dd	-0.013931957
31	0xbc7cbc50	-0.015425757
32	0xbc7ab94d	-0.015302968
33	0xbc45eb67	-0.01208005
34	0xbc18cb0d	-0.009325755
35	0xbb5cbf56	-0.003368338
36	0xba44711c	-0.0007493661
37	0x39e73b6b	0.00044104023
38	0xb96bc639	-0.0002248519
39	0x3a449625	0.000749918
40	0x39db1604	0.00041787338
41	0x3a000e32	0.0004884928
42	0x399b2ad7	0.00029595822
43	0xba471c2b	-0.0007595445
44	0xba0ff4c9	-0.0005491493
45	0xba65dd2d	-0.00087686145
46	0x389b7e58	7.414509e-05
47	0xba186de9	-0.0005814718
48	0xb9d3fda0	-0.00040434022
49	0xba502972	-0.0007940746
50	0xbb10fab1	-0.002212208
51	0xbac9e5db	-0.0015403585
52	0xbab73674	-0.001397802
53	0xbb203949	-0.0024448207
54	0xbac54f75	-0.0015053587
55	0xbae91eea	-0.0017785702
56	0xbaf08c18	-0.0018352298
57	0xbaf66b2f	-0.0018800254
58	0xba3e6ab2	-0.00072638236
59	0xbb00f931	-0.001967978
60	0xbaae9f61	-0.0013322645
61	0xbadc0184	-0.001678512
62	0xbaaffab4	-0.0013426156
63	0xba936693	-0.001124578
64	0xbaebfe4f	-0.0018004867
65	0xbb2251c0	-0.0024767965
66	0xbaacb4e3	-0.0013176467
67	0xbace61cc	-0.0015745698
68	0xbad89153	-0.0016522802
69	0xba88cbf0	-0.0010436755
70	0xba8109d1	-0.0009844844
71	0xbb129058	-0.0022363868
72	0xbaa07ccc	-0.0012244224
73	0xbb0dab56	-0.0021617017
74	0xbad98dec	-0.0016598082
75	0xbac4b7aa	-0.001500835
76	0xbafd53b2	-0.0019327311
77	0xbaf2129f	-0.0018468684
78	0xbaa2f47b	-0.001243248
79	0xbb1cf719	-0.0023950993
80	0xbaa669f3	-0.001269637
81	0xbb17def3	-0.002317366
82	0xbb45bab5	-0.00301711
83	0xbb0900ac	-0.0020904941
84	0xba747b28	-0.0009326213
85	0xbab3e196	-0.0013723846
86	0xbb5712e3	-0.0032817654
87	0xbb9bfe4e	-0.00476054
88	0xbc2da66f	-0.010598763
89	0xbc92dcd7	-0.01792757
90	0xbccded0b	-0.025137445
91	0xbcd8ce65	-0.026465604
92	0xbc9fc8a2	-0.019504849
93	0xbc76182e	-0.015020413
94	0xbc29b8d9	-0.0103590125
95	0xbb8ce3eb	-0.004299631
96	0xb8ac3403	-8.211287e-05
97	0xb99efe6b	-0.00030325665
98	0x3a95a175	0.0011415916
99	0x3a4de6a4	0.00078544975
100	0x3ad39652	0.0016142821
101	0x3a08cc2c	0.0005218412
102	0xba03da00	-0.0005029738
103	0xba33cae9	-0.0006858544
104	0xb97feac3	-0.0002440615
105	0x3a77f63c	0.0009458994
106	0x39f4ff1f	0.00046729387
107	0xbaad3c31	-0.0013216791
108	0xba943040	-0.0011305884
109	0x387fbdb1	6.09734e-05
110	0xba114860	-0.0005542096
111	0xba9a3546	-0.0011765144
112	0xba17e2b9	-0.0005793977
113	0xb9cab021	-0.0003865967
114	0xbaab36c8	-0.0013062591
115	0x391fa7da	0.00015225951
116	0xba2bc532	-0.0006552517
117	0xb9b4fa23	-0.00034518642
118	0xbabac1fa	-0.0014248483
119	0xba3c6d0a	-0.0007187879
120	0xbb4fcb8b	-0.0031707014
121	0xbb08eda7	-0.0020893605
122	0xbb0e611a	-0.0021725358
123	0xbb19ea28	-0.0023485515
124	0xbb0c2991	-0.002138708
125	0xbaede055	-0.0018148521
126	0xbb2684af	-0.0025408675
127	0xbac16511	-0.0014754852
128	0xbb189c1e	-0.0023286412
129	0xbab02a19	-0.001344028
130	0xbb166bff	-0.0022952554
131	0xbad2d50f	-0.0016085225
132	0xbafd689a	-0.0019333542
133	0xbb1cc757	-0.0023922527
134	0xba8c7fb5	-0.0010719212
135	0xbafda223	-0.0019350689
136	0xba55e4f7	-0.00081594236
137	0xb9eedfa0	-0.0004556151
138	0xbaa643de	-0.0012685021
139	0xba33bf77	-0.00068568386
140	0xbb05a39e	-0.0020391713
141	0xbad725a0	-0.0016414411
142	0xbb2b977e	-0.0026182826
143	0xba917ecb	-0.0011100409
144	0xbac86c05	-0.0015290981
145	0x3a2ef65f	0.00066742854
146	0xb9eac201	-0.00044776502
147	0xbb04f99a	-0.0020290376
148	0xbbb940d5	-0.0056534805
149	0xbc6561a2	-0.014000328
150	0xbcb6f451	-0.022333296
151	0xbcc216f1	-0.02369258
152	0xbcb07fd3	-0.021545326
153	0xbc8593d6	-0.016305845
154	0xbc0316b6	-0.00800102
155	0xbad6d73c	-0.0016391049
156	0xba3ce942	-0.0007206389
157	0x3b4a3c45	0.0030858677
158	0x3b8011ee	0.0039083874
159	0x3afe26b6	0.0019390199
160	0x3aab2ccc	0.0013059615
161	0x3ada00cf	0.0016632321
162	0xbab5966c	-0.0013854033
163	0x39059e5a	0.00012742859
164	0xba82ef8d	-0.0009989605
165	0xba184f60	-0.00058101676
166	0xbb077337	-0.0020668039
167	0xbb4ce334	-0.0031263353
168	0xbab7d9e6	-0.0014026731
169	0xbb06d1b8	-0.002057178
170	0xbaf27ac9	-0.0018499728
171	0xbb20ba6a	-0.0024525174
172	0xbb08a973	-0.0020852953
173	0xbb4ea3b2	-0.0031530675
174	0xbb1af330	-0.0023643486
175	0xbb128cf5	-0.002236185
176	0xbaf13b4f	-0.0018404516
177	0xbb11c961	-0.0022245275
178	0xba0e740b	-0.0005434162
179	0xbb03735b	-0.002005777
180	0xbb25fa6b	-0.0025326263
181	0xbb4ca390	-0.003122542
182	0xbb5af366	-0.0033409237
183	0xbb0c5a58	-0.0021416154
184	0xbb1360b0	-0.002248805
185	0xbb6293be	-0.0034572924
186	0xbb60eb3b	-0.0034319896
187	0xbb3e2c39	-0.0029018058
188	0xbb44baa5	-0.0030018475
189	0xbb12df3a	-0.0022410885
190	0xbb08b9c9	-0.002086269
191	0xbafc4e2f	-0.0019249375
192	0xbae1c38c	-0.0017224415
193	0xbab111c4	-0.0013509323
194	0xbb0f888f	-0.0021901464
195	0xbac17d92	-0.0014762154
196	0xbb1a9789	-0.0023588857
197	0xbb06f19e	-0.0020590792
198	0xbabed8b6	-0.0014560435
199	0xbac2ce27	-0.0014862464
200	0xbb108e26	-0.0022057383
201	0xbb1c34ac	-0.0023835106
202	0xbb1cc4ae	-0.0023920941
203	0xbb1daf49	-0.0024060777
204	0xbaf45a78	-0.0018642684
205	0x39bdf22e	0.00036229327
206	0xba3819b3	-0.00070228725
207	0xbb3605ac	-0.0027774377
208	0xbc188d26	-0.009310996
209	0xbcbc049d	-0.022951419
210	0xbcfe432c	-0.03103789
211	0xbd0283e1	-0.03186405
212	0xbd068249	-0.032839093
213	0xbcc9fd35	-0.024656871
214	0xbc7c9c74	-0.015418161
215	0xbb3e5600	-0.002904296
216	0xbaa75fa3	-0.0012769591
217	0x3a365580	0.00069554895
218	0x3b5d67b5	0.0033783738
219	0x3a86f486	0.0010296262
220	0x3b1809e3	0.0023199252
221	0x3a06ff01	0.0005149693
222	0xba0f1682	-0.0005458371
223	0xbb02693c	-0.001989915
224	0xba672d24	-0.0008818677
225	0xbb14e539	-0.0022719635
226	0xbb71c0f0	-0.0036888681
227	0xbb633a24	-0.0034672106
228	0xbb0d74ee	-0.0021584588
229	0xbb6059db	-0.0034233246
230	0xbb21cdd2	-0.002468933
231	0xbb054cec	-0.0020340038
232	0xbb22a77c	-0.0024819067
233	0xbb0e49ec	-0.0021711541
234	0xbb48b296	-0.0030624024
235	0xbaee5686	-0.0018183745
236	0xbb2b92e1	-0.0026180076
237	0xba36a2b9	-0.00069669966
238	0xba7cfc34	-0.00096506183
239	0xbae3fe5f	-0.0017394534
240	0xbb51a215	-0.0031987478
241	0xbabb6644	-0.0014297445
242	0xbb283eca	-0.002567219
243	0xbb4f2236	-0.0031606085
244	0xbb0f15ba	-0.0021833018
245	0xbb1a58c3	-0.0023551441
246	0xbb5299b2	-0.0032135067
247	0xbb18159d	-0.0023206242
248	0xbb081180	-0.0020762384
249	0xbb05f18d	-0.0020438165
250	0xbb0211d6	-0.0019847057
251	0xbaa0c082	-0.0012264403
252	0xb9e6b3ad	-0.00044002887
253	0xbab78759	-0.0014002129
254	0xba40ea4e	-0.0007359133
255	0xbae11314	-0.0017171823
