models/VAE saves/best_enc.pt (torch, 571351 bytes, 6 tensors)

encoder.0.weight f4 [200, 600]
0	0xbe737574	-0.23775274
1	0xbe730b5c	-0.23734802
2	0xbe8a6fa0	-0.27038288
3	0xbe66f671	-0.22554947
4	0xbe6bb2f9	-0.23017491
5	0xbe312332	-0.17298582
6	0xbbcb52f2	-0.006204956
7	0x3c3fcb78	0.011706226
8	0x3d85ff5d	0.06542847
9	0x3dd93177	0.10605138
10	0x3d3332ca	0.043749608
11	0x3e553b39	0.20823373
12	0x3e4ade1f	0.19811295
13	0x3e35f26a	0.17768255
14	0xbdac06fc	-0.0839977
15	0xbf01595c	-0.50526977
16	0xbeeea993	-0.4661375
17	0xbe9e5bcb	-0.30929407
18	0xbe30afe5	-0.17254598
19	0x3d49164f	0.04909354
20	0xbc7b988a	-0.015356192
21	0xbe1da7bd	-0.15396018
22	0xbeac87b4	-0.33697283
23	0xbeaefa1b	-0.3417519
24	0xbe98d137	-0.29847118
25	0xbe857cb5	-0.26071706
26	0xbe4dfc7e	-0.2011585
27	0xbd3b9685	-0.045797843
28	0x3dabd5b2	0.083903685
29	0x3e348cc8	0.17631829
30	0x3e2274c1	0.1586485
31	0x3e2470f2	0.1605871
32	0x3e16eaee	0.14738056
33	0x3e1ddb2a	0.15415636
34	0x3e4ba59c	0.19887394
35	0x3e758aac	0.2397868
36	0x3e5c1fb6	0.21496472
37	0x3e3875bb	0.1801366
38	0x3e17d85e	0.14828631
39	0x3e16b980	0.147192
40	0x3dfc0d34	0.12307206
41	0x3df13f75	0.117796816
42	0x3d9eafa1	0.07748342
43	0x3dce51ba	0.10074182
44	0x3db9a93b	0.09065481
45	0x3ca8b9f3	0.02059648
46	0xbd06ebac	-0.032939598
47	0xbd8b6308	-0.06805998
48	0xbdae2b65	-0.085043706
49	0xbdaa69f6	-0.08320992
50	0xbdc91f20	-0.0982039
51	0xbdc186b2	-0.09449519
52	0xbd80e386	-0.06293397
53	0xbd91c95a	-0.07118483
54	0xbccf50d6	-0.0253071
55	0x3ca17df6	0.019713383
56	0x3daeff50	0.08544791
57	0x3cdfebf4	0.02733419
58	0x3d58b905	0.052910823
59	0xbc472e84	-0.012157086
60	0xbeeef1e2	-0.46668917
61	0xbeaa4936	-0.3325898
62	0xbea4a38c	-0.32156026
63	0xbe796adf	-0.24357174
64	0xbe73ebd4	-0.2382043
65	0xbd218ec7	-0.039442804
66	0x3d38f429	0.045154724
67	0x3e1ac877	0.15115534
68	0x3e8d3ba2	0.2758456
69	0x3e5ae089	0.21374716
70	0x3ca8d415	0.020608941
71	0x3cdfca65	0.027318189
72	0x3dfaa5f6	0.12238686
73	0x3e68a0e3	0.22717623
74	0x3e3a7da4	0.1821199
75	0xbdf5a423	-0.11994197
76	0xbe679c13	-0.22618131
77	0xbe442c02	-0.19157413
78	0x3cc514b0	0.024057716
79	0x3e1f8437	0.1557778
80	0x3e3415b8	0.1758641
81	0x3d7252ee	0.05916112
82	0xbcaa1920	-0.020763934
83	0xbd87caa8	-0.066304505
84	0xbd376ab8	-0.04477951
85	0xbd89e384	-0.06732848
86	0xbd3abea6	-0.045591973
87	0x3da47021	0.080291994
88	0x3e54e440	0.20790195
89	0x3e85bc4d	0.26120225
90	0x3e62a868	0.22134554
91	0x3e744a17	0.23856388
92	0x3e5f6b33	0.21818237
93	0x3e2bbd89	0.1677152
94	0x3e25b3d1	0.16181876
95	0x3df8302a	0.121185616
96	0x3ddc8414	0.107673794
97	0x3de1f7ec	0.110336155
98	0x3e07a8c5	0.13247974
99	0x3df76662	0.12080075
100	0x3dd94b95	0.10610119
101	0x3dfb66df	0.122754805
102	0x3de84b78	0.113425195
103	0x3dd79cd1	0.10527957
104	0x3de0807c	0.109620064
105	0x3d73ecde	0.059552066
106	0x3d4894fd	0.04897021
107	0x3d3a842e	0.045536213
108	0xbc6bf49f	-0.014401584
109	0x3bcd3223	0.0062620803
110	0xbd58618b	-0.0528274
111	0xbd81b893	-0.06334033
112	0xbd771209	-0.060319934
113	0xbd4ea00d	-0.050445605
114	0xbbbc215c	-0.0057412814
115	0xbd212f23	-0.039351594
116	0xbd324e63	-0.043531787
117	0x3d14172a	0.036154903
118	0x3cd476d2	0.025935564
119	0x3db779c5	0.089587726
120	0xbe1a776c	-0.15084618
121	0xbe4a649d	-0.19764943
122	0xbe655421	-0.22395374
123	0xbe287dd3	-0.16454248
124	0xbe120c9b	-0.14262621
125	0xbde86e04	-0.11349109
126	0xbd6a021c	-0.057130918
127	0x3c112abb	0.008860285
128	0x3d4f0337	0.050540175
129	0x3dce1349	0.10062272
130	0x3ddc9557	0.10770672
131	0x3de0047e	0.10938357
132	0x3c35da80	0.011099458
133	0x3ce812f9	0.02832936
134	0xbcd218ee	-0.025646653
135	0x3d41c2d2	0.047304936
136	0x3c83e43a	0.016100038
137	0x3b24d702	0.0025152569
138	0xbd1dd1ff	-0.038530346
139	0x3cf59cab	0.029981932
140	0x3e04793f	0.12936877
141	0x3c8287b9	0.015933858
142	0xbdba248b	-0.09089001
143	0xbdd2e2c6	-0.1029716
144	0xbdba3cf4	-0.09093657
145	0xbdab8a31	-0.08375967
146	0xbd984165	-0.07434348
147	0x3cd6ae72	0.026206229
148	0x3e0c5e9d	0.13707967
149	0x3e4047ac	0.1877734
150	0x3e129c1c	0.14317364
151	0x3e3fbbeb	0.18724029
152	0x3e640780	0.22268486
153	0x3e781bf2	0.2422941
154	0x3e83aa69	0.2571595
155	0x3e63d37f	0.22248648
156	0x3e2ff2a3	0.17182402
157	0x3e05fb53	0.13084154
158	0x3dba2c4a	0.09090479
159	0x3d50bec6	0.050963186
160	0x3d20c724	0.039252415
161	0x3ca5d92a	0.020245153
162	0x3c53be7d	0.012923834
163	0x3c70fe6e	0.014709098
164	0x3b48e614	0.0030654715
165	0xbb762edb	-0.003756455
166	0xbc35c257	-0.0110936975
167	0xbcf3c179	-0.02975534
168	0xbd8f1d1d	-0.06987975
169	0xbd944d4f	-0.07241308
170	0xbd965f64	-0.07342413
171	0xbdbe3446	-0.09287314
172	0xbd57395e	-0.052544944
173	0xbda4f3b9	-0.08054299
174	0xbd097e36	-0.03356763
175	0xbd5d3120	-0.054001927
176	0xbd1d61a5	-0.0384232
177	0xbb88077c	-0.004151283
178	0xbd1dec0c	-0.03855519
179	0xbd3a0ea3	-0.045424115
180	0xbe5d7513	-0.21626692
181	0xbe7d1691	-0.2471564
182	0xbd842119	-0.064516254
183	0xbd12ff06	-0.03588774
184	0xbd56f3d5	-0.05247863
185	0xbd681ee9	-0.056670103
186	0x3d04d3fe	0.032428734
187	0x3e1d7622	0.15377095
188	0x3ddbafcc	0.1072689
189	0x3dcc3a99	0.09972114
190	0x3e297aeb	0.16550796
191	0x3ba08f3d	0.004899888
192	0xbcb33c0a	-0.021879215
193	0xbd776bc1	-0.060405497
194	0x3d75a4e4	0.059971705
195	0x3db5869e	0.08863567
196	0x3d4d73b7	0.050159182
197	0x3d4299b2	0.047509857
198	0x3e2f4cc9	0.17119135
199	0x3e5eb76c	0.21749657
200	0x3e85316b	0.26014265
201	0x3e48c832	0.19607618
202	0x3e258b8e	0.16166517
203	0x3d6c2a7f	0.057657715
204	0xbb1c3656	-0.0023836098
205	0x3ca3446e	0.01993009
206	0x3d2e18ff	0.042504307
207	0x3dfc7856	0.1232764
208	0x3e4af114	0.19818527
209	0x3e748281	0.23877908
210	0x3e58dcea	0.21178022
211	0x3e898c80	0.26865005
212	0x3e981e7e	0.29710764
213	0x3e4b597f	0.19858359
214	0x3dbd9684	0.09257224
215	0x3d861e0b	0.06548699
216	0x3dac8d76	0.08425419
217	0x3de70167	0.11279564
218	0x3df93e60	0.121701
219	0x3ddc663d	0.10761688
220	0x3dbb2005	0.091369666
221	0x3d955202	0.072910324
222	0x3d89bef8	0.067258775
223	0x3d5ca5c9	0.053869043
224	0x3bcddc48	0.006282363
225	0xbd2584a7	-0.04040971
226	0xbd7bebc1	-0.06150413
227	0xbd4c53b3	-0.04988451
228	0xbe2b9795	-0.16757043
229	0xbe4ce361	-0.20008613
230	0xbe6ecabf	-0.23319529
231	0xbe81d95c	-0.25361145
232	0xbe8123cd	-0.25222626
233	0xbe37572f	-0.17904352
234	0xbe13d7e1	-0.1443782
235	0xbd704e93	-0.058668684
236	0x3c7976a2	0.015226038
237	0x3d6eaa43	0.058267843
238	0x3daef3c9	0.08542592
239	0x3d866228	0.065616906
240	0xbe33929b	-0.17536394
241	0xbe0586dd	-0.13039728
242	0xbe0f18ac	-0.13974255
243	0xbda017bb	-0.07817026
244	0xbc9bceae	-0.019019451
245	0x3d8c0877	0.06837552
246	0x3de7ab40	0.1131196
247	0x3e675a37	0.22593008
248	0x3e961906	0.29315966
249	0x3e8bdeec	0.27318513
250	0x3e5d0edf	0.21587704
251	0x3e9ad4f4	0.30240595
252	0x3eb34b5c	0.35018432
253	0x3ea0b86b	0.313907
254	0x3e7e5ca2	0.24840024
255	0x3e456aed	0.1927907

encoder.0.bias f4 [200]
0	0xbd146d69	-0.036237154
1	0x3ca181cb	0.01971521
2	0x3d219e21	0.039457444
3	0x3e2fb9eb	0.17160766
4	0x3b853e30	0.004066251
5	0xbe42a75f	-0.1900916
6	0xbda9dac5	-0.0829368
7	0x3e39c2e5	0.18140753
8	0xbdf5dd1b	-0.12005063
9	0x3dbb2dc8	0.091395915
10	0x3c9ef52b	0.019404015
11	0xbd20da49	-0.039270673
12	0xbc074877	-0.008257023
13	0xbc881e91	-0.016616138
14	0xbdb61489	-0.088906355
15	0xbdd033c3	-0.10166123
16	0x3d02d853	0.031944584
17	0xbe101ab8	-0.14072692
18	0x3e37909b	0.17926256
19	0xbd9e3dbe	-0.0772662
20	0x3da5b567	0.080912404
21	0xbda402dd	-0.08008359
22	0xbd606ba5	-0.054790158
23	0xbdb81372	-0.08988084
24	0xbd6679fe	-0.056268685
25	0xbc09ed2b	-0.008418362
26	0xbdb28b70	-0.08718002
27	0x3d830536	0.06397478
28	0xbe0c52e3	-0.13703494
29	0x3e4730ae	0.19452164
30	0x3a09f0fe	0.0005262046
31	0x3c80c45e	0.015718635
32	0xbd41917b	-0.04725788
33	0x3e3f5323	0.18684058
34	0xbdbf1b02	-0.09331323
35	0xbdcefb9c	-0.101065844
36	0xbdbd40bd	-0.092408635
37	0x3d65127a	0.055925824
38	0x3e90b04c	0.28259504
39	0x3e6ded7a	0.23235121
40	0xbd5f4e98	-0.054518312
41	0xbca81ff9	-0.020523058
42	0xbd85e647	-0.065380625
43	0x3dbfee8e	0.093716726
44	0xbd83e51c	-0.064401835
45	0x3e1f9e75	0.1558779
46	0xbc6e0635	-0.014527847
47	0xbc5fe625	-0.013665711
48	0xbcf10d06	-0.029425155
49	0x3e374a9f	0.1789956
50	0x3e21b69d	0.15792318
51	0x3d29afc8	0.041427404
52	0xbcdea0d5	-0.0271763
53	0xbc3c7f3c	-0.011504944
54	0xbc840c7b	-0.016119232
55	0x3d9982e0	0.074956656
56	0x3e2d8b42	0.16947654
57	0x3e5f7591	0.21822192
58	0xbc63ad99	-0.013896369
59	0xbc94cf95	-0.01816539
60	0x3ddf55ab	0.10905012
61	0x3d03a842	0.032142885
62	0xbd8f039d	-0.06983111
63	0xbd93ceb8	-0.07217163
64	0xbd82298d	-0.063555814
65	0x3e08f6b3	0.13375358
66	0xbdd61e1b	-0.10454961
67	0x3db7abd5	0.08968321
68	0x3cb710d7	0.022346897
69	0xbc91f2cf	-0.017815975
70	0x3d5c78b1	0.053826038
71	0xbd87d192	-0.06631769
72	0xbc46af15	-0.012126704
73	0xbdbc1396	-0.09183423
74	0x3e1f08e1	0.15530731
75	0x3d6d2fc7	0.057906892
76	0x3e05f0c5	0.13080128
77	0xbd0aef53	-0.033919644
78	0x3d16001d	0.0366212
79	0xbd092ea4	-0.033491746
80	0x3e374385	0.1789685
81	0xbd95bd21	-0.07311464
82	0xbdccb754	-0.099959046
83	0xbddc5c2f	-0.1075977
84	0xbde5d981	-0.11223126
85	0xbe1ab249	-0.15107073
86	0xbd6a8c50	-0.05726272
87	0x3e9d1ec2	0.3068753
88	0x3e2e4285	0.17017563
89	0x3e07a71d	0.13247342
90	0xbe40e7d2	-0.18838432
91	0x3c469e02	0.012122633
92	0x3d70a849	0.05875424
93	0xbc957885	-0.018245945
94	0x3e402679	0.18764676
95	0x3d9048d3	0.0704514
96	0x3dfd27c2	0.12361099
97	0x3d291290	0.04127747
98	0x3d5db680	0.054129124
99	0xbcc33aed	-0.023831809
100	0x3cbf5a87	0.023358596
101	0xbd443c03	-0.047908794
102	0xbdf23c06	-0.11827855
103	0xbd3d1f4b	-0.04617242
104	0x3e0e254d	0.13881417
105	0x3dd5add9	0.104335494
106	0x3d27050b	0.040776294
107	0x3dd1a01b	0.10235616
108	0xbd660dd5	-0.056165535
109	0xbc162411	-0.009163872
110	0xbd639be9	-0.05556861
111	0xbcbc025f	-0.02295035
112	0xbd4ab21d	-0.04948627
113	0x3e1f8899	0.15579452
114	0x3e30d535	0.17268832
115	0xbdca9205	-0.09891132
116	0x3e1d229c	0.15345234
117	0xbdf38d18	-0.11892146
118	0x3d6121dc	0.05496393
119	0x3d6dcebe	0.058058493
120	0x3e1acb7f	0.1511669
121	0xbd935845	-0.071945705
122	0x3be38dd0	0.0069443956
123	0x3c6d68e0	0.014490336
124	0x3e323f25	0.174069
125	0x3e52673c	0.20547193
126	0x3d6a9e37	0.05727979
127	0xbd23c335	-0.039981086
128	0xbdc383fe	-0.0954666
129	0x3c7e608f	0.015525951
130	0x3dabdd10	0.08391774
131	0xbd9a69af	-0.07539689
132	0x3bc6c9be	0.00606653
133	0xbc68a601	-0.014199735
134	0x3b3da68c	0.002893838
135	0xba9d7736	-0.0012013677
136	0x3c2d7e69	0.010589221
137	0x3cf94e08	0.030432716
138	0xbdb0084e	-0.08595334
139	0x3ce57c77	0.028013451
140	0xbd3b9450	-0.04579574
141	0x3e5f8bb3	0.21830635
142	0x3d57e261	0.052706126
143	0x3ca953cd	0.020669842
144	0xbd09cc85	-0.03364231
145	0x3cddd006	0.027076732
146	0x3cf78550	0.030214936
147	0x3d540775	0.051764924
148	0x3dd065cd	0.10175667
149	0x3b9c6cf4	0.0047737304
150	0xbd26cb10	-0.040721
151	0x3bdc2305	0.006718042
152	0xbd063435	-0.032764632
153	0xbd9ac428	-0.07556945
154	0xbd5094c0	-0.05092311
155	0x3c132bbe	0.008982597
156	0xbe0661ac	-0.13123196
157	0xbc53b583	-0.012921694
158	0x3d1f8b2e	0.03895109
159	0xbd608592	-0.054814883
160	0x3d5258a1	0.051354054
161	0xbd3b14ea	-0.045674242
162	0x3c0e12d8	0.008671485
163	0xbcc54270	-0.024079531
164	0xbb7b13b2	-0.00383113
165	0x3cd2f4b6	0.025751453
166	0xbd36dfb8	-0.04464695
167	0xbdd5554f	-0.10416662
168	0xbdb2d2c3	-0.08731606
169	0xbd95430c	-0.07288179
170	0xbd038bbe	-0.03211569
171	0xbd910b02	-0.07082178
172	0xbdafcde9	-0.08584196
173	0x3d160403	0.03662492
174	0xbb2cbf21	-0.002635904
175	0xbdd83738	-0.10557407
176	0x3e0edb88	0.13950932
177	0xbc2df938	-0.0106185
178	0x3e391163	0.18073039
179	0xbd5f3e3a	-0.054502703
180	0x3d1cb7fd	0.038261402
181	0xbd0db613	-0.034597468
182	0x3e304e4c	0.17217368
183	0x3da4705b	0.080292426
184	0x3e34fb08	0.17673886
185	0x3e178c46	0.14799604
186	0xbd48fb65	-0.049067874
187	0x3de0a6d8	0.10969323
188	0xbcd5e9f4	-0.026112534
189	0xbca5309b	-0.020164778
190	0x3e12bc79	0.14329709
191	0x3e4b6049	0.19860949
192	0xbdeb0447	-0.11475425
193	0x3df9b7db	0.12193271
194	0xbc99cbe6	-0.018773984
195	0x3dd04a1d	0.10170386
196	0xbcf89f09	-0.030349271
197	0x3db7f65c	0.08982536
198	0x3e2bf327	0.16791974
199	0xbdd22095	-0.10260121

encoder.3.weight f4 [100, 200]
0	0xbc0f23f5	-0.0087366
1	0xbc09035a	-0.0083626155
2	0xbbe6a482	-0.007038654
3	0xbba70e1f	-0.005098119
4	0xbc2554e8	-0.010091044
5	0xbc03e113	-0.008049267
6	0xbbf87db2	-0.0075833434
7	0xbb52bd50	-0.0032156296
8	0xbb55dd6c	-0.0032633198
9	0xbbdeecd1	-0.006803133
10	0xbc3efef4	-0.011657465
11	0xbc07fe49	-0.008300372
12	0xbbe6af93	-0.007039973
13	0xbc4e45a6	-0.012589848
14	0xbbdf0b0f	-0.006806738
15	0xbbe2b938	-0.0069190525
16	0xbc20f09d	-0.009822992
17	0xbbcc804c	-0.00624088
18	0xbbc0db6d	-0.0058855326
19	0xbc0516ae	-0.008123083
20	0xbb517e0b	-0.0031965997
21	0xbbf9813e	-0.007614284
22	0xbba8835d	-0.005142613
23	0xbc2b6e47	-0.010463304
24	0xbc10b1b6	-0.008831432
25	0xbc5002aa	-0.012695948
26	0xbc08cce3	-0.00834963
27	0xbb85d63d	-0.004084377
28	0xbbf5325b	-0.0074828095
29	0xbb9a79eb	-0.004714241
30	0xbc5301ef	-0.012878879
31	0xbc086b38	-0.008326344
32	0xbc29b9e0	-0.010359257
33	0xbbd6fbd1	-0.0065607806
34	0xbbc6f1e3	-0.0060713156
35	0xbbb421ba	-0.0054971846
36	0xbc0ba94a	-0.008524248
37	0xbc06d279	-0.0082288915
38	0xbbfebf73	-0.0077742874
39	0xbbb33e25	-0.0054700547
40	0xbbb69556	-0.0055720014
41	0xbbc121f3	-0.0058939396
42	0xbc198de0	-0.009372205
43	0xbb826b24	-0.0039800573
44	0xbbf99a72	-0.0076172883
45	0xbb3642e8	-0.0027810875
46	0xbbf042c7	-0.007332179
47	0xbba22362	-0.0049480656
48	0xbc343169	-0.010998108
49	0xbbe78421	-0.0070653115
50	0xbc140057	-0.009033284
51	0xbc04b2b3	-0.008099246
52	0xbc18c0ee	-0.009323342
53	0xbb8d39bc	-0.004309861
54	0xbc0179cc	-0.007902574
55	0xbc2b4172	-0.010452615
56	0xba8af85f	-0.0010602585
57	0xbbd4f162	-0.0064985016
58	0xbc17e15d	-0.009270039
59	0xbbf1d448	-0.007380042
60	0xbbf37be0	-0.0074305385
61	0xbc0bfdbf	-0.0085443845
62	0xbb2c0e31	-0.0026253576
63	0xbb6b5b07	-0.003591241
64	0x382438d7	3.9153583e-05
65	0xbc0ff9d5	-0.008787592
66	0xbc205f9b	-0.009788419
67	0xbb2afc98	-0.00260905
68	0xbbe49805	-0.00697613
69	0xbbef2f49	-0.007299338
70	0xbc1a144d	-0.009404254
71	0xbc316f02	-0.010829689
72	0xbbf03f4e	-0.0073317653
73	0xbb9e71ca	-0.004835342
74	0xbc3f1331	-0.01166229
75	0xbb95229b	-0.0045512444
76	0xbb9468c8	-0.0045290925
77	0xbbc14fb9	-0.0058993963
78	0xbb419932	-0.0029540774
79	0xbc4f2334	-0.01264267
80	0xba9b4a0c	-0.0011847629
81	0xbbe8ec79	-0.007108268
82	0xbbfe4dd4	-0.0077607427
83	0xbc14fd0f	-0.009093537
84	0xbc4e2fcc	-0.012584638
85	0xbbcf1ddb	-0.0063206977
86	0xbc239f8d	-0.00998677
87	0x3cf9aa91	0.03047684
88	0xbc8afdff	-0.016966818
89	0xbc0ee9c8	-0.00872273
90	0xbc2b63d8	-0.010460816
91	0xbba494ad	-0.0050226063
92	0xbbbd9678	-0.0057857595
93	0xbc1f5c48	-0.009726591
94	0xbae2c333	-0.0017300606
95	0xbbc7acd5	-0.006093601
96	0xbbca8533	-0.0061804294
97	0xbb8c990b	-0.004290705
98	0xbbf5cfb6	-0.0075015677
99	0xbc0f3d18	-0.008742593
100	0xbb7bf46e	-0.0038445252
101	0xbc2eb42f	-0.010663076
102	0xbbdf374a	-0.006812011
103	0xbc0fea59	-0.0087839
104	0xbb0ce956	-0.0021501384
105	0xbc32b9be	-0.010908542
106	0xbb8b1e14	-0.004245529
107	0xbc0aef8e	-0.008479966
108	0xbbecbc54	-0.007224599
109	0xbbd40fc1	-0.0064716046
110	0xbc0bba79	-0.008528345
111	0xbc260186	-0.010132199
112	0xbc1ad0d8	-0.009449206
113	0xbc7bad23	-0.015361103
114	0xbc07afda	-0.008281672
115	0xbbdee609	-0.0068023247
116	0xbc0484ae	-0.008088274
117	0xbbd6a54a	-0.0065504657
118	0xbc4400cc	-0.011963081
119	0xbc032f0f	-0.008006825
120	0xbc22061f	-0.009889155
121	0xbbdf1944	-0.006808432
122	0xbbe3798f	-0.006941981
123	0xbbcdfdf6	-0.006286378
124	0xbbb8027e	-0.0056155315
125	0xbc808b9b	-0.01569157
126	0xbc180a67	-0.009279824
127	0xbc595e34	-0.013267089
128	0xbc0eba39	-0.008711391
129	0xbc3d756c	-0.01156364
130	0xbbd910fa	-0.006624338
131	0xbbcf89d9	-0.0063335714
132	0x3894240d	7.063905e-05
133	0xbc3b4d06	-0.011431938
134	0xbbfa9e56	-0.0076482696
135	0xbbfe4e21	-0.0077607785
136	0xbc01f5e9	-0.007932165
137	0xbab67d12	-0.0013922772
138	0xbc5239c2	-0.012831153
139	0xbc698ace	-0.014254285
140	0xbc00e235	-0.007866432
141	0xbc10a6a4	-0.008828793
142	0xbbbc3b2c	-0.0057443585
143	0xbbf31e46	-0.0074193804
144	0xbb93fe3d	-0.0045163915
145	0xbc1b24d7	-0.0094692325
146	0xbb5b2cf7	-0.003344355
147	0xbc048370	-0.008087978
148	0xbbd5254a	-0.0065046893
149	0xbb4a9053	-0.0030908778
150	0xbc0fa2a4	-0.008766804
151	0xbb11578c	-0.0022177426
152	0xbc2a7100	-0.010402918
153	0xbbf9015d	-0.0075990395
154	0xbc216650	-0.009851053
155	0xbc05f10a	-0.008175144
156	0xbc26aba4	-0.010172758
157	0xbbb9c674	-0.0056694094
158	0xbc8b470a	-0.017001648
159	0xbc3fc0b3	-0.011703658
160	0xbc13679b	-0.008996869
161	0xbbe80ee0	-0.0070818514
162	0xbb1732dc	-0.0023071086
163	0xb9fd3edf	-0.00048302763
164	0xbb537c08	-0.0032269973
165	0xbc4a94d8	-0.012364589
166	0xbb8d4844	-0.0043115932
167	0xbc531e94	-0.012885708
168	0xbbaabba7	-0.005210358
169	0xbc02e0ae	-0.007988138
170	0xbbe38ed4	-0.0069445167
171	0xbc18247e	-0.009286044
172	0xbc0239fd	-0.007948396
173	0xbc315ad6	-0.01082488
174	0xbc2dc936	-0.010607054
175	0xbbba0159	-0.00567643
176	0xbc9c7e11	-0.019103082
177	0xbbfbea95	-0.0076878765
178	0xbb438089	-0.0029831252
179	0x3af6be06	0.0018824942
180	0xbc143162	-0.009044977
181	0xbbf155f8	-0.0073649846
182	0xba9c906d	-0.0011944898
183	0xbc2d044c	-0.0105601065
184	0xbc8cbf8c	-0.01718118
185	0xbb743236	-0.0037261373
186	0xbc005c50	-0.007834509
187	0xbbea3370	-0.007147245
188	0xbbdc79f9	-0.0067284075
189	0xbc0cd4e0	-0.008595675
190	0xba903392	-0.0011001697
191	0xbc080dce	-0.008304073
192	0xbc047d87	-0.008086569
193	0xbbf93a95	-0.0076058605
194	0xbb832b5c	-0.0040029716
195	0xbc2e17b4	-0.010625768
196	0xbc2a0db0	-0.01037924
197	0xbbc98526	-0.0061499057
198	0xbab7ce77	-0.0014023323
199	0xbc02b9b7	-0.007978848
200	0xbc855dce	-0.016280081
201	0xbb9f10f4	-0.004854316
202	0xbc7e3858	-0.015516363
203	0xbc840ebe	-0.01612031
204	0xbc88122e	-0.016610231
205	0xbc8d9244	-0.017281659
206	0xbc8fe34a	-0.017564435
207	0x3bd0bf96	0.006370495
208	0xbcc5cf47	-0.02414669
209	0xbc876e56	-0.016532104
210	0xbc89c3b4	-0.016816951
211	0xbc537428	-0.012906112
212	0xbc9652dd	-0.01835006
213	0xbc8b1226	-0.016976427
214	0xbc912524	-0.017717905
215	0xbc8213ee	-0.015878644
216	0xbc868805	-0.016422281
217	0xbc89170f	-0.016734628
218	0xbc6738c2	-0.014112653
219	0xbc955612	-0.018229518
220	0xbc0ecda7	-0.0087160235
221	0xbc8388ed	-0.016056502
222	0xbc0de2ef	-0.008660062
223	0xbc974514	-0.018465556
224	0xbbb4a8cd	-0.0055132867
225	0xbc941a55	-0.018078962
226	0xbc905a52	-0.017621193
227	0xbca5ca02	-0.020237926
228	0xbc86576d	-0.01639911
229	0xbc1d4acc	-0.0096003525
230	0xbca0451d	-0.019564206
231	0xbc10af69	-0.008830884
232	0xbc92070b	-0.017825624
233	0xbc918e49	-0.017768042
234	0xbc7cbb6b	-0.015425543
235	0xbc3f35fa	-0.011670584
236	0xbc91a97a	-0.017781008
237	0xbc747c1d	-0.014922169
238	0xbd095725	-0.033530373
239	0xbc37055e	-0.011170713
240	0xbc94e763	-0.01817674
241	0xbc002714	-0.007821817
242	0xbc93e007	-0.01805116
243	0xbc5ed5aa	-0.013600746
244	0xbc91421b	-0.017731717
245	0xbc1294e4	-0.008946631
246	0xbc8ac03b	-0.016937366
247	0xbbcc64c4	-0.006237598
248	0xbc9575e7	-0.018244697
249	0xbc727972	-0.014799463
250	0xbc918e77	-0.017768128
251	0xbc2ece4d	-0.010669303
252	0xbc903074	-0.01760123
253	0xbc59002a	-0.013244668
254	0xbc8c9965	-0.017162988
255	0x3b888442	0.004166157

encoder.3.bias f4 [100]
0	0xbb283236	-0.0025664694
1	0xbc561084	-0.013065461
2	0xbc1b2d18	-0.0094712
3	0xbc388254	-0.011261541
4	0xbc84bee7	-0.01620431
5	0xbcd37ae9	-0.025815444
6	0xbb4ad8dc	-0.0030952012
7	0x3b2da3c1	0.002649531
8	0xbc8d9396	-0.017282289
9	0xbc974a3e	-0.018468019
10	0xbbaffd61	-0.0053707813
11	0xbc3a1ec2	-0.011359872
12	0x3c72a29f	0.01480928
13	0xbc83bf7d	-0.01608252
14	0xbb87a235	-0.0041392096
15	0xbd4d3871	-0.050102655
16	0xbc80c525	-0.015719006
17	0x3b083bbf	0.0020787565
18	0xbcbf4b07	-0.023351206
19	0x3e86e444	0.26346028
20	0x3bb19a99	0.005420041
21	0xbca2d2fc	-0.019875996
22	0xbcd2665d	-0.025683576
23	0xbc8f2581	-0.017473938
24	0x3d663286	0.056200527
25	0xbc8cbf53	-0.017181074
26	0xbc9e7496	-0.019342702
27	0xbc882cea	-0.01662298
28	0xbc95f997	-0.01830749
29	0xbc80702f	-0.015678493
30	0xbdd22497	-0.10260885
31	0x3e77048e	0.24122831
32	0xbc87cbef	-0.016576735
33	0x3e408656	0.18801245
34	0x3a917c29	0.0011099625
35	0xbcf3b48c	-0.029749177
36	0xbd97ff99	-0.07421798
37	0xbc93e1b3	-0.018051958
38	0xbd28689e	-0.041115396
39	0xbae05a6c	-0.0017116792
40	0x3e071992	0.13193348
41	0xbc92b3a2	-0.017907921
42	0xbc8b96db	-0.017039707
43	0xbd6f5859	-0.058433864
44	0xbc88c559	-0.016695665
45	0xbc90a5d8	-0.017657205
46	0xbc9224c0	-0.01783979
47	0xbc85bf81	-0.016326668
48	0xbc98d0cb	-0.018654248
49	0xbc9024c1	-0.01759565
50	0xbc0b28b3	-0.00849359
51	0xbd417d88	-0.047238857
52	0xbc9f1448	-0.01941885
53	0xbbe31d75	-0.006931002
54	0x3f03b680	0.5145035
55	0xbc2db6cc	-0.010602664
56	0xbc8efbe4	-0.017454095
57	0xbc91959a	-0.01777153
58	0xbc8a730e	-0.016900565
59	0xbd44625c	-0.047945365
60	0xbc91ea5e	-0.01781195
61	0xbc80fcae	-0.015745487
62	0x3a2c2d23	0.0006568005
63	0xbc889a2c	-0.016675077
64	0xbc94c425	-0.018159935
65	0xbc90eb97	-0.017690463
66	0x3c0e74e8	0.008694865
67	0xbc8a3b00	-0.016873837
68	0xbc9183c1	-0.01776302
69	0x3ebbc9e0	0.36677456
70	0xbc8ca184	-0.01716686
71	0xbc85013a	-0.016235936
72	0xbc68d5de	-0.014211146
73	0xbcc5d383	-0.024148708
74	0xbd39cb59	-0.045359943
75	0xbcf656a5	-0.030070612
76	0xbcafa6d1	-0.021441849
77	0xbca296f9	-0.01984738
78	0xbd50cc6b	-0.0509762
79	0xbc88ccd2	-0.016699228
80	0xbc9190b6	-0.017769199
81	0xbbdc68f5	-0.006726379
82	0xbcbc571c	-0.022990756
83	0xbcf76e33	-0.030203914
84	0xbcaf3bf4	-0.021390893
85	0x3c895aae	0.016766872
86	0xbba0e45a	-0.004910034
87	0x3a96635e	0.0011473706
88	0x3a026248	0.00049737515
89	0xbc8fc1d5	-0.017548481
90	0xbc8e4422	-0.017366473
91	0xbc90504e	-0.017616417
92	0xbc6ceab1	-0.014460252
93	0x3e93c5de	0.28861898
94	0xbc8e8b7e	-0.0174005
95	0xbc8f1339	-0.01746522
96	0xbc83697f	-0.016041515
97	0xbc8dc98b	-0.017308017
98	0xbc8639bf	-0.016384957
99	0xbc879a5e	-0.0165531

encoder.6.weight f4 [20, 100]
0	0xbd6d6a1e	-0.05796253
1	0xbd1e4b9b	-0.03864632
2	0x3ccbd9dd	0.024884159
3	0xbc8810bd	-0.016609544
4	0x3bb5fb57	0.0055536437
5	0xbca69100	-0.020332813
6	0x3d4ddcb1	0.050259296
7	0xbbbe72ef	-0.005812041
8	0xbcb88aa3	-0.022527045
9	0x3d960c31	0.07326544
10	0x3c6025b2	0.013680862
11	0xbd181999	-0.037133787
12	0x3cd98e10	0.026556998
13	0xbde3eccc	-0.1112915
14	0xbd666f7f	-0.056258675
15	0xbd70fa53	-0.058832478
16	0xbd4bf0fe	-0.049790375
17	0xbdb2e59e	-0.08735202
18	0xbcc1ac9b	-0.023641875
19	0xbc8789c8	-0.016545191
20	0xbdafea82	-0.08589651
21	0x3d61e11c	0.05514632
22	0xbd1db230	-0.03850001
23	0xbcde87b1	-0.027164312
24	0x3d322d6e	0.043500356
25	0xbdd45ba9	-0.10369045
26	0xbd95681b	-0.07295247
27	0xbda3e547	-0.080027156
28	0xbc57f572	-0.013181077
29	0x3be02cc0	0.006841272
30	0xbe95ed69	-0.29282692
31	0xbdb3e3e9	-0.08783705
32	0xbd909f78	-0.07061666
33	0xbcbabd9d	-0.022795493
34	0x3d97607a	0.07391448
35	0xbcf8f9c6	-0.030392539
36	0x3bba88fc	0.0056925993
37	0xbb70c1b1	-0.0036736543
38	0xbcf5e9da	-0.030018736
39	0x3d630b60	0.05543077
40	0xbc29432a	-0.010330955
41	0xbd3a2df2	-0.045453973
42	0xbd9cea12	-0.07661833
43	0xbd514507	-0.05109122
44	0xbb91f520	-0.00445427
45	0xbd0ff8be	-0.03514933
46	0x3d1f28f4	0.038857415
47	0xbbb2adca	-0.005452846
48	0xbd1a10f8	-0.03761384
49	0xbd00dce9	-0.031460676
50	0xbd841498	-0.064492404
51	0x3d09b25f	0.033617374
52	0xbd9efafd	-0.07762716
53	0xbd1b038b	-0.037845176
54	0x3e34075f	0.17580937
55	0xbb0a4894	-0.002110039
56	0x3d100488	0.03516057
57	0xbdcac1e2	-0.099002615
58	0x3dc51c0b	0.096244894
59	0x3d0e378b	0.03472094
60	0xbd1f7ea6	-0.03893914
61	0xbd6f124e	-0.058367066
62	0x3d15a26d	0.036531854
63	0xbd5c010b	-0.053711932
64	0x3c109376	0.00882422
65	0xbd9a395e	-0.07530473
66	0xbd1e4051	-0.038635556
67	0xbde7fa8f	-0.11327087
68	0x3d81ca1a	0.06337376
69	0xbd8bb44a	-0.06821497
70	0x3d22cc4f	0.039745625
71	0x3d81bd47	0.0633493
72	0xbdada5fa	-0.08478923
73	0x3dd06cf3	0.101770304
74	0xbdd5b70f	-0.10435306
75	0xbc709f0c	-0.014686357
76	0x3dd0a4cd	0.10187683
77	0xbcb9ff21	-0.022704663
78	0xbc9cf1b6	-0.019158226
79	0xbd9c5719	-0.076338
80	0x3d163a78	0.036676854
81	0x3c8cb812	0.017177615
82	0xbd6d7016	-0.05796822
83	0xbb9c165c	-0.0047634076
84	0xbd9873d4	-0.074439675
85	0xbdfa5a24	-0.12224224
86	0x3e0433aa	0.12910333
87	0x3d0838e2	0.033257373
88	0x3c18327a	0.009289378
89	0xbd07431e	-0.033022992
90	0xbd2485e5	-0.040166754
91	0xbd7591cb	-0.059953492
92	0xbdc176f6	-0.09446518
93	0x3d1e5513	0.03865535
94	0x3d8d2bac	0.068930954
95	0x3d47c174	0.048768476
96	0xbd7b1f00	-0.06130886
97	0x3d8d6181	0.06903363
98	0xbc2fb606	-0.01072455
99	0x3d4012c9	0.046892915
100	0x3daa2c7f	0.08309268
101	0xbd1427ce	-0.036170773
102	0xbd050613	-0.032476496
103	0xbdb5cc32	-0.08876838
104	0xbdc02126	-0.093813226
105	0x3d65580c	0.05599217
106	0x3d441d36	0.04787942
107	0x3dab93cf	0.083778016
108	0x3d78687f	0.06064653
109	0x3c83784f	0.016048579
110	0xbdd77587	-0.105204634
111	0xbdb56e5c	-0.0885894
112	0x3e1eb50f	0.15498756
113	0x3de0288c	0.10945234
114	0xbcc7e64f	-0.024401812
115	0xbd25dd69	-0.040494356
116	0xbd8ee44f	-0.0697714
117	0xbcfe594f	-0.031048445
118	0xbc7e98c8	-0.015539356
119	0xbcf55045	-0.029945502
120	0xbd6a476b	-0.057197016
121	0xbc267b17	-0.010161183
122	0xbd3c7575	-0.046010453
123	0xbcc63194	-0.024193563
124	0x3dc316ae	0.0952581
125	0x3c7844ec	0.015153151
126	0xbd23d9ff	-0.04000282
127	0xbd41ed08	-0.04734519
128	0x3c61516b	0.013752322
129	0xbc797bd0	-0.015227273
130	0xbd89d5dc	-0.067302436
131	0xbc3d60fc	-0.011558767
132	0xbc01e278	-0.0079275295
133	0xbd89a2e8	-0.06720525
134	0xbd97c02d	-0.074097015
135	0xbcddad81	-0.027060272
136	0x3c1975df	0.009366482
137	0x3d95f0c9	0.07321317
138	0xbd4035a2	-0.04692615
139	0xbc035b8d	-0.008017433
140	0xbe07af69	-0.13250507
141	0x3d30e961	0.043191317
142	0x3c4d5b2f	0.012533947
143	0xbd45ad00	-0.04826069
144	0xbdbb6a96	-0.09151189
145	0x3d9efa3c	0.07762572
146	0x3d190da7	0.037366536
147	0xbd8b2f56	-0.06796138
148	0xbd2d7965	-0.0423521
149	0x3d3546e2	0.044257052
150	0xbd3bfd89	-0.045896087
151	0x3c0a9bc3	0.008459988
152	0xbc8a50c2	-0.016884211
153	0xbcb41e36	-0.021987062
154	0xbcc730b6	-0.02431522
155	0xbbc2af2c	-0.0059412923
156	0x3c92e510	0.017931491
157	0x3d9a5805	0.0753632
158	0xbd6906d1	-0.056891266
159	0xbd7811c3	-0.060563814
160	0xbd64cb97	-0.05585822
161	0x3d8621d0	0.06549418
162	0x3d6df045	0.058090467
163	0x3c3e2624	0.011605773
164	0xbd8b5a67	-0.06804352
165	0x3ce9e97b	0.028553715
166	0x3bb4f41b	0.0055222637
167	0x3d6919a9	0.056909237
168	0x3d257241	0.040392164
169	0xbbbe7979	-0.0058128205
170	0xbcaf30d8	-0.021385595
171	0xbcc76263	-0.024338907
172	0x3d8f284b	0.06990107
173	0x3d4e3def	0.050352033
174	0x3d4b013c	0.049561724
175	0x3da66a95	0.08125798
176	0xbb2ef316	-0.0026695183
177	0xbd2b0092	-0.04174859
178	0x3d065853	0.032799076
179	0x3d9ad75d	0.075606085
180	0x3d44c982	0.048043735
181	0xbc307622	-0.010770353
182	0xbd36adfb	-0.044599514
183	0xbd9a60b0	-0.07537973
184	0xbdb328c2	-0.08748008
185	0x3d138d7b	0.0360236
186	0x3d42e0db	0.04757772
187	0xbc700e77	-0.014651886
188	0xbd70e53e	-0.058812372
189	0xbd1fc8d2	-0.039009877
190	0x3dc4b807	0.09605413
191	0xbd7696b9	-0.060202334
192	0xbd9bf05a	-0.07614203
193	0xbd95d647	-0.07316261
194	0x3c96b07f	0.018394707
195	0x3d1a6641	0.037695173
196	0x3d992a93	0.074788235
197	0x3d895935	0.06706468
198	0x3d8406be	0.064465985
199	0x3d7de4e9	0.061985884
200	0x3d0883a0	0.033328652
201	0xbc95ac8b	-0.018270751
202	0xbd77c1ff	-0.060487743
203	0x3d69bfaf	0.05706757
204	0xbcb1849b	-0.021669677
205	0x3bcce742	0.006253154
206	0xbd677a1f	-0.056512948
207	0x3cb0424c	0.021515988
208	0xbdc66349	-0.09686906
209	0xbd11ec67	-0.03562584
210	0xb93a3a33	-0.00017760023
211	0xbc052523	-0.00812653
212	0x3f01d132	0.5070983
213	0xbd30a5db	-0.043126922
214	0xbda873ab	-0.08225187
215	0xbdb62284	-0.08893302
216	0x3d67f1fb	0.056627255
217	0xbd42ba11	-0.047540728
218	0xbcdca03b	-0.026931873
219	0xbda4d4a5	-0.08048371
220	0x3e0d95a5	0.13826616
221	0xbd56a704	-0.052405372
222	0x3d5e3242	0.05424715
223	0x3d8a3e27	0.06750136
224	0xbd625371	-0.055255357
225	0x3d8e97d7	0.06962555
226	0xbc2f1b82	-0.010687711
227	0x3d870565	0.06592826
228	0xbdbb4e1b	-0.09145757
229	0xbc16d100	-0.009205103
230	0xbea010b9	-0.31262758
231	0xbc5ae936	-0.013361266
232	0x3da6dbe9	0.08147413
233	0x3c7dcd88	0.015490897
234	0x3ce46f1d	0.027885014
235	0xbdf91eb3	-0.121640585
236	0xbca053f7	-0.019571288
237	0x3d3554cc	0.04427032
238	0x3cc451ed	0.023964847
239	0x3d8ef6b4	0.06980649
240	0x3cd1f1fe	0.025628086
241	0x3bf5b32b	0.007498165
242	0xbd669678	-0.056295842
243	0x3a8defd4	0.0010828921
244	0x3b919067	0.004442263
245	0xbdfc9b46	-0.123343036
246	0xbd21ad6d	-0.039472032
247	0xbde6c3cf	-0.11267816
248	0x3d89a679	0.06721205
249	0xbbcfc80f	-0.0063409875
250	0x3da29257	0.07938068
251	0xbd551d76	-0.05203005
252	0x3d5bef07	0.05369475
253	0xbd3489df	-0.044076797
254	0xbd8406a4	-0.06446579
255	0x3abc0912	0.0014345965

encoder.6.bias f4 [20]
0	0x3e28b347	0.16474639
1	0xbd007d45	-0.031369466
2	0xbd21fca9	-0.039547596
3	0xbe2ab3b3	-0.16670112
4	0x3ca4d9e0	0.020123422
5	0xbc120455	-0.008912166
6	0x3d7db6a5	0.06194176
7	0x3cfc3caf	0.030790655
8	0x3d09c174	0.033631757
9	0xbd9cf49e	-0.076638445
10	0xbe1c3e2f	-0.15258096
11	0xbe268269	-0.16260685
12	0xbde849f8	-0.113422334
13	0xbe5a2d2e	-0.21306297
14	0xbf02f151	-0.5114947
15	0xbe53cc1c	-0.2068333
16	0xbeb0241b	-0.34402546
17	0xbe6f902c	-0.23394841
18	0xbde41790	-0.11137307
19	0xbea3c14d	-0.31983414
