models/VAE saves/best_acg_dec.pt (torch, 197207 bytes, 6 tensors)

decoder.0.weight f4 [117, 9]
00000000: 9236 d03d ad48 f03d d94b 523e 6e82 82bc
00000010: f1d4 02be 43b3 3cbd fe13 3a3d ed68 0d3e
00000020: aa04 f63c 387a 45bd 8021 963e 3d03 adbc
00000030: 06c3 0cbd 6d2e a6bb 5902 8d3d 437e 053a
00000040: 86eb 80bd 71ac 403c 8bc7 eebd b4ce b1be
00000050: 2ba4 2dbe 41ec 693c ca74 d73b 9057 223e
00000060: e3cd 883d 2c07 1a3e 7d6f a63d 765b 233e
00000070: cd6e ecbd 62a6 bd3d 89f1 bcbd 6506 ad3d
00000080: bd67 093e 01ef 1abe 7fac dd3d 3222 2e3d
00000090: da04 e53d 8636 d13d d0e6 23be b6c7 14bc
000000a0: ffed f23d a12a ecbc bc16 9f3d e3d6 33bd
000000b0: 1335 33be 0754 cd3d abfd 2e3e b84b ff3d
000000c0: 2c2c 853e 5be8 4fbe 64a5 803e 9f75 8dbd
000000d0: 24fd 253e 6c81 6cbe 0719 b7bc 69ae b0be
000000e0: 9ed9 d8bd c780 eabc 1ccf 13bc 46f0 c23d
000000f0: 1dc3 143e b5e7 9ebd 3d6b 84bd 124a 43be
00000100: ab4d b43e da4c 3b3e e398 9c3c e0a8 2a3d
00000110: 7d44 a53c 0ccf 873d e031 dc3d f878 d4bc
00000120: 5c92 cdbb 1fdd b0be 39bc eebc 73e3 9b3b
00000130: 5ab1 71bc 6be8 39bc b6d6 15bb e20d fb3b
00000140: 7358 35bc a93b 0bbe aa45 25be 506e 303d
00000150: 794f 233e 27ae ea3c 9165 4bbe 401a 1e3e
00000160: 574a ac3c b9fb 0fbd 449c 603d e83c a43e
00000170: a491 2e3d 6eff 1dbe f05e ecbd 2083 9cbd
00000180: e097 15be 32e8 3e3e 712f 03be 0b7b 92bd
00000190: a378 2b3e af48 8e3d a0be fb3c 9e96 3e3c
000001a0: f01b 6abd 77fd 92bd e481 59bd 7eec 193d
000001b0: 0b72 fa3d cc1e 7fbe d8e2 e4bc 1626 173d
000001c0: 9439 663d 5ff1 91bd cd6e 81bd 38d7 0bbe
000001d0: 9220 8cbc 4d95 1dbb a98d 14be e2ea 473e
000001e0: fbbb 2dbd 00f0 9b3d 7727 e1bd ea89 f93d
000001f0: 5f0c 923d c785 d63d 040c abbd ff08 2b3e
00000200: 3997 ca3d bd7f b13d 421b bdbd 29ae 783d
00000210: 0908 c53d c153 eabc 48f1 e6bc 6b55 b23b
00000220: 7fc3 b13e fa8c 873d 6da7 b8bb 1803 293c
00000230: d877 363c 694e 2b3c 457f e1bb 5fa6 c8bb
00000240: aa05 203e b396 86be d702 183e fe44 15bd
00000250: 4338 b2bd 4172 ecbd ed9e d6bd 2ac3 013e
00000260: e712 e3bd 62ff 053d 9c61 2f3e 956d 9dbd
00000270: 8a81 153d 8434 3d3d 5de6 cf3c 1477 923c
00000280: 59e3 3ebb e82f 863d e007 1fbe 1512 943b
00000290: 5c84 103e 51d2 0b3e 1d8a 4d3e 50da 273e
000002a0: 6509 ee3d f380 2dbd aacc 4dbe 7d13 69be
000002b0: c173 e63c 2e15 45be 4291 2139 fe7f 17be
000002c0: 4101 27be 9f08 42be 3cdd 48be 148b 9d3c
000002d0: 8209 cfbd b182 753d ce35 02be 32d3 a53d
000002e0: 9444 6bbe 0b8c 0bbd 1dec 02be 5812 6b3c
000002f0: 8961 6abd 61da ce3d 5e67 8f3e 4a30 59be
00000300: 2afb 13bc d307 18bd 4a30 0bbd 06d2 933d
00000310: 5435 af3d 8050 b13d d537 a03d 006b d7be
00000320: a885 153d 8e7c dbbd ea4f b9bb 73bf 80bd
00000330: 8ee6 a73d cd48 d0bd abdf f43d def9 0ebe
00000340: 6f8f 23be d417 4bbe aa9c c0bd 1251 7b3d
00000350: da90 0bbd 63ab 13bd e4d8 093e 6eb3 583e
00000360: 9d34 893d 092a c33e 4663 023e 2d89 f73d
00000370: e7fa 9abd 5c6c efbc 0d16 f33d 13ec 353d
00000380: bf8c 763d d4f1 34be a336 ee3d 38ae 013e
00000390: 9358 1f3e 2045 183e b48e 6a3d b623 7d3d
000003a0: d672 e53c 7390 4ebe 9ebe 843b 2ed9 04bf
000003b0: c492 84bd e228 b33c 1d68 7c3c 6a70 83bc
000003c0: 580c e93b df7f 413d 1083 d53b 19df 42bc
000003d0: acfa 71be 46fe 4dbd 42f9 1bbc 51e2 11bb
000003e0: c6d4 033c 288f 013c a2b0 39bb e97e 3ebc
000003f0: 9ff1 10be c1fd 013d eac8 9d3e 303a ad3d
0.101666585 0.11732612 0.20536746 -0.015931334 -0.12776543 -0.046069395 0.045429222 0.13809557
0.03003152 -0.04821226 0.29322433 -0.021119708 -0.034365676 -0.0050714524 0.068852134 0.0005092362
-0.062949225 0.011759863 -0.116591536 -0.34728014 -0.16957156 0.014277519 0.0065752016 0.15853715
0.06679895 0.15041798 0.081267335 0.15952858 -0.11544571 0.09260251 -0.09225757 0.08448485
0.1341848 -0.15130235 0.10823917 0.04251308 0.11182566 0.10215478 -0.16006017 -0.009080818
0.118618004 -0.02882892 0.07768008 -0.043906104 -0.17500715 0.100257926 0.17088954 0.12465614
0.26010263 -0.2030348 0.25126183 -0.069072 0.16209847 -0.23096246 -0.022350801 -0.34508064
-0.10588382 -0.028625859 -0.009021547 0.09518485 0.14527555 -0.07759038 -0.064657666 -0.19071224
0.35215506 0.18291035 0.01911587 0.041664958 0.02017426 0.06631288 0.107517004 -0.025936589
-0.006273551 -0.34543702 -0.029142486 0.0047573387 -0.014751757 -0.011346917 -0.0022863573 0.007661567
-0.011068451 -0.13596977 -0.16139856 0.043073952 0.15948285 0.028647495 -0.19862963 0.15439701
0.021031542 -0.03515217 0.054836527 0.32077718 0.042619362 -0.1542947 -0.115415454 -0.076421976
-0.14608717 0.18643263 -0.12811066 -0.07152375 0.16745238 0.06947457 0.030730546 0.01163259
-0.05715555 -0.07177251 -0.05310239 0.037579052 0.12228783 -0.24914092 -0.027940199 0.036901556
0.056207255 -0.07126116 -0.06319962 -0.13656318 -0.017105374 -0.002404529 -0.14507164 0.19523194
-0.0424156 0.07614136 -0.109938554 0.12184508 0.07131266 0.10474735 -0.08351901 0.1670265
0.09892125 0.08666942 -0.09233715 0.060712967 0.09620673 -0.02860439 -0.028191224 0.0054423115
0.34719464 0.06618686 -0.005635193 0.010315679 0.011136971 0.010455706 -0.006881627 -0.0061233486
0.1562716 -0.2628685 0.14844833 -0.03644275 -0.08702137 -0.1154523 -0.104795314 0.12672105
-0.1108759 0.032714255 0.17127079 -0.07686917 0.03650049 0.04619266 0.0253784 0.017879046
-0.002912721 0.06552106 -0.15530348 0.004518757 0.14112991 0.13654448 0.20072217 0.16391873
0.116228856 -0.042359304 -0.20097604 -0.2276134 0.028131368 -0.1924636 0.00015408269 -0.14794919
-0.16309072 -0.18948601 -0.19615644 0.019231357 -0.10109235 0.05993909 -0.12715837 0.08096923
-0.22975379 -0.034069102 -0.12785383 0.014347635 -0.057221923 0.10100246 0.2800855 -0.21209827
-0.00903205 -0.037116837 -0.0339816 0.07217793 0.085550934 0.08657932 0.07823149 -0.42073822
0.036504418 -0.10717116 -0.0056552785 -0.06286516 0.08198272 -0.10170136 0.11956724 -0.13962504
-0.15972684 -0.19833308 -0.09404881 0.06135661 -0.034073688 -0.03605212 0.13461643 0.21162197
0.06699488 0.38118008 0.12733182 0.12086711 -0.07567387 -0.029226474 0.1186944 0.04441459
0.06019282 -0.17670375 0.11631515 0.12664115 0.15561132 0.14870119 0.057265 0.061801635
0.02800886 -0.2017229 0.0040510437 -0.5189389 -0.06473306 0.02187008 0.015405682 -0.016044814
0.007112067 0.047241088 0.006515868 -0.011894011 -0.2363078 -0.050291322 -0.009519877 -0.002226014
0.008046335 0.007907666 -0.002833404 -0.011626937 -0.14154671 0.03173614 0.30817348 0.08458364

decoder.0.bias f4 [117]
00000000: f954 ee3e 0a8a 3ebd cd50 613e 0a72 df3e
00000010: 20dd d33e 2fb3 09be d19d 1b3e 18c6 c2be
00000020: 15c6 683e acac 5bbe a310 a6be 0b59 d73e
00000030: 3fbc 793e 9687 f43e 74ac 8c3e 4f65 67be
00000040: 09bc e03e 4022 dd3e 059a 633e 667a c73e
00000050: 2b7b 92be 92cf e63d 2e7f a7be deb4 ffbd
00000060: 7b9e 02bd 9f99 aebe c53b 0a3e 36f2 a63e
00000070: 0fa3 f33b 9c08 d73e 6f71 d8be 544f c7be
00000080: 6f8d 353e 3e40 8a3e 0b86 9dbe 9947 b53e
00000090: cb6b e7be b586 bbbe 8d55 e0bd fa4e 803e
000000a0: 1f9c bf3e 7a02 2abe c393 8dbd c9aa a53d
000000b0: fc46 b9be 223e c83e 9468 d43e 0936 653e
000000c0: 56df a1be 1b02 d1be 6ec8 b1be bc03 39be
000000d0: e0c2 77be 0a09 98be bc9a 77be a9f8 d8be
000000e0: 9adb f73d c102 b1be 3c1d cc3d 2e77 b33e
000000f0: 32f4 c9be 8726 b23e ebe1 f43e ef52 113d
00000100: 37ab 173d 8559 9a3e b152 c03e 1170 d7bd
00000110: aa69 803d 536e c7be e4b1 90be e9d0 923e
00000120: 649a f3bb 5a94 e13e 3eb9 96be 5d4a 8f3e
00000130: 4da4 d73e ad2d 27bd 9426 eb3e 5df1 f43d
00000140: b5cd b63e a32a d0be c7d7 a33e 8bf0 b73e
00000150: dc03 76be 1864 d53e 4272 323e adb5 9a3e
00000160: 69df 433e 109a 50be 6664 d23e 14ce 3c3e
00000170: 233e c13e 3d08 c2be 7864 83be f416 5fbe
00000180: d039 853e fd04 603e 6cbb 463e ab45 c13e
00000190: 47c9 f23e e320 2c3d 9400 fdbd b73c 97be
000001a0: 2ff4 c7be 4fd3 bcbe 68be 983e d3ce d73e
000001b0: ef46 e23d f3c6 5bbe 9ba0 b43e 30db 2fbe
000001c0: c14e babe d709 3e3e ef45 c83e f6c3 a83e
000001d0: 2406 a7bc
0.46549204 -0.046518363 0.2200348 0.43641692 0.41379642 -0.1344726 0.15196921 -0.3804176
0.22731812 -0.21452588 -0.32434568 0.42060122 0.24388216 0.47759694 0.2747532 -0.2259724
0.4389346 0.43190193 0.22226723 0.3896057 -0.28609595 0.1127006 -0.32714218 -0.124856696
-0.03188942 -0.3410158 0.13499363 0.32606667 0.0074352096 0.41998756 -0.42274043 -0.3892771
0.17729734 0.27002138 -0.3076633 0.35406187 -0.45199427 -0.3662621 -0.109538175 0.25060254
0.37423798 -0.16602507 -0.06912949 0.08089215 -0.3618697 0.39109904 0.41486037 0.22383894
-0.31615704 -0.4082192 -0.34723228 -0.18067831 -0.24195433 -0.29694396 -0.2418012 -0.42377213
0.121024325 -0.34572414 0.099665135 0.35051864 -0.3944412 0.3479502 0.47828612 0.035479482
0.037028518 0.30146423 0.3756309 -0.10519422 0.06270154 -0.38951358 -0.2826072 0.2867501
-0.0074341763 0.44058496 -0.29438204 0.27986422 0.4211754 -0.040815044 0.4592787 0.11960099
0.35703817 -0.4065753 0.32000563 0.35925707 -0.2402491 0.41677928 0.17426398 0.30216733
0.19128193 -0.2037127 0.41092223 0.18437988 0.3774272 -0.3789691 -0.2566259 -0.217861
0.2602067 0.21876903 0.19407433 0.37748465 0.47419187 0.04202355 -0.12353626 -0.2953851
-0.39053485 -0.36879966 0.29832768 0.42149982 0.11048686 -0.21462612 0.35278782 -0.17173457
-0.3638821 0.18558441 0.39115855 0.32962006 -0.02038867

decoder.3.weight f4 [149, 117]
00000000: 5eb5 b0bb 853d c1bb 01a3 61bb 14d7 a6bb
00000010: c407 a3bb 4853 cabb b63a ccbb b061 83bb
00000020: a051 97bb a0e4 c6bb 0cbd b0bb 234c 77bb
00000030: 650a 9bbb dd7e adbb 2f47 b7bb e4be bcbb
00000040: f0ef adbb 884b 9abb 5f01 a1bb 612d 98bb
00000050: 8236 05bc 5abf abbb ff4f bbbb 3bbc adbb
00000060: 7deb 25bb dc96 8bbb db6f 92bb 475e 74bb
00000070: 724a cbbb 740e 7abb 3e5b c2bb f1de a8bb
00000080: c773 dabb a17a a7bb 8f53 b9bb e062 abbb
00000090: 49cc 8dbb 8c60 d5bb f132 b7bb 64b7 8abb
000000a0: 3d1e 64bb fa84 78bb 4836 c9bb 23fb afbb
000000b0: 7191 bdbb 69c7 c5bb e459 c9bb 5ba9 b4bb
000000c0: 7531 90bb 78bf 8ebb 8acd b0bb 670f 50bb
000000d0: 2039 c2bb a5e5 83bb db9b 9dbb 52a3 9dbb
000000e0: d2a6 8abb bafd a7bb 051d 86bb 76a8 d7bb
000000f0: 771a aebb c3dc c1bb 90a9 7ebb 34a0 c7bb
00000100: b5ac cabb cfd1 b1bb 12ec dabb 0808 8cbb
00000110: 9aa0 a0bb 8937 6abb 644a 6fbb b155 b3bb
00000120: 12f0 cbbb 3d53 adbb 0db7 a7bb b765 cfbb
00000130: 355f e0bb 22fc 9abb dd0b 8ebb 0a60 92bb
00000140: 42a5 7bbb 84a7 dabb 5901 7bbb 5876 7fbb
00000150: 6eaf a4bb 386f 93bb 4b7d bfbb 5cff acbb
00000160: bdcd c1bb d972 7ebb 575b 8ebb c9da cebb
00000170: 7208 c5bb 71c5 7ebb 48bc 6cbb e8c8 69bb
00000180: 8c36 cabb 8024 65bb 5cdb 82bb a3f6 a3bb
00000190: 38b9 96bb 85ec e7bb 0760 cbbb 1cc4 c7bb
000001a0: ef6c d3bb 5ccc afbb 3c16 e0bb 333d 6ebb
000001b0: 50cf c7bb 8cdc 55bb 3876 c5bb 0dd0 cebb
000001c0: 69cf 89bb fc03 79bb 7b56 99bb 28b3 c6bb
000001d0: 9edf 83bb f380 98bb dd39 cdbb d7b7 a4bb
000001e0: a11f a7bb 3766 a6bb a29c b0bb f46e c3bb
000001f0: 3feb a7bb 6a69 c5bb ad3d ccbb 26ec b8bb
00000200: ca7e 76bb a971 c8bb 4842 eebb 2bc8 c6bb
00000210: 222a ccbb 4086 c9bb 5164 bfbb c852 95bb
00000220: 006c b8bb 9d51 c5bb 83f7 c9bb 2ae5 d1bb
00000230: 274e 9cbb f4ed 90bb e1d0 5cbb ff64 9fbb
00000240: c291 92bb c75e 33bb 155a f9bb d374 abbb
00000250: 2db8 d3bb 9223 b7bb cf39 88bb bf39 95bb
00000260: a64c 94bb 2b52 95bb 72b1 80bb 1634 b3bb
00000270: 1eb5 adbb 0d6e ddbb af51 b3bb 7f94 51bb
00000280: ad1c 8ebb afc5 a5bb 8376 bebb 9abd a8bb
00000290: 27a3 9cbb 8826 a2bb c2c9 bfbb 85cd e3bb
000002a0: 9ec4 68bb 1f0b a0bb 2ffb e2bb 5277 ccbb
000002b0: 8dcc a0bb 3408 8abb 40bc 3abb 0b0e b0bb
000002c0: e409 94bb e4c3 85bb 2140 b3bb 9a26 acbb
000002d0: cb87 82bb b5cb c8bb e20f aabb 9ce4 e4bb
000002e0: 15c6 a9bb b8c2 c2bb 237a bfbb 0fd6 c0bb
000002f0: a02f 7cbb a9f4 bfbb 1cb1 91bb abb3 96bb
00000300: d2d5 c1bb e19f c4bb 79bf d5bb 8d70 f8bb
00000310: 2695 bbbb 3d12 d1bb 8893 a2bb f49c b1bb
00000320: e0ea 88bb 92cf 82bb e505 b7bb 9b57 d2bb
00000330: 8603 acbb 2e74 7dbb c287 a8bb f1cd b1bb
00000340: 5131 70bb e419 87bb e69e 84bb a646 8ebb
00000350: 1108 98bb 2767 9abb af07 d4bb 3d1a ccbb
00000360: 9ead 75bb f763 a8bb 0d92 89bb cbbe 78bb
00000370: 51db a8bb cb16 b4bb a701 98bb 1d3a 88bb
00000380: b01d bcbb 258e afbb aa3d c4bb 0730 b2bb
00000390: 99e3 9bbb 562d 8cbb 77be abbb 3b82 b9bb
000003a0: 743c 92bb 743e a6bb ba8f c8bb 8102 96bb
000003b0: a58a 80bb 95e9 30bb 990f b2bb ef9d aabb
000003c0: 143f adbb 9e4e bcbb 7722 98bb d9d6 dfbb
000003d0: 9e2f bdbb 7ff0 c0bb f445 a3bb 7473 a5bb
000003e0: 13d9 d6bb f09e a6bb d384 d9bb 2c6d 93bb
000003f0: 5be4 bfbb ee13 e7bb 9c1b a0bb 71b4 a4bb
-0.0053927144 -0.0058972263 -0.0034429433 -0.0050915573 -0.004975291 -0.0061744787 -0.006232585 -0.004009448
-0.0046178848 -0.0060697347 -0.00539363 -0.003773459 -0.0047314637 -0.0052946643 -0.0055932025 -0.0057600606
-0.005308144 -0.004708711 -0.0049134935 -0.0046440815 -0.008130671 -0.0052413167 -0.0057163234 -0.00530198
-0.0025317364 -0.004259927 -0.0044689006 -0.003728764 -0.006203943 -0.0038155587 -0.005931287 -0.00515353
-0.0066666338 -0.005111054 -0.005655713 -0.0052302927 -0.004327331 -0.0065117534 -0.0055907895 -0.0042332876
-0.0034808062 -0.0037921057 -0.006140504 -0.005370514 -0.00578516 -0.0060357344 -0.006144749 -0.005513353
-0.004400427 -0.004356321 -0.005395596 -0.0031747462 -0.00592722 -0.0040251785 -0.004809839 -0.004810729
-0.0042313123 -0.005126682 -0.004092815 -0.0065813614 -0.0053132134 -0.0059162094 -0.0038858391 -0.0060920957
-0.006185139 -0.0054266225 -0.006680974 -0.0042734183 -0.0049019577 -0.0035738668 -0.0036512846 -0.0054728617
-0.006223687 -0.005289464 -0.005118257 -0.006329264 -0.006847287 -0.0047297636 -0.0043349103 -0.004467015
-0.0038398062 -0.0066728014 -0.0038300364 -0.003898045 -0.0050257957 -0.0044993423 -0.0058437935 -0.0052794646
-0.0059144185 -0.0038825779 -0.0043443847 -0.0063127023 -0.0060129697 -0.0038875008 -0.0036122967 -0.0035672728
-0.0061710533 -0.0034964383 -0.003993435 -0.0050037666 -0.0045997165 -0.007077756 -0.0062065157 -0.006096376
-0.006452195 -0.0053649377 -0.006838588 -0.0036352396 -0.0060977116 -0.0032632677 -0.0060260557 -0.0063114227
-0.0042056334 -0.003799676 -0.0046794987 -0.0060638376 -0.00402446 -0.004654044 -0.0062630014 -0.005026798
-0.005100206 -0.005078103 -0.005389766 -0.0059641544 -0.005124479 -0.006024529 -0.0062329383 -0.0056433855
-0.0037612193 -0.006117065 -0.007271085 -0.0060663424 -0.0062306086 -0.006150037 -0.005840816 -0.0045569874
-0.005628109 -0.006021692 -0.006163539 -0.0064054923 -0.0047700587 -0.0044228975 -0.0033693837 -0.0048643346
-0.004472942 -0.0027369724 -0.0076096156 -0.0052324324 -0.0064611644 -0.005588957 -0.004157282 -0.004554003
-0.004525739 -0.0045569143 -0.003927403 -0.0054688556 -0.005301132 -0.006757504 -0.005472384 -0.003197938
-0.0043369145 -0.005058966 -0.0058124675 -0.0051495554 -0.0047801915 -0.004948441 -0.005852909 -0.00695199
-0.0035517584 -0.0048841382 -0.006926916 -0.00623981 -0.004907197 -0.0042124037 -0.0028493553 -0.005372768
-0.0045177806 -0.00408219 -0.0054702912 -0.005253625 -0.003983473 -0.0061277994 -0.0051898817 -0.00698526
-0.005181084 -0.0059436224 -0.0058434173 -0.005884893 -0.0038480535 -0.005858023 -0.004446162 -0.004599055
-0.005915382 -0.0060005044 -0.0065230695 -0.0075817765 -0.005724567 -0.006380348 -0.0049614348 -0.0054203216
-0.00417839 -0.0039920295 -0.0055854195 -0.006419135 -0.0052494435 -0.0038673985 -0.0051431367 -0.0054261615
-0.0036650489 -0.0041229594 -0.0040472625 -0.004341918 -0.0046396335 -0.0047120037 -0.0064706425 -0.006228714
-0.0037487517 -0.00513887 -0.004198319 -0.0037955518 -0.0051530977 -0.005495881 -0.004638869 -0.0041573183
-0.0057408437 -0.005357521 -0.0059887962 -0.005437854 -0.0047573564 -0.0042778654 -0.005241211 -0.0056612766
-0.004462773 -0.005073363 -0.006120649 -0.004577935 -0.0039227777 -0.0026994694 -0.0054339883 -0.0052068154
-0.0052870605 -0.0057466766 -0.0046427804 -0.0068310318 -0.0057734987 -0.0058880444 -0.0049827043 -0.0050491635
-0.006556639 -0.005084865 -0.0066381483 -0.0044990983 -0.0058560795 -0.0070519364 -0.004886104 -0.005026393

decoder.3.bias f4 [149]
00000000: b5f2 c9bb 7336 bcbb db38 dcbb b243 413e
00000010: 2a6f d0bb 0933 8ebb b843 c0bb 5ba9 c6bb
00000020: 3cc6 efbb 7ba4 91bb ea34 9f3e 694a dabb
00000030: 0a7c 88bb c45f 963e 3181 8cbb 6316 afbb
00000040: 644e 4ebb a941 8dbb 045a dfbb 4ac1 8bbb
00000050: 5a99 aabb b1b7 91bb e121 893e db41 bbbb
00000060: d1fd 753d 5f04 9d3e f26c 8dbb 4fe6 cdbb
00000070: a96b 483e 380d 8ebb 51c7 ff3d da3c ebbb
00000080: 1896 97bb 3716 a9bb 826c a8bb 7cc7 0f3e
00000090: 2d0d 983e 7d7f acbb 5dc1 523e 6bb7 cabb
000000a0: 946c cfbb be1c 6a3e 38b3 8d3e 3030 923e
000000b0: 20e6 d0bb bd91 913e 9c73 8abb 5a98 7f3e
000000c0: 006a 963e 2745 563e 640a 83bb 4269 8f3e
000000d0: 75fa fb3d 50ed b3bb 4e8a 33bb 3f59 b1bb
000000e0: 1789 85bb c09b cabb d1ca 3fbb b3f3 a2bb
000000f0: d2ec c0bb bc89 8bbb 5395 d2bb 2e4a b4bb
00000100: 0595 203e 2407 813e 5c46 1f3e 0518 8d3e
00000110: 9f24 0c3e 1a9e d3bb c719 973e 50a6 5a3e
00000120: 094f 743e 931f c0bb c73d a8bb e753 a5bb
00000130: ba50 86bb 7a38 6bbb 377a 793e dd7f 9a3e
00000140: 8bd6 8abb 696d e03d d0ce 26bb da4d 783e
00000150: ca03 943e c6af 763e 34b9 343e 5d25 6bbb
00000160: 3ba2 73bb 057e a23e 4da7 8abb 9a35 a7bb
00000170: 5f33 d73d f436 c43d 0349 acbb e21d c5bb
00000180: cea8 8f3e bdd6 1d3e 628f d8bb cdcd 98bb
00000190: ca70 d6bb d257 d7bb b895 033e fc00 9cbb
000001a0: 1e36 8b3e 1179 acbb 8daf 383e e4ec 913e
000001b0: 672f 683d be9b 04bc 73c0 95bb 5225 adbb
000001c0: 871f afbb 9880 f8bb 5993 0e3e 6b7b 043e
000001d0: 4634 9bbb 62fc 823e bdb0 983e ade3 6c3e
000001e0: 63c3 2a3e 8caf acbb 79c7 99bb a77a 55bb
000001f0: 2bfe 883e 5808 bebb 495a 8c3e c041 8dbb
00000200: d788 973d 0232 753e 7799 6cbb c23e 1e3e
00000210: b1f9 833e ea6e d7bb f704 9a3e 66b8 60bb
00000220: 1739 b7bb 8387 5b3e 27c9 b9bb 0d29 993e
00000230: 93ac c4bb 7ed3 bebb 3d3d 003e 59eb 963e
00000240: 62fd b5bb 8e2b dbbb 8b9c 883e a1cb 89bb
00000250: dd29 91bb
-0.006162966 -0.0057437955 -0.006720645 0.1887348 -0.006360908 -0.00433958 -0.0058674477 -0.006062669
-0.0073173326 -0.0044446564 0.31095058 -0.0066617024 -0.0041651772 0.29369938 -0.0042878618 -0.005343245
-0.003147983 -0.004310806 -0.0068161506 -0.004264985 -0.005206269 -0.0044469466 0.2678366 -0.0057146377
0.06005651 0.30667397 -0.004315966 -0.0062835584 0.19572319 -0.004335072 0.124891885 -0.007178885
-0.004626047 -0.005160119 -0.0051398883 0.14040941 0.29697552 -0.005264221 0.20581575 -0.006186416
-0.006330082 0.22862527 0.27675796 0.2855239 -0.0063750893 0.28431502 -0.0042252075 0.24960461
0.29377747 0.20924817 -0.0039990414 0.28009993 0.1230363 -0.0054909363 -0.0027395668 -0.0054122503
-0.0040751803 -0.0061831176 -0.0029265175 -0.004972899 -0.005887606 -0.0042583626 -0.0064264922 -0.005502007
0.15681846 0.2520076 0.15554184 0.27557388 0.13685845 -0.006458056 0.29511854 0.21352506
0.23858275 -0.005863139 -0.0051343176 -0.0050454023 -0.004098979 -0.0035891817 0.24363028 0.30175677
-0.0042370013 0.10958368 -0.002545286 0.24248448 0.2890914 0.2409049 0.17648774 -0.0035880425
-0.0037175554 0.3173677 -0.0042313696 -0.0051028254 0.10507845 0.09580794 -0.005257727 -0.006015525
0.28058475 0.15413947 -0.0066088894 -0.0046632052 -0.006544207 -0.0065717483 0.12850082 -0.0047608595
0.27189726 -0.0052634557 0.18035717 0.28501046 0.05668583 -0.008093772 -0.004570061 -0.00528399
-0.0053443345 -0.007583689 0.13923396 0.12937705 -0.004736456 0.25583178 0.2982234 0.23133726
0.16676097 -0.0052699503 -0.0046929684 -0.0032574327 0.26756415 -0.0057993345 0.27412632 -0.0043108165
0.07399147 0.23944858 -0.0036102214 0.15453628 0.25776437 -0.0065745013 0.30081913 -0.0034289598
-0.0055915224 0.21438412 -0.005669731 0.29914132 -0.0060020178 -0.0058235517 0.1252336 0.2947643
-0.005553887 -0.0066885417 0.26681933 -0.0042051827 -0.0044300393

decoder.6.weight f4 [200, 149]
00000000: 2a55 cebb a122 3fbb 7bab 1bbd 720e f7b7
00000010: 8c79 473d 10d3 4bbb ba2b d6bc ef7b 2bbd
00000020: 0816 e13b 2974 743d 4677 8a38 c30b 32bc
00000030: 4124 493a 7b4b 4c37 f336 8f3d 98e4 1cbd
00000040: b31a 91bd 5815 983c e77f 10bc dda4 8b3d
00000050: e957 5c3a bb09 36bd b971 d8b6 949a c4bb
00000060: 185e 6dba dba1 a837 0266 44bd 4d19 aa3c
00000070: 0aa0 8ebc ac5c 9b3d ec96 a638 b526 173d
00000080: 8ffd 88bd a842 30bd cb0e 193d 6fa6 823b
00000090: 2687 2e38 d09d 81bd ae11 1739 aeb1 723d
000000a0: 5b2a 05bd cfea 1cb7 1701 8d36 9704 2339
000000b0: 7fd0 a23c c99a f937 3d74 b13d 20c5 2c37
000000c0: 84e3 2d38 62c5 0a39 539c 9f3d 2511 5436
000000d0: c3a9 223c 5bf6 93bd cdc1 97bc 9ec7 54bc
000000e0: 290c 343c 2100 df3c be08 7f3d aa84 f3bb
000000f0: a550 d63b 5b8a 43bd 0702 7b3d 1009 59bc
00000100: 5e54 6ebc 0e5c 87b7 07a2 d23b ee0a 01b7
00000110: f635 813b fbd2 a93d b2ae 8b37 8957 b7b9
00000120: ac9e c738 4a84 633d 220d 333d 3b74 77bd
00000130: 901f 62bd a841 94bb 8b1d 1c37 333c 3f37
00000140: 1623 933d 377c 8a3c 773f 47ba 5d7a 2b37
00000150: b1f7 4437 b4db 65b9 0f0e 3f3a 57df bd3c
00000160: 9566 8d3c f01c 3138 2f67 e1bc 8760 a33d
00000170: 4c3e 063c ebec 2a3c 34f5 85bd 8bef 643d
00000180: 7c5e f637 e885 83ba 80be 80bd ec18 373d
00000190: 69b8 353d cbd8 76bd 50c1 093c da0f d3bc
000001a0: 0be1 5b39 20d0 953d b39f 2db9 7d4c 8c38
000001b0: 0796 803c bbb6 88bd eba3 95bd d89e 113d
000001c0: b46b 353d 509d 04bd e28a c53b 0e39 a73b
000001d0: 44f8 4ebd 34ce a237 433b 1e37 9125 c337
000001e0: a037 d8ba 1f72 4f3c 0ed1 ac3d 5dbb 473d
000001f0: 326a e138 a4f9 f7bc 84a8 0438 ca1d 8cbd
00000200: eaa4 a03c 412d 4eb7 74a0 143d a969 aeba
00000210: 76d5 4e36 8e04 1cbb 1e31 f437 5d99 61bd
00000220: db85 78bd da8a 9c36 52ed 7e3d 97f5 6637
00000230: e5ac 80bd 37ef 20bd 8731 db3b 1679 ca37
00000240: dc5f 2cbd 51de 81bb 3490 8337 a709 07bd
00000250: d827 863d b218 8e3b 5360 c23b 5b50 033d
00000260: 3ae2 27ba 5c98 87bd 2fb0 333c 527b f9bc
00000270: bb05 c9bb 4b29 9d3d 77db 983d 6be5 8139
00000280: 1bd5 41bd c6d8 68bc 8501 92b9 1b3c 53bc
00000290: d085 0c3c 5723 0b3d 10d3 683d 5094 7cbc
000002a0: c573 923d 739e d7bc baf1 8a3d 1805 e8b9
000002b0: 9efc 08bd 2d1c 913c 260d a5b9 dede 92bc
000002c0: 5a65 99bc 98bf 0fbc ce38 2e38 a81a 3a3a
000002d0: dc9d cb3c fcc1 7a3d 4aee c6bc ed33 a9bd
000002e0: 7d98 7a3a f147 2fba 7154 2ebd 064e 4eb8
000002f0: 19ad 8b3c d038 6f3d f6c9 47ba c0b4 feb9
00000300: 523b 26b7 859a 73bd 661d 9bb9 5924 713d
00000310: bbce 3bba fb0f 0136 3cfe dbb8 f05d d2bc
00000320: 6eae 2cba 3d9c f53b d959 2dbd 1c9f b1bc
00000330: 7797 37bc 3b5a 89bd 1bbb 39bd 3d9b a8bc
00000340: 11cc 9b3d bd14 83bd a4e5 c2bc 4f4c 483d
00000350: 3ef4 373d 7fdf 03bb 1244 03ba a491 34bb
00000360: 1507 d3b9 8879 083a 07e1 933d 1a18 7a38
00000370: a329 86b8 f447 6eb9 c8af 6f3d 30b1 30bd
00000380: 8e7d 533d 6fb9 4a3d b85e 8a3d 19d0 6eb9
00000390: 4a51 d8b9 a1d1 a0bd 2308 e03b fa5d b5bc
000003a0: 26ae 74ba 97a6 6fb9 49bc d8b9 11d8 813b
000003b0: 82a9 9fbc 8a24 623c 8132 55b8 2572 89bd
000003c0: d1b5 4fbd b35a 66ba d2de 853a 7dab 2d3d
000003d0: 56da 1cbd 76fd cbb9 b1c8 7b3b 038e 803d
000003e0: 2e4b 62bd 3f39 95bd 80da e33b a937 9238
000003f0: f9dd 503d 7963 f2b9 f4c2 d03c 3d1a 81ba
-0.0062967734 -0.0029164928 -0.038005333 -2.9451421e-05 0.0486999 -0.0031101145 -0.026143897 -0.04186624
0.0068690814 0.05968109 6.602569e-05 -0.010867062 0.0007672944 1.2176922e-05 0.069929026 -0.03830394
-0.070851706 0.018564865 -0.008819557 0.068185546 0.00084054336 -0.044442873 -6.4505407e-06 -0.0059998725
-0.00090548536 2.010253e-05 -0.047948845 0.020764017 -0.017410297 0.07586035 7.943608e-05 0.03690215
-0.066889875 -0.04303232 0.037367623 0.0039871256 4.16107e-05 -0.063289285 0.00014407068 0.05925148
-0.032511096 -9.352995e-06 4.2022543e-06 0.00015546601 0.01987481 2.975519e-05 0.08664749 1.0297896e-05
4.1458305e-05 0.00013234236 0.07793488 3.1600441e-06 0.00992817 -0.07224723 -0.018525029 -0.012987046
0.010989227 0.027221741 0.062264197 -0.0074315863 0.0065403753 -0.047739368 0.06128123 -0.01324679
-0.014546482 -1.613612e-05 0.0064280066 -7.691544e-06 0.0039432 0.082921945 1.665144e-05 -0.000349697
9.5186144e-05 0.055546083 0.043713696 -0.06041358 -0.05520588 -0.0045244284 9.305203e-06 1.1398503e-05
0.071844265 0.016904933 -0.00076007046 1.0220884e-05 1.17401805e-05 -0.00021920988 0.00072881667 0.023177786
0.017260829 4.222704e-05 -0.027515022 0.079773955 0.008193564 0.010432462 -0.065409094 0.05589251
2.9369483e-05 -0.0010034414 -0.06286335 0.0447015 0.04436532 -0.060265344 0.008407906 -0.025764395
0.00020969303 0.07315087 -0.00016558058 6.689967e-05 0.015696539 -0.06675478 -0.073066555 0.035551876
0.044292167 -0.032376587 0.006028519 0.005103237 -0.050529733 1.9407926e-05 9.431332e-06 2.3263305e-05
-0.001649607 0.012661486 0.084383115 0.048762668 0.000107486165 -0.030270405 3.1628195e-05 -0.06841619
0.019609887 -1.2289093e-05 0.036285833 -0.0013306636 3.0820643e-06 -0.0023806426 2.9109939e-05 -0.0550779
-0.06067453 4.6653267e-06 0.062238045 1.3766249e-05 -0.06282977 -0.039290633 0.0066892537 2.4136662e-05
-0.042083606 -0.0039632698 1.5683567e-05 -0.03296819 0.06550568 0.00433644 0.005931893 0.032059055
-0.0006404255 -0.06620857 0.010967298 -0.030454312 -0.0061347163 0.07673892 0.074637346 0.00024775727
-0.047322374 -0.014211839 -0.00027848422 -0.012892748 0.008576825 0.03396925 0.05684191 -0.01541622
0.071509875 -0.026320672 0.06784387 -0.00044254283 -0.03344404 0.01771363 -0.0003148105 -0.017928537
-0.018725086 -0.008773707 4.1537736e-05 0.0007099309 0.024855547 0.061220154 -0.024283547 -0.08261857
0.00095594657 -0.00066864403 -0.042561 -4.9186892e-05 0.017050313 0.05840379 -0.0007621342 -0.00048581325
-9.908183e-06 -0.059473533 -0.00029585807 0.058872554 -0.0007164289 1.92318e-06 -0.000104900886 -0.025679559
-0.00065872713 0.0074954317 -0.042322014 -0.021682315 -0.011205546 -0.06706663 -0.045344453 -0.020581836
0.07607282 -0.0640044 -0.023791142 0.0489009 0.044910662 -0.0020122228 -0.00050073967 -0.002755263
-0.00040250333 0.0005206098 0.07220655 5.962709e-05 -6.397373e-05 -0.00022724253 0.058517247 -0.04313773
0.05163341 0.04949325 0.067563474 -0.00022774971 -0.00041259296 -0.078524835 0.0068369075 -0.022139538
-0.00093338115 -0.00022854876 -0.00041339014 0.0039625247 -0.019490007 0.013802657 -5.0830193e-05 -0.067112245
-0.050710503 -0.0008787319 0.00102135 0.042399872 -0.03829416 -0.0003890802 0.0038419182 0.062770866
-0.05524748 -0.072863095 0.0069535375 6.97219e-05 0.05099294 -0.0004623195 0.025483586 -0.0009849739

decoder.6.bias f4 [200]
00000000: 59f2 3cba 4c93 8d3c 2ad3 a53c 8f16 223c
00000010: 58d9 803b 202c b73c a665 043c d76f 4b3c
00000020: a713 d53c 2860 883c 2b21 9e3c e598 f73c
00000030: 7938 ce3c 12b0 983c a81f 923c 7dc3 823c
00000040: 278c 213c 4baa 683c e24c 153c 3f81 0f3c
00000050: 304b 3a3c caa1 143c ef45 f73b e5e7 f93b
00000060: 82fa 293c 3071 163c 8a44 073c d25d 183c
00000070: 2872 243c fe89 243c 227f 313c 256b 0d3c
00000080: 0b36 103c ba0e 073c c0e6 173c 234d 1c3c
00000090: 26b9 0d3c f268 013c 6eae 1b3c 4ac2 2f3c
000000a0: c85d 2f3c eaba 3d3c 69d4 203c f4ff 223c
000000b0: ce12 343c 632f 4d3c 2515 313c db3e 363c
000000c0: c952 4c3c ef77 3f3c 6ae1 5b3c 7d03 4e3c
000000d0: 6ce7 673c 2265 543c 64d4 7c3c c6d7 453c
000000e0: e097 6a3c 277c 753c 5e4c 793c a654 733c
000000f0: 0bfd 803c 2d49 6d3c c626 683c b264 823c
00000100: 20e9 6c3c 9695 8c3c 3c25 8b3c f6d8 8d3c
00000110: 1c49 923c cc3e 8a3c 2bd0 883c d8f5 913c
00000120: 41d8 923c a9e1 8e3c ac9b 9b3c a4dc 9b3c
00000130: 8562 833c 5a8b 8c3c 1257 9d3c 9ea8 9b3c
00000140: c16b 943c d3f7 8d3c 03b4 8b3c baa3 9d3c
00000150: 2065 a33c 4451 a43c 1895 a23c 90ce 923c
00000160: 7b4b a83c 8a94 9a3c a586 8c3c 68b0 913c
00000170: 70bd 903c 92d8 a33c da8b 923c c35b a03c
00000180: 321b a23c 511e 953c 7212 ac3c 4a1f a83c
00000190: aeba c6be 336e 49be 0547 11be 1d39 91be
000001a0: 5377 46be edca 50be 5997 1ebe 7695 81be
000001b0: 5285 70be 39d5 63be 3636 88be cdb7 a3be
000001c0: 92ba 5bbe 2acf abbe 51b0 97be 755b 98be
000001d0: 08e4 70be cac7 bdbe 8dbc a8be af0d c2be
000001e0: aa6a adbe 7fc2 bcbe 924a a1be cfcf bcbe
000001f0: 1cd6 c3be c640 96be d8c0 c1be 3f4a 83be
00000200: bc91 91be cf03 84be 3115 d7be 2d6f e8be
00000210: c683 d2be a104 a3be 5481 c3be 56a6 b6be
00000220: 41ba bebe b9d1 a2be 43ce b8be 4770 aabe
00000230: 5345 b9be 9ef5 85be 98aa 9abe 08df dfbe
00000240: b021 debe 6f60 b2be 3a17 c4be 9585 bfbe
00000250: 988b bebe c9f3 b3be 15ea edbe 6e75 b8be
00000260: b490 b8be ab7a e8be a113 c5be 39c4 c3be
00000270: e5b4 c7be 5e5f bdbe 1a7f ddbe 0e0d dabe
00000280: 42a3 d8be 4233 a9be c53d b0be 0a9f d8be
00000290: 95d4 d6be 4617 b1be bc4e ecbe a69d f5be
000002a0: 156c ccbe 79c2 c0be 6b11 e9be d951 c6be
000002b0: 93d7 a0be eaf8 aebe 9375 dfbe 2e6f bfbe
000002c0: 0edc ddbe ba9d cdbe 2666 debe 4b10 c0be
000002d0: 8295 b6be 5207 cbbe ce53 d2be cbd4 e5be
000002e0: fd07 a0be 1d22 dfbe e036 ccbe 8d33 9cbe
000002f0: 48f7 cabe 08db afbe 2850 acbe 4809 bfbe
00000300: c0d9 e1be df7d a9be af5a c0be ef5c d3be
00000310: b8f8 dcbe 47c1 c4be ee7a adbe 709a c1be
-0.00072077435 0.01728215 0.020242292 0.009893074 0.0039321594 0.022359908 0.0080808755 0.012416801
0.026010348 0.016647413 0.019302925 0.030224273 0.025173413 0.018638644 0.01783736 0.015962357
0.009860075 0.014200757 0.009112569 0.008758842 0.011370465 0.009071777 0.0075461785 0.007626521
0.010374667 0.009182259 0.008256087 0.009299712 0.010036983 0.0100426655 0.0108335335 0.008631502
0.008801947 0.008243257 0.009271324 0.009539875 0.0086501 0.007898556 0.0095020365 0.0107274745
0.010703512 0.011580208 0.0098162675 0.009948719 0.0109908115 0.012523505 0.010808264 0.011123384
0.012470909 0.011686309 0.013420442 0.012574074 0.014154296 0.012963565 0.015431497 0.01207537
0.014318436 0.0149832135 0.015215961 0.014851725 0.01574566 0.0144827785 0.014169401 0.015917156
0.014459878 0.017161172 0.016985528 0.01731537 0.017857127 0.016875647 0.016700825 0.017817423
0.017925384 0.017441588 0.018995129 0.019026108 0.016038189 0.017156292 0.019206557 0.019001301
0.018117787 0.017330086 0.01705361 0.01924311 0.019945681 0.020058282 0.019846484 0.017920762
0.020543804 0.018869657 0.017154047 0.017784312 0.017668456 0.02000073 0.017888952 0.019575005
0.019788358 0.018202933 0.02100489 0.020522732 -0.388143 -0.19670944 -0.14187248 -0.28363886
-0.19381456 -0.2038991 -0.15487422 -0.25309342 -0.23488358 -0.22249307 -0.2660386 -0.31976166
-0.2145789 -0.3355649 -0.29626706 -0.29757276 -0.23524487 -0.3706649 -0.32956353 -0.37901065
-0.3387044 -0.3686714 -0.31502205 -0.36877295 -0.3824929 -0.29346293 -0.3784244 -0.25642583
-0.284315 -0.25784156 -0.42008355 -0.4539732 -0.4111616 -0.3183947 -0.38184607 -0.3567378
-0.37251475 -0.3180063 -0.36094865 -0.33288786 -0.36185703 -0.26163954 -0.30208278 -0.43724847
-0.43385077 -0.34839198 -0.3829897 -0.37406603 -0.37215877 -0.3514693 -0.46467653 -0.36027092
-0.360479 -0.45406088 -0.38491538 -0.38235644 -0.390052 -0.36986822 -0.43261033 -0.42588085
-0.42312056 -0.3304692 -0.34422126 -0.42308837 -0.41959062 -0.3458807 -0.4615382 -0.4797184
-0.3992621 -0.3764837 -0.455211 -0.3873432 -0.3141447 -0.3417428 -0.4364439 -0.3738951
-0.4333195 -0.40159398 -0.43437308 -0.3751243 -0.3566094 -0.39654022 -0.41079563 -0.4488891
-0.31256095 -0.43580714 -0.39885616 -0.3050808 -0.39641786 -0.34346795 -0.33654904 -0.3731177
-0.44111443 -0.33103845 -0.37569186 -0.4128184 -0.43158507 -0.3842871 -0.3388285 -0.3781314
