models/VAE saves/best_enc_v2.pt (torch, 571351 bytes, 6 tensors)

encoder.0.weight f4 [200, 600]
-0.00681672 -0.0056473534 -0.004454688 -0.007090988 -0.008774666 -0.00857321 -0.0077271927 -0.0039681587
-0.0041068466 -0.0012365438 -0.0025603198 -0.0046793143 -0.005532694 -0.0025140368 -0.002674409 -0.005517128
-0.0046900217 -0.0045152023 -0.002941752 -0.0054076468 -0.010061432 -0.0071811806 -0.008332503 -0.008167526
-0.004621674 -0.008197991 -0.005324774 -0.007034752 -0.006081824 -0.0055822157 -0.0070691328 -0.004118165
-0.007008615 -0.003915891 -0.00988189 -0.007907241 0.0071674385 0.010357997 0.009224103 0.011865198
0.010662863 0.007821089 0.010177851 0.010017692 0.009824614 0.0064661754 0.00695442 0.0022281155
0.0021379434 0.003060387 0.0009887074 0.0015355252 0.0024032253 0.0042916113 0.007888973 0.007018113
0.0043654037 0.0056804246 0.0046042535 0.0040782355 -0.0058429036 -0.005233233 -0.008326746 -0.006730658
-0.007944864 -0.0052029616 -0.003155896 -0.0026423153 -0.00016420608 -0.0021467912 -0.00272645 -0.0022438997
-0.0036626563 -0.0045125373 -0.002793159 -0.0035969913 -0.003997468 -0.0032265931 -0.0030906498 -0.0037024706
-0.0038159888 -0.008312386 -0.010264027 -0.010452882 -0.010298073 -0.0086819455 -0.00894963 -0.007101732
-0.0093381405 -0.0064491387 -0.007373468 -0.006503384 -0.0071914797 -0.005429073 -0.008690668 -0.002541946
0.008353059 0.009548554 0.010473308 0.010242228 0.0077102217 0.009935216 0.007939411 0.008024575
0.009164572 0.007853902 0.007987721 0.006366723 0.0054812953 0.0057352874 0.0059516984 0.0074036326
0.0058792895 0.0044058645 0.007408839 0.005227264 0.0031394656 0.0057099327 0.0031056898 0.0038608399
-0.0064170044 -0.0037418008 -0.002143568 -0.00078794983 -0.0031897018 -0.003245457 -0.0016490911 -0.00033670815
-0.0007701838 -0.0008970504 0.00016405199 -0.0013123137 -0.0013355715 -0.0035723557 -0.0012705401 -0.0023689158
-0.003318976 -0.0022401114 -0.0032759276 -0.0035373576 -0.0066413707 -0.0097057205 -0.009825479 -0.010426755
-0.009433019 -0.008939098 -0.006693354 -0.009281605 -0.008565827 -0.0082205525 -0.007548404 -0.006338188
-0.0066876737 -0.0006502621 -0.013782887 -0.0010392916 0.011676174 0.012487759 0.012541236 0.010187876
0.008785554 0.008719826 0.008141006 0.009687907 0.0073656067 0.008535974 0.0073627797 0.008099251
0.005234475 0.00749004 0.0070723654 0.0065296898 0.0073032244 0.0071891695 0.005414952 0.0059118755
0.0047574956 0.0021824408 0.002632115 0.0018734328 -0.012315821 -0.012097387 -0.0073141614 -0.0035775998
-0.004380754 -0.0035432088 -0.0033795643 -0.005993886 -0.0031172123 -0.0012299498 -0.0025275121 -0.001628621
-0.0007008298 -0.0013785427 -0.002896302 -0.003497986 -0.003849243 -0.006085409 -0.0059075407 -0.005253216
-0.008297817 -0.011204691 -0.011608809 -0.013648958 -0.009177792 -0.008751901 -0.008494411 -0.008578321
-0.010992163 -0.006744247 -0.008788813 -0.007922284 -0.0075172856 -0.0066516767 0.0060936413 0.0098767895
0.01325363 0.012703801 0.011249712 0.011760636 0.011709108 0.008899025 0.009474801 0.008913098
0.008992055 0.008536525 0.009426564 0.009453884 0.008594662 0.00533319 0.0075556096 0.007031078
0.0066851927 0.007517259 0.0083401445 0.0076408754 0.0039658365 0.0035279414 0.004268212 0.0033586237
-0.010156366 -0.0074968636 -0.0076043187 -0.003464567 -0.0037238991 -0.0017696897 -0.0016356454 -0.00016894919
0.004420171 0.008834134 0.0042911978 0.008817222 0.008314764 0.017860316 0.12240627 0.0353208
00000000: cb5e dfbb 6f0d b9bb a2f8 91bb 855b e8bb
00000010: 9ec3 0fbc a676 0cbc 6434 fdbb 5407 82bb
00000020: ba92 86bb 8613 a2ba 0acb 27bb ef54 99bb
00000030: 9a4b b5bb 8ac2 24bb 2345 2fbb 06c9 b4bb
00000040: c1ae 99bb 43f4 93bb 69ca 40bb a132 b1bb
00000050: b4d8 24bc 1c50 ebbb 0d85 08bc 16d1 05bc
00000060: 6971 97bb de50 06bc 717b aebb c783 e6bb
00000070: 0a4a c7bb 05eb b6bb 2fa4 e7bb acf1 86bb
00000080: 86a8 e5bb e050 80bb a7e7 21bc 5f8d 01bc
00000090: d5dc ea3b 97b4 293c b120 173c 3f66 423c
000000a0: 4ab3 2e3c 0624 003c 00c1 263c 3f21 243c
000000b0: 6bf7 203c 36e2 d33b e7e1 e33b 9305 123b
000000c0: bd1c 0c3b c690 483b 8497 813a ad43 c93a
000000d0: 6e7f 1d3b a5a0 8c3b c040 013c 33f8 e53b
000000e0: a90b 8f3b db22 ba3b 47df 963b b8a2 853b
000000f0: d475 bfbb 8a7b abbb e76c 08bc da8c dcbb
00000100: 2d2b 02bc 9b7d aabb 26d3 4ebb b22a 2dbb
00000110: bc2e 2cb9 2eb1 0cbb 3eae 32bb 640e 13bb
00000120: 2d09 70bb e8dd 93bb 6f0d 37bb 80bb 6bbb
00000130: 31fd 82bb 4075 53bb 808c 4abb 26a5 72bb
00000140: ab15 7abb ad30 08bc 732a 28bc 9142 2bbc
00000150: 40b9 28bc b83e 0ebc 78a1 12bc a5b5 e8bb
00000160: 00ff 18bc 4c53 d3bb 229d f1bb 571a d5bb
00000170: 81a6 ebbb 5de6 b1bb 4e63 0ebc c796 26bb
00000180: 45db 083c 8a71 1c3c 3d98 2b3c 05cf 273c
00000190: 07a6 fc3b 51c7 223c 4e14 023c 8279 033c
000001a0: 0027 163c a7ad 003c eede 023c f29f d03b
000001b0: 709c b33b 14ef bb3b 7706 c33b 2c9a f23b
000001c0: 0ea7 c03b 125f 903b d9c5 f23b 7849 ab3b
000001d0: 7ebf 4d3b 631a bb3b d488 4b3b 2506 7d3b
000001e0: bc45 d2bb 0039 75bb 1a7b 0cbb 6b8e 4eba
000001f0: 510a 51bb bcb1 54bb 5126 d8ba 3488 b0b9
00000200: 29e6 49ba 0928 6bba 5f05 2c39 f101 acba
00000210: 580e afba 2f1e 6abb 4088 a6ba d03f 1bbb
00000220: 2d83 59bb d5ce 12bb f2b0 56bb 03d3 67bb
00000230: db9f d9bb be04 1fbc 0cfb 20bc fbd4 2abc
00000240: f38c 1abc 4b75 12bc ec53 dbbb df11 18bc
00000250: af57 0cbc 7faf 06bc 9a58 f7bb 93b0 cfbb
00000260: 4624 dbbb 5a76 2aba 9ed1 61bc d738 88ba
00000270: 6c4d 3f3c 7599 4c3c c279 4d3c 0deb 263c
00000280: 49f1 0f3c 9add 0e3c db61 053c 07ba 1e3c
00000290: 305b f13b 78da 0b3c 7943 f13b b9b2 043c
000002a0: f585 ab3b 026f f53b 4dbf e73b 02f7 d53b
000002b0: e34f ef3b 2093 eb3b e96f b13b 68b8 c13b
000002c0: c4e4 9b3b 4807 0f3b 907f 2c3b f98d f53a
000002d0: 4cc8 49bc 1e34 46bc a2ab efbb 2a76 6abb
000002e0: 6e8c 8fbb 2e35 68bb ae7b 5dbb 5c68 c4bb
000002f0: 254a 4cbb 4436 a1ba 9ea4 25bb 7477 d5ba
00000300: e4b7 37ba 38b0 b4ba e2cf 3dbb 773e 65bb
00000310: 9543 7cbb 1c68 c7bb 0b94 c1bb 2b23 acbb
00000320: 91f3 07bc e193 37bc e032 3ebc e19f 5fbc
00000330: 735e 16bc 2264 0fbc 242c 0bbc 168c 0cbc
00000340: 7918 34bc d8fe dcbb f4fe 0fbc 78cc 01bc
00000350: 9053 f6bb 4ff6 d9bb 2bad c73b 42d2 213c
00000360: c125 593c 9a23 503c b650 383c afaf 403c
00000370: 8fd7 3f3c 37cd 113c 323c 1b3c 3e08 123c
00000380: 6a53 133c c8dc 0b3c e071 1a3c 77e4 1a3c
00000390: a0d0 0c3c 0ac2 ae3b 0c95 f73b f564 e63b
000003a0: 760f db3b 5753 f63b 1aa5 083c 4f60 fa3b
000003b0: d9f3 813b 0935 673b 5bdc 8b3b 5b1c 5c3b
000003c0: e366 26bc 40a8 f5bb a62d f9bb ca0d 63bb
000003d0: a90c 74bb eff4 e7ba 2763 d6ba f427 31b9
000003e0: 15d7 903b 0bbd 103c 2d9d 8c3b 1c76 103c
000003f0: a63a 083c cc4f 923c 23b0 fa3d 8bac 103d

encoder.0.bias f4 [200]
0.004500369 0.0031670316 0.015234092 0.0024566215 0.012156214 0.013112313 0.049803995 -0.0003134271
0.16618785 0.011652158 0.14733772 -0.004151198 0.10634665 0.08223682 0.1364325 0.008715961
0.003392888 0.005187077 0.13054739 0.0011691353 0.014106111 0.011219135 0.14671977 0.008373937
0.1070142 0.118206546 0.010051106 0.106090456 0.00935474 0.13005495 0.1381956 0.130118
0.0103060175 0.1443306 0.011235497 0.003692334 0.00291055 0.15191494 0.003747172 0.014641838
0.00688534 0.013524073 0.0054870998 0.13937625 0.009971076 0.0154394405 0.010618972 0.0037599208
0.10562524 0.16336672 0.0126662655 0.12988667 0.01394516 0.14851898 0.0126914745 0.13331167
0.16037647 0.0004487018 0.005559842 0.1380608 0.013088524 0.013167395 0.1412199 0.11253909
0.119620636 0.11521304 0.15181088 0.015609382 0.13523017 0.01158534 0.12261262 0.15860297
0.11639323 0.11619392 0.13511118 0.009098805 0.14418145 0.13118523 0.0014858862 0.0025088575
0.014734759 0.110573865 0.01296721 0.012003074 0.14477164 0.16856602 0.1013791 -0.0021665208
0.1418117 0.0059960596 0.011731096 0.12811977 0.013963102 0.14280139 0.0126226405 0.12998545
0.103708655 0.123601995 0.13401133 -0.0023480474 0.0028090705 0.12706977 0.0075385435 0.006856034
0.013764675 0.006656383 0.007983481 0.012746039 0.0036694661 0.10975068 0.011566335 0.08408103
0.00084053894 0.1323358 0.007601189 0.012459832 0.008370095 0.012927338 -0.0005573264 0.013742339
0.0023621712 0.010416628 0.13867003 0.010343096 0.12582277 -0.0013526301 0.12345968 0.118349865
0.106966436 0.12427834 0.011544919 0.012254765 0.0041901185 0.15488623 0.011697469 0.009916731
0.12382466 0.11787697 0.10692278 0.05018722 0.009243703 0.12541734 0.012686383 0.14746258
0.013537831 0.0019587677 0.010181855 0.012327731 0.011778466 0.007529252 0.0019635274 0.11345829
0.012824725 0.0060449233 0.14671102 0.0038242508 0.009936618 0.118474245 0.00459624 0.12949745
0.10124433 0.13963237 0.011837967 0.038002938 0.11056943 0.0018976395 0.01269438 0.13160042
0.012438298 0.010882128 0.009689837 0.011864515 -0.052871186 0.115362294 0.12340562 0.009667934
0.14399435 0.12427113 0.01481069 0.005508635 -0.040201195 0.013514487 0.009804477 0.14028665
-0.0017715314 0.0147322 0.009638254 0.012173027 0.0077979295 0.11440324 0.013012157 0.013120025
0.01240056 0.013513699 0.004741972 0.14397049 0.010661369 0.13989179 0.13968773 0.13275772
00000000: d577 933b f98d 4f3b 6a98 793c 45ff 203b
00000010: db2a 473c 07d5 563c 46ff 4b3d 7953 a4b9
00000020: 262d 2a3e b1e8 3e3c b3df 163e c606 88bb
00000030: 46cc d93d c76b a83d f6b4 0b3e 64cd 0e3c
00000040: 375b 5e3b 5bf8 a93b 37ae 053e ac3d 993a
00000050: 511d 673c 76d0 373c b53d 163e d632 093c
00000060: 432a db3d 4616 f23d 65ad 243c f445 d93d
00000070: a044 193c 202d 053e 2683 0d3e a73d 053e
00000080: 92da 283c 67cb 133e 1715 383c 16fb 713b
00000090: edbe 3e3b 978f 1b3e 1d93 753b 52e4 6f3c
000000a0: 6b9e e13b 1394 5d3c 21cd b33b a6b8 0e3e
000000b0: b95d 233c b5f5 7c3c 32fb 2d3c 0169 763b
000000c0: 0c52 d83d 9b49 273e 2b86 4f3c 0301 053e
000000d0: 3e7a 643c 5c15 183e e7ef 4f3c db82 083e
000000e0: bb39 243e bc3f eb39 562f b63b cf5f 0d3e
000000f0: 4071 563c 0fbc 573c f39b 103e e57a e63d
00000100: aafb f43d d0f4 eb3d 5074 1b3e 7ebe 7f3c
00000110: c779 0a3e 70d0 3d3c 531c fb3d d168 223e
00000120: 935f ee3d 14f7 ed3d 965a 0a3e 2713 153c
00000130: 4da4 133e 6c55 063e 11c2 c23a a56b 243b
00000140: 0f6a 713c 8d74 e23d 6c74 543c 8ba8 443c
00000150: 043f 143e 929c 2c3e d89f cf3d 30fc 0dbb
00000160: 1637 113e 987a c43b c833 403c d431 033e
00000170: 7fc5 643c 873a 123e 31cf 4e3c e81a 053e
00000180: 3465 d43d 0b23 fd3d 443a 093e b3e1 19bb
00000190: 6218 383b 941e 023e e305 f73b 95a8 e03b
000001a0: 3b85 613c ca1d da3b 25cd 023c c3d4 503c
000001b0: 6d7b 703b f7c4 e03d ba80 3d3c ad32 ac3d
000001c0: 9d57 5c3a 0983 073e 6513 f93b 5324 4c3c
000001d0: b922 093c 2fcd 533c 8b19 12ba 8c27 613c
000001e0: a8ce 1a3b 81aa 2a3c 84ff 0d3e 1776 293c
000001f0: afd7 003e bc4a b1ba 6ed8 fc3d 6a61 f23d
00000200: 3811 db3d a485 fe3d e626 3d3c 36c8 483c
00000210: 434d 893b 7f9a 1e3e bea6 3f3c c979 223c
00000220: c997 fd3d 7b69 f13d 55fa da3d 1d91 4d3d
00000230: e772 173c 676d 003e 8cda 4f3c 6e00 173e
00000240: c7cd 5d3c ab5e 003b ccd1 263c 40fa 493c
00000250: 78fa 403c f2b7 f63b 86ae 003b d25c e83d
00000260: cc1e 523c 7e14 c63b 6a3b 163e 48a0 7a3b
00000270: 32cd 223c a0a2 f23d 0e9c 963b fb9a 043e
00000280: 3059 cf3d cafb 0e3e 08f4 413c f8a8 1b3d
00000290: 3a72 e23d 37ba f83a 17fc 4f3c 43c2 063e
000002a0: 01ca 4b3c f44a 323c 1fc2 1e3c 6263 423c
000002b0: 758f 58bd 1143 ec3d 16bc fc3d 4166 1e3c
000002c0: 4173 133e dd81 fe3d 89a8 723c c881 b43b
000002d0: 02aa 24bd de6b 5d3c f5a2 203c 4ea7 0f3e
000002e0: bb32 e8ba 535f 713c c4e9 1d3c 6071 473c
000002f0: c685 ff3b 3f4c ea3d f130 553c 60f5 563c
00000300: b82b 4b3c 9068 5d3c 8b62 9b3b 006d 133e
00000310: 06ad 2e3c cb3f 0f3e 4d0a 0f3e a4f1 073e

encoder.3.weight f4 [100, 200]
0.01187002 0.010005126 0.013728513 0.0139108235 0.0080549605 0.011233373 0.021838672 0.03046734
0.13303883 0.010144869 0.032578923 0.00077367155 0.016333874 0.37780043 0.1350117 0.0107905585
0.015482241 0.01180557 0.13476068 0.0100556305 0.01117756 0.013289564 -0.008196633 0.011635756
0.042227563 -0.25257888 0.03332036 0.045528073 0.0125792995 -0.008902198 -0.045408137 0.111049615
0.0045387754 0.08937928 0.0131144915 0.010688305 0.006218597 0.11950078 0.015945954 0.010741981
0.016192554 0.011024333 0.028378705 0.11511455 0.012455648 0.0114146555 0.012478852 0.011194696
-0.16198441 -0.08710368 0.03498024 0.092036344 0.010866676 0.12782228 0.012275084 0.012116762
-0.24935699 0.006953423 0.01093947 0.031807292 0.0103492085 0.012650153 0.1671282 -0.15107407
-0.07059104 -0.24894817 0.15770794 0.013042914 0.090388596 0.010969818 0.06709149 -0.20158714
-0.14555264 0.022414472 -0.20616043 0.008639671 -0.06803161 0.011941811 0.01170338 0.008973661
0.012876312 0.019397827 0.01278046 0.010348904 0.014192915 0.009955267 0.020579236 0.074381046
-0.21506032 0.015098337 0.003518845 0.11639194 0.012257993 0.10856312 0.010656196 0.015423266
0.015390917 -0.0511632 0.13980415 0.0042367927 0.009408067 0.09963077 0.013885333 0.010990737
0.01388701 0.011390822 0.011567471 0.010278833 0.032641653 -0.057993773 0.012167063 -0.0844671
0.04690697 0.024122745 0.009487549 0.011712337 0.011575277 0.013979824 0.013060357 0.010530524
-0.004193553 0.009991496 0.11243467 0.01196813 0.1174063 0.0066164443 -0.20164688 0.044282995
0.0148262065 -0.019436393 0.012147684 0.013523347 0.013759349 -0.14915006 0.011502053 0.06438428
0.03593504 0.08930973 -0.0009069163 0.16868775 0.009651387 -0.14057007 0.012926743 0.010079676
0.013502869 0.01043501 0.014357278 0.011895028 0.012718274 0.011641395 0.011150535 -0.06215233
0.007664402 0.0125823915 0.14756003 0.010046259 0.004706872 -0.046070155 0.03068375 0.119392775
0.071989074 0.12614115 0.013053865 0.0057791458 -0.08722556 0.009799285 0.011186485 -0.16650487
0.013970639 0.030385166 0.010912671 0.030125232 0.07518526 -0.09631297 0.13286032 0.010705404
-0.022406682 -0.038698543 0.013493798 0.015326804 0.16407298 0.0117589785 0.03353888 -0.1525221
0.007108015 0.007978199 0.0065149544 0.011520739 0.010298309 -0.14733095 0.01115899 0.012141348
0.010833348 0.009851826 0.014591853 0.1237679 0.023751486 0.11588913 -0.28025532 0.15396632
-0.0049048164 -0.004613117 -0.006386555 -0.003976242 -0.0044515594 -0.0058269575 -0.0057824873 -0.0062382887
0.00046461352 -0.0055729514 -0.00051216857 -0.0048126928 0.0051861503 -0.0024165353 -0.0001803694 -0.0048286496
-0.0063000447 -0.006013596 -0.00073981803 -0.004919451 -0.0054271715 -0.0058850017 0.00028330815 -0.0070435107
-0.00050093245 0.00086821656 -0.006165544 0.00015561642 -0.0064218496 -0.005818671 -0.00047253983 -0.0055913716
-0.005919837 -0.0017631497 -0.0042853975 -0.006414552 -0.0058341264 0.0007191528 0.00048657155 0.0049376413
-0.0062551973 -0.007658757 -0.0063083246 -0.0063696736 -0.005925815 -0.0054940227 -0.0057324427 -0.006294185
-0.000231704 -0.0005403682 -0.0061903605 -0.0043522115 -0.00594773 -0.0006775947 -0.005313405 0.0018043057
00000000: 797a 423c 8aec 233c 8fed 603c 39ea 633c
00000010: f4f8 033c 2e0c 383c 04e7 b23c a596 f93c
00000020: 553b 083e aa36 263c 7a71 053d 38d0 4a3a
00000030: 9ece 853c 0f6f c13e 8240 0a3e e2ca 303c
00000040: 3aa9 7d3c 266c 413c b4fe 093e 5fc0 243c
00000050: 1622 373c 79bc 593c 2c4b 06bc e6a3 3e3c
00000060: cff6 2c3d 0552 81be ee7a 083d a57b 3a3d
00000070: 6819 4e3c 86da 11bc e2fd 39bd fb6d e33d
00000080: 02ba 943b 7c0c b73d 2ade 563c 001e 2f3c
00000090: 5fc5 cb3b d3bc f43d 17a1 823c 22ff 2f3c
000000a0: 3fa6 843c 679f 343c 757a e83c 2dc1 eb3d
000000b0: c612 4c3c 8904 3b3c 1974 4c3c f569 373c
000000c0: 3edf 25be 6a63 b2bd 7147 0f3d 8d7d bc3d
000000d0: 250a 323c d8e3 023e 6f1d 493c 6285 463c
000000e0: 7057 7fbe 8ad9 e33b 763b 333c 5d48 023d
000000f0: ba8f 293c 9642 4f3c a823 2b3e 29b3 1abe
00000100: 0992 90bd 45ec 7ebe 317e 213e f2b1 553c
00000110: a81d b93d c0ba 333c 4367 893d dc6c 4ebe
00000120: c00b 15be 8e9e b73c b81b 53be 688d 0d3c
00000130: 2854 8bbd 96a7 433c 89bf 3f3c 4306 133c
00000140: 2bf7 523c 31e8 9e3c 2265 513c 738e 293c
00000150: 6689 683c 6b1b 233c c995 a83c 1755 983d
00000160: c638 5cbe 045f 773c 6c9c 663b e65e ee3d
00000170: c0d5 483c 5756 de3d 5397 2e3c deb1 7c3c
00000180: 2f2a 7c3c 8190 51bd d228 0f3e cbd4 8a3b
00000190: 4b24 1a3c 380b cc3d 4f7f 633c 7e12 343c
000001a0: 5786 633c 92a0 3a3c 7d85 3d3c 8d68 283c
000001b0: 41b3 053d e18a 6dbd 5c58 473c 16fd acbd
000001c0: 8621 403d 109d c53c aa71 1b3c 1ae5 3f3c
000001d0: 3ba6 3d3c a20b 653c 1cfb 553c 3888 2c3c
000001e0: 126a 89bb 5fb3 233c 2644 e63d fa15 443c
000001f0: b772 f03d c2ce d83b 857c 4ebe 1662 353d
00000200: 9ee9 723c 1239 9fbc 1407 473c 0791 5d3c
00000210: e46e 613c cbba 18be 1b73 3c3c e8db 833d
00000220: 9f30 133d 05e8 b63d 1fbe 6dba 7bbc 2c3e
00000230: da20 1e3c 9af1 0fbe b1ca 533c 3a25 253c
00000240: 233b 5d3c 9bf7 2a3c ca3a 6b3c 5de3 423c
00000250: 4f60 503c 8dbb 3e3c bcb0 363c 7193 7ebd
00000260: aa25 fb3b 6026 4e3c fa19 173e 1099 243c
00000270: 1b3c 9a3b 0fb4 3cbd 7d5c fb3c 3384 f43d
00000280: 026f 933d 252b 013e e1df 553c fd5e bd3b
00000290: 50a3 b2bd 2e8d 203c 8547 373c 4180 2abe
000002a0: 1be5 643c 50ea f83c 0fcb 323c 31c9 f63c
000002b0: bbfa 993d bc3f c5bd 890c 083e b865 2f3c
000002c0: 388e b7bc 5d82 1ebd 1715 5d3c 461d 7b3c
000002d0: bf02 283e bba8 403c 1160 093d c12e 1cbe
000002e0: 5aea e83b feb6 023c 667b d53b 7bc1 3c3c
000002f0: 3dba 283c eddd 16be 32d4 363c 81ec 463c
00000300: 5b7e 313c 8e69 213c ab12 6f3c 067a fd3d
00000310: 7a92 c23c 4857 ed3d a07d 8fbe 59a9 1d3e
00000320: 95b8 a0bb a129 97bb 4e46 d1bb 234b 82bb
00000330: 63de 91bb 10f0 bebb 057b bdbb 8f6a ccbb
00000340: 5f97 f339 4e9d b6bb 0d43 06ba cbb3 9dbb
00000350: 95f0 a93b bc5e 1ebb 8b21 3db9 a639 9ebb
00000360: 9b70 cebb b30d c5bb 59f0 41ba 5933 a1bb
00000370: 6ad6 b1bb f9d6 c0bb fa88 9439 40cd e6bb
00000380: 0251 03ba 0799 633a 5508 cabb f72c 2339
00000390: 616e d2bb 8daa bebb 39bf f7b9 d337 b7bb
000003a0: 31fb c1bb 7d19 e7ba 856c 8cbb 2a31 d2bb
000003b0: 332c bfbb 8785 3c3a 871a ff39 f0cb a13b
000003c0: 66f8 ccbb 4ff6 fabb 10b6 cebb b2b8 d0bb
000003d0: 572d c2bb 3407 b4bb 37d7 bbbb 733f cebb
000003e0: 92f5 72b9 7fa7 0dba 82d8 cabb ff9c 8ebb
000003f0: 2de5 c2bb 9ca0 31ba 121c aebb 747e ec3a

encoder.3.bias f4 [100]
0.01850993 -0.006559569 0.0056626317 0.017299224 0.015139804 0.041643623 0.0134644015 0.014571242
-0.0052712793 -0.0060906312 -0.0057743457 0.16017254 -0.0069477 0.020201644 -0.0058818036 -0.00683147
-0.006088738 0.014611623 0.0010942509 0.23204613 -0.00564854 -0.0010522235 -0.006882027 -0.022790374
-0.009541348 -0.009664924 -0.006559917 0.16418354 -0.007393587 0.012546174 -0.005380797 -0.0073643248
-0.006313985 -0.006609631 0.01538815 0.01704003 -0.019040635 -0.0060414607 -0.0074813557 -0.03033642
-0.020321235 -0.0058969166 -0.0050287014 -0.00621908 -0.0066506625 0.008987834 -0.005828806 -0.004919024
-0.007726694 -0.0055847326 0.004447727 0.0154979965 -0.0055261124 -0.005928017 0.1714412 0.028819298
-0.0061244 0.02331263 0.012724367 -0.005744445 0.03982495 0.012540787 0.015171291 -0.0051682526
-0.007174319 -0.005679454 0.015228192 -0.005544244 -0.0057520163 -0.0064291316 -0.0069898046 0.0047490597
-0.005590483 -0.0075969337 0.011276159 -0.0062789517 -0.0032314777 -0.004796588 -0.006289687 0.01294455
-0.005758226 -0.0031604604 -0.0130631365 0.058266006 -0.006736445 0.016909614 -0.006880371 0.013760448
0.016773546 -0.00553748 -0.006036604 -0.007027109 -0.005853817 -0.0059866607 -0.005116194 -0.005454219
0.0016590788 -0.005297019 -0.027116405 0.021624982
00000000: 23a2 973c a7f1 d6bb 998d b93b 1ab7 8d3c
00000010: f10c 783c 8192 2a3d cb99 5c3c 38bc 6e3c
00000020: b2ba acbb eb93 c7bb b936 bdbb 4504 243e
00000030: 88a9 e3bb eb7d a53c 25bc c0bb 86da dfbb
00000040: 0984 c7bb 9765 6f3c f86c 8f3a 809d 6d3e
00000050: 6317 b9bb c3ea 89ba a082 e1bb e1b2 babc
00000060: 5053 1cbc a159 1ebc 92f4 d6bb bb1f 283e
00000070: e745 f2bb 788e 4d3c 6651 b0bb 6f50 f1bb
00000080: 8ce5 cebb 9a95 d8bb 941e 7c3c 8897 8b3c
00000090: 1bfb 9bbc 72f7 c5bb 2926 f5bb 1584 f8bc
000000a0: b878 a6bc ec3a c1bb cec7 a4bb 6dc9 cbbb
000000b0: cded d9bb b541 133c 92ff bebb c42f a1bb
000000c0: 3530 fdbb 2200 b7bb 3dbe 913b 4feb 7d3c
000000d0: 6414 b5bb d03f c2bb 488e 2f3e 7316 ec3c
000000e0: 31af c8bb 21fa be3c dd79 503c e63b bcbb
000000f0: 7d1f 233d e077 4d3c 0291 783c 725a a9bb
00000100: 8d16 ebbb b71a babb ab7f 793c 7dac b5bb
00000110: 697b bcbb 77ab d2bb bb0a e5bb 009e 9b3b
00000120: 5f30 b7bb b3ef f8bb a4bf 383c aabf cdbb
00000130: 33c7 53bb b22c 9dbb b819 cebb 6115 543c
00000140: 80af bcbb ba1f 4fbb c406 56bc 56a8 6e3d
00000150: 65bd dcbb 0886 8a3c bc74 e1bb 8173 613c
00000160: ad68 893c c073 b5bb b4ce c5bb aa43 e6bb
00000170: 60d1 bfbb c02b c4bb bfa5 a7bb 4eb9 b2bb
00000180: 7275 d93a 9e92 adbb 3923 debc e026 b13c

encoder.6.weight f4 [20, 100]
-0.11405153 -0.049126998 0.009973953 -0.031531356 -0.01452445 0.2142058 0.036093127 -0.022546083
-0.034532025 0.08565902 0.009969977 0.00606266 0.011943435 -0.10172907 -0.058570776 -0.008020956
-0.029602664 -0.099965125 -0.0028294567 0.10236194 -0.039091844 0.014512666 -0.028089918 -0.02759881
0.073702924 -0.09592238 -0.062801294 -0.11362577 -0.0074407705 -0.016454106 -0.060485795 -0.05520211
-0.06021544 -0.041052807 0.061619088 0.23103298 0.04406455 -0.0012709793 0.020515086 0.033199202
-0.050187856 -0.057422187 -0.08862478 -0.050419215 -0.025289167 -0.028961431 0.026871817 0.0049469834
-0.030746201 -0.043460056 -0.07727376 -0.07498836 -0.065915234 -0.042309005 0.08696675 0.015513968
0.055820376 -0.08846234 0.072131075 0.042392027 0.17724033 -0.0838182 0.024489073 -0.06525817
0.017255392 -0.087300025 -0.056064177 -0.091932334 0.05138303 -0.08199424 0.048487116 0.046043128
-0.07291205 0.09215346 -0.08303882 -0.020850731 0.09241706 -0.015343136 0.027096896 -0.10406503
0.024686154 0.01518932 -0.048375644 0.18031107 -0.05058704 -0.016187038 0.08724635 0.015494562
-0.0045227674 -0.045022134 -0.024800748 -0.050646573 -0.07929 0.052723963 0.07672607 0.03676573
-0.06476313 0.05702986 0.02444279 0.048311103 0.2501447 -0.022497304 -0.013432683 -0.069369294
-0.07350399 0.22085284 0.065092266 0.10183033 0.07265424 -0.0024148582 -0.10137972 -0.13364798
0.031728685 0.10581626 -0.018342765 -0.04107039 -0.08011761 -0.016846444 0.007856952 -0.17346069
0.0333283 -0.022413336 -0.056302942 -0.029808382 0.060178187 -0.0032307827 -0.057445668 -0.10592113
0.003429097 0.008008826 0.075302206 0.0121317785 -0.018227326 -0.0032334074 -0.059331 0.19937402
0.080623254 0.075928904 -0.058065932 0.026139608 -0.029408604 0.055177428 0.024541952 -0.070274144
-0.08258082 0.071272045 0.049362533 -0.07839865 -0.0546345 0.05626148 -0.025606984 0.033987783
-0.034510147 -0.004554982 -0.08513925 -0.02626002 0.005270102 0.06974457 -0.032499995 -0.035632562
0.054889828 0.09355411 0.07183204 0.023317456 -0.081177585 0.040557023 0.021930357 0.035081957
0.052393388 0.037601434 -0.034136675 -0.0042903894 0.058101524 0.060126506 0.06547949 0.060778596
0.00966402 -0.05300997 -0.0003158367 0.10530514 0.060043182 -0.005675562 -0.054450173 0.052038807
-0.08153442 0.09549873 0.034029454 0.004057028 -0.046351478 -0.027004287 0.07744882 -0.07550856
-0.08693761 -0.024447482 0.0068477937 0.049701568 0.068172716 0.07907216 0.058202166 0.0635253
-0.0855633 -0.044773165 -0.080242366 0.03406506 -0.042011816 -0.54393065 -0.07691945 0.0003049353
-0.08487166 -0.021443667 -0.0044128736 0.2202986 0.090354785 -0.04227657 -0.09409606 -0.06989749
0.06643293 -0.064506575 -0.049126968 0.034401678 0.077655226 -0.14571297 0.074268654 0.09722261
-0.046093073 0.072209895 0.0011608391 0.19236286 -0.08350688 -0.002923899 -0.0035222655 0.055103708
0.09173141 -0.046914715 0.011195263 -0.51997316 0.052477095 0.041253164 -0.03532192 0.039553948
-0.05062243 0.019425116 -0.04429274 0.02144401 0.026394846 -0.114914596 -0.027505064 -0.10211001
0.07740128 0.00565269 0.06232673 -0.050896335 0.06637641 -0.063432805 0.16162118 0.031620473
00000000: d993 e9bd 6439 49bd ca69 233c 0627 01bd
00000010: f5f7 6dbc c458 5b3e 63d6 133d 90b2 b8bc
00000020: 7471 0dbd ff6d af3d 1d59 233c 47a9 c63b
00000030: 66ae 433c 5557 d0bd e9e7 6fbd 546a 03bc
00000040: 4981 f2bc 84ba ccbd 686e 39bb 23a3 d13d
00000050: c51e 20bd 88c6 6d3c d41c e6bc e616 e2bc
00000060: 8ff1 963d f472 c4bd f79d 80bd a1b4 e8bd
00000070: b5d1 f3bb c3ca 86bc f4bf 77bd 9c1b 62bd
00000080: 77a4 76bd fd26 28bd 4c64 7c3d e993 6c3e
00000090: 087d 343d fd96 a6ba 410f a83c e3fb 073d
000000a0: c891 4dbd 8733 6bbd e980 b5bd 6184 4ebd
000000b0: 3a2b cfbc 8640 edbc 4922 dc3c 4e1a a23b
000000c0: 75df fbbc 2c03 32bd b541 9ebd 7f93 99bd
000000d0: 91fe 86bd 354c 2dbd a01b b23d 4c2e 7e3c
000000e0: e8a3 643d be2b b5bd 75b9 933d 43a3 2d3d
000000f0: 7d7e 353e e0a8 abbd 4f9d c83c 13a6 85bd
00000100: 2e5b 8d3c 5bca b2bd 8da3 65bd 0547 bcbd
00000110: 0377 523d 99ec a7bd 6d9a 463d b897 3c3d
00000120: ea52 95bd f4ba bc3d 4210 aabd 27cf aabc
00000130: 2845 bd3d c761 7bbc 4ffa dd3c 0c20 d5bd
00000140: 9e3a ca3c a0dc 783c 8a25 46bd 77a3 383e
00000150: 5b34 4fbd ae9a 84bc 37ae b23d e7dc 7d3c
00000160: b933 94bb 2169 38bd f02a cbbc c872 4fbd
00000170: cc62 a2bd 15f5 573d 8f22 9d3d a997 163d
00000180: 88a2 84bd 2498 693d 3f3c c83c dde1 453d
00000190: f712 803e 444c b8bc c214 5cbc 7d11 8ebd
000001a0: 4389 96bd 3f27 623e 184f 853d 6c8c d03d
000001b0: bfcb 943d 9942 1ebb 2ca0 cfbd 04db 08be
000001c0: f0f5 013d 32b6 d83d 9143 96bc 6d39 28bd
000001d0: b414 a4bd 8e01 8abc 72ba 003c ae9f 31be
000001e0: 4183 083d 2c9c b7bc ea9d 66bd b530 f4bc
000001f0: 677d 763d 8abb 53bb 264c 6bbd 2ded d8bd
00000200: b3ba 603b 7337 033c 0b38 9a3d 5ec4 463c
00000210: 7951 95bc 93e7 53bb 1005 73bd b428 4c3e
00000220: ce1d a53d 9d80 9b3d 8bd6 6dbd bb22 d63c
00000230: 50ea f0bc ba01 623d 340c c93c e4eb 8fbd
00000240: 2220 a9bd 14f7 913d 5e30 4a3d 798f a0bd
00000250: 6dc8 5fbd 7072 663d bdc5 d1bc c636 0b3d
00000260: 835a 0dbd f541 95bb 7d5d aebd 411f d7bc
00000270: d2b0 ac3b 3ed6 8e3d b71e 05bd 73f3 11bd
00000280: 28d4 603d 4c99 bf3d ad1c 933d 4004 bf3c
00000290: 6f40 a6bd 1f1f 263d 4ba7 b33c 19b2 0f3d
000002a0: 739a 563d f603 1a3d e6d2 0bbd 6596 8cbb
000002b0: ddfb 6d3d 3647 763d 1c1a 863d faf2 783d
000002c0: d655 1e3c fb20 59bd e296 a5b9 39aa d73d
000002d0: d7ef 753d 11fa b9bb 2507 5fbd a526 553d
000002e0: 85fb a6bd d794 c33d 7862 0b3d d1f0 843b
000002f0: 0cdb 3dbd 1838 ddbc 7d9d 9e3d 3ba4 9abd
00000300: 580c b2bd 1646 c8bc 7563 e03b df93 4b3d
00000310: 239e 8b3d 96f0 a13d 6565 6e3d 8d19 823d
00000320: d03b afbd 1164 37bd 1c56 a4bd ce87 0b3d
00000330: 9514 2cbd 0a3f 0bbf f287 9dbd b9df 9f39
00000340: 31d1 adbd a1aa afbc de99 90bb f595 613e
00000350: ee0b b93d 322a 2dbd 6fb5 c0bd 6a26 8fbd
00000360: fd0d 883d 061c 84bd 5c39 49bd c6e8 0c3d
00000370: b409 9f3d c835 15be 2a1a 983d a61c c73d
00000380: 17cc 3cbd c8e2 933d 4c27 983a c5fa 443e
00000390: a805 abbd e39e 3fbb cfd5 66bb 6db4 613d
000003a0: addd bb3d a529 40bd 566c 373c f61c 05bf
000003b0: 39f2 563d 14f9 283d b8ad 10bd 5203 223d
000003c0: 7759 4fbd 6c21 9f3c 4e6c 35bd 59ab af3c
000003d0: 013a d83c 5858 ebbd 4d52 e1bc 0e1f d1bd
000003e0: 9084 9e3d 333a b93b 504a 7f3d ad78 50bd
000003f0: 5bf0 873d 0fe9 81bd 0680 253e 7884 013d

encoder.6.bias f4 [20]
-0.010290922 0.09769194 0.03383976 -0.06809018 -0.009260841 -0.0035265735 -0.056186393 0.028830606
-0.093000814 0.059369955 0.0066546104 0.016751694 -0.02634928 0.012899815 -0.05845543 0.04104427
-0.0075289197 0.051277302 0.04671913 -0.013836999
00000000: 419b 28bc b612 c83d 8f9b 0a3d dd72 8bbd
00000010: c8ba 17bc 161e 67bb b423 66bd 2a2e ec3c
00000020: 3677 bebd e92d 733d eb0e da3b d93a 893c
00000030: 72da d7bc bf59 533c f66e 6fbd 091e 283d
00000040: 28b5 f6bb 2608 523d 8f5c 3f3d 95b4 62bc
