models/VAE saves/best_dec_v4.pt (torch, 423007 bytes, 4 tensors)

decoder.0.weight f4 [86, 10]
000000 1f 2b 2f 39 ca 09 08 bc 95 a5 84 ba 94 06 a4 38
       0.00016705364 -0.008303115 -0.0010120148 7.821355e-05
000010 58 52 e0 3a 83 38 0b be ee c9 1a 3e ee f3 79 39
       0.0017114384 -0.13595776 0.15116093 0.00023837361
000020 33 3c 47 ba d7 22 d9 3c 84 37 1e 3b d1 76 f2 b9
       -0.0007600218 0.02650587 0.0024141977 -0.00046246362
000030 5f b0 06 3b f7 33 2e bb 0b 63 2b 3a db dd 8b 3e
       0.0020551903 -0.0026581266 0.0006537891 0.273177
000040 83 81 17 3d 97 d7 68 3b ec d6 90 3a ee 8d 45 3d
       0.036988746 0.0035528892 0.001105038 0.048231058
000050 6f 4d 9c 3a af 5e 71 3c 8f d9 2f 3a 0a 10 5b 3c
       0.0011924932 0.014732047 0.0006708139 0.013370523
000060 0f b9 1a 3a f3 75 fa 3c 61 b2 0a 3c db 84 e9 3a
       0.00059022097 0.03057382 0.00846538 0.0017816083
000070 2c ec ef 3b 95 a5 eb bb 13 ee 0f 3a 9c f1 02 3d
       0.007321855 -0.00719137 0.0005490493 0.031968698
000080 1e ef 4d 3b 64 4d 06 3c 45 ae f2 ba 72 45 6e 3d
       0.0031423043 0.008197162 -0.0018515071 0.058171697
000090 33 eb 5b 3b 4a d1 08 39 12 b2 9c bb b7 e6 9f bc
       0.0033556938 0.00013047937 -0.00478197 -0.019519193
0000a0 f0 f7 a2 ba 61 93 a9 bd c6 99 b5 bb f7 95 c1 3c
       -0.001243351 -0.082800634 -0.005542013 0.02363108
0000b0 a8 31 6b 3b 82 38 51 bc e6 56 a5 ba da 82 d1 39
       0.0035887752 -0.01276982 -0.0012614399 0.00039961078
0000c0 55 93 e3 3b 7d 4f 28 bd f4 de 19 3b fb 44 b8 3a
       0.0069450536 -0.04109143 0.0023478838 0.0014058644
0000d0 15 17 24 3a d9 18 9d bb f2 4f 10 3b 57 8a f3 bd
       0.0006259543 -0.004794222 0.0022020307 -0.118916206
0000e0 dc 66 76 3d 0f 95 8b b9 b1 0d 72 ba 09 55 bb bd
       0.060156688 -0.00026623203 -0.00092336076 -0.091470785
0000f0 c3 70 e0 bb 02 f2 7f bc 6f c7 99 bb 50 23 c4 3c
       -0.0068493797 -0.015621664 -0.004692964 0.02394262
000100 c0 fb 89 3b 62 4e 5a 3e 97 b4 db 3d 96 2d ad b9
       0.004210919 0.21318963 0.10727804 -0.00033031096
000110 9a ce 80 bb 75 52 2f 3d c7 a1 90 b9 42 ca dd 3c
       -0.003930879 0.042803247 -0.00027586354 0.027073983
000120 8d 91 af 3b 6c ae 25 3c 96 46 46 3b b5 ec 26 3e
       0.005357927 0.010112386 0.0030254475 0.16301234
000130 f5 45 c4 3d ca f6 5d 3b 78 63 53 bc dd 18 48 3c
       0.09583656 0.0033869022 -0.012902133 0.012212959
000140 8e bf 3f bb 66 fa 9a bb 7b ff c4 bb 20 63 14 bc
       -0.0029258463 -0.004729557 -0.006011901 -0.009056836
000150 29 85 bb bb aa 51 6c 3d d8 41 79 3b b1 34 f3 3a
       -0.005722661 0.05769507 0.003803363 0.0018555132
000160 66 62 3b 38 7d c7 62 3b a8 49 8b b8 a0 e5 f1 3d
       4.4675915e-05 0.0034603768 -6.641756e-05 0.118113756
000170 37 e0 0d bc c2 28 93 3b 0a 5c fd bb 1b 1b 6e 3e
       -0.008659414 0.0044909427 -0.007731919 0.23252527
000180 e7 4e 15 3d c0 87 6b 3b 6c 5a fb bc b1 57 4f bd
       0.0364522 0.0035939068 -0.030682765 -0.05062074
000190 3c 17 00 bb 75 1d f6 bc 22 02 70 bc 7c 64 6e 3c
       -0.0019545099 -0.030043343 -0.014648946 0.0145503245
0001a0 d1 76 c0 bb 02 a3 a2 3d 10 3f 70 3c 1f 90 1d 3a
       -0.005873539 0.079412475 0.014663473 0.00060105504
0001b0 df 69 88 bc 71 4b 92 bd 9f 3e e1 3b 8a 21 71 bd
       -0.016652046 -0.071432956 0.00687392 -0.058869876
0001c0 a4 05 39 3a c6 db c5 3b 79 bd 42 bb 1a 01 f1 bc
       0.00070580305 0.006038162 -0.0029714985 -0.02941947
0001d0 c6 3c 13 bd 8d ef cb ba 02 13 01 bb 9e 71 6a 3d
       -0.03594663 -0.0015559063 -0.0019695167 0.05723726
0001e0 d4 1e 26 bb b2 49 1d 3c 40 07 8b 39 67 74 0d bc
       -0.0025347965 0.00960009 0.00026517548 -0.0086337095
0001f0 45 c3 e5 39 c3 7a 7c 3d 9d 6d 32 bc f4 66 4f bb
       0.0004382377 0.061640512 -0.010890392 -0.0031647058
000200 73 d3 35 bc 3e 89 20 bc c1 ab dd ba 16 6b 0e bc
       -0.011097777 -0.009798346 -0.0016912149 -0.008692523
000210 55 ef 10 ba 28 31 5d bc b3 f0 75 ba 22 8a 50 3d
       -0.00055288273 -0.013500489 -0.0009381875 0.050912984
000220 c1 2d a1 bb f4 34 78 3b 3a fa 0e bc 07 1a 59 3b
       -0.0049187844 0.003787336 -0.008726651 0.0033127086
000230 03 e7 7d 3a 14 de 12 bd 02 f1 e3 3b ec 27 71 3c
       0.00096856075 -0.03585632 0.0069562206 0.014718991
000240 b8 b9 04 3c 65 2c 2f bd ab 75 af 3c bf 38 e9 bb
       0.008100919 -0.042766947 0.021418413 -0.0071173604
000250 ab f0 12 3d 15 ed c4 3c 77 b4 ce bb ea 34 40 3d
       0.03587405 0.02403883 -0.006308134 0.046925463
000260 5d 1c 14 bb 86 64 02 3c ae 3e c7 ba c8 5f c7 3d
       -0.0022599914 0.007958537 -0.0015201175 0.09735066
000270 b1 b0 93 3c e9 f1 80 3a de d0 6d bc 63 dd 2a bd
       0.018028589 0.000983772 -0.01451513 -0.041715037
000280 c5 33 88 3b b8 d0 9f 3c f3 c1 d7 b9 72 67 7a bc
       0.004156562 0.019508705 -0.000411525 -0.015283452
000290 b5 ff b7 3a ea 24 57 3c 2f d3 9b bc fe 06 41 bb
       0.0014037999 0.01313136 -0.019021599 -0.002945363
0002a0 ff 9e 6b bb 2b 7e a3 3d 36 5c 2b 3b a8 b5 cf bb
       -0.0035952923 0.07983049 0.0026147491 -0.006338794
0002b0 d6 ab 95 bb 8b e1 69 3c 78 4d 4e ba e7 93 81 3d
       -0.0045676036 0.014274965 -0.000786982 0.06327038
0002c0 fb 82 83 3c dc d6 b1 bb 5b f0 05 bc b6 ba 41 bd
       0.016053667 -0.0054272246 -0.008174981 -0.047297202
0002d0 30 9c ad 3a bc 5c 2f bb 6a 82 41 3b c7 80 ae bb
       0.00132454 -0.0026758155 0.0029527196 -0.00532541
0002e0 a4 f1 a5 3b e4 e1 dc bd 44 f5 2d 3b 7d 80 aa ba
       0.005064206 -0.10785273 0.0026543895 -0.0013008263
0002f0 27 56 69 3b 5b a9 19 be 6f 92 a5 3b 45 21 63 bd
       0.003560433 -0.1500601 0.0050528566 -0.05545165
000300 48 4f b8 b9 3b 7c 39 3c f8 a4 6f ba 07 3f 89 ba
       -0.00035154284 0.011321123 -0.0009141709 -0.0010471054
000310 25 0b 3b 3c 5f d7 f0 ba b3 b1 53 3c b0 24 15 bc
       0.011416231 -0.0018374732 0.012920785 -0.009102985
000320 b4 f2 de 3b 4a ea 9f bc bd fc 25 bb ef 62 4f 3a
       0.006803835 -0.019520897 -0.0025327646 0.00079111656
000330 ae b9 5b bb d1 fa 6c 3c a4 8c 80 bb f7 07 c7 38
       -0.0033527422 0.014464096 -0.0039230157 9.490543e-05
000340 89 ff 26 3b 17 25 06 3d 10 35 51 bb 90 38 8f bd
       0.00254819 0.032750215 -0.0031922497 -0.0699321
000350 97 6b 22 b9 69 4c 61 bb ae c9 32 bb a4 18 bc 3c
       -0.00015489604 -0.003437782 -0.0027280855 0.022960968
000360 08 a0 10 3a d5 5c 07 39 a5 34 5b b9 8a 73 15 bd
       0.00055170106 0.00012909186 -0.00020905079 -0.03648714
000370 09 c5 90 3a af c7 14 3b 2a d7 95 b9 f2 15 45 3c
       0.0011045049 0.0022702029 -0.00028579804 0.012029158
000380 d2 44 66 b9 1a b4 41 3e 03 8a 1b be fc 5c 3f 3b
       -0.00021960147 0.1891636 -0.15189366 0.002919971
000390 89 96 bc 3b 61 9e 33 3d 53 4c c7 ba fc 83 f1 bc
       0.00575525 0.043852214 -0.0015205242 -0.02948188
0003a0 c7 b1 2a ba d7 a6 dc 3a 74 e9 4c bb d5 4a d1 3d
       -0.0006511476 0.001683439 -0.0031267079 0.10219351
0003b0 f8 07 e2 bd 94 e4 a8 ba 4d b4 af 3b 34 ef 9d bc
       -0.11036676 -0.0012885504 0.0053620697 -0.0192791
0003c0 1e ae 2a ba 44 8d 7a bd c5 3a 9e bb 30 be 1b bc
       -0.0006510931 -0.061169878 -0.004828783 -0.009505793
0003d0 0d 7f 33 bc 99 02 f7 3d a6 95 37 3d c8 89 8d bb
       -0.010955584 0.12061042 0.04482045 -0.0043194033
0003e0 a5 5f 84 bc e2 1b c5 bd 24 88 bf 3a e2 ad 90 3d
       -0.016158888 -0.09624459 0.0014612717 0.070644155
0003f0 36 fa bf 3a 21 0d 56 bc f1 41 ac bb 37 37 f1 3d
       0.0014646712 -0.013064654 -0.0052568843 0.117781095

decoder.0.bias f4 [86]
000000 ba d9 c5 3d 70 88 06 3e 4d 7b 72 3e 95 66 7f 3e
       0.09660669 0.13137984 0.23679848 0.24941476
000010 6f 90 84 3e 64 18 8b 3d 48 65 73 3e 15 50 69 3e
       0.25891444 0.067917615 0.23769104 0.22784455
000020 99 57 86 3e a3 ef 88 3e 35 6c 9d 3e f6 7d 6a 3e
       0.26238707 0.26745328 0.30746618 0.22899613
000030 0c 7d 6d 3e 69 0f 85 3e 99 f6 9f 3e 4b b5 87 3e
       0.23192233 0.2598832 0.31242827 0.26505503
000040 71 4a 67 3e fc 50 9b 3e 2f 04 bd ba fc c7 93 3e
       0.22586991 0.30335224 -0.0014420802 0.28863513
000050 6b 00 8a 3e cf 2e 9d 3e db 01 bb 3d 7d 24 0a 3e
       0.26953444 0.30699775 0.09131213 0.13490482
000060 b7 87 a3 3e 77 35 91 3e f6 46 55 3e 55 de 54 3e
       0.3193948 0.28361103 0.2082785 0.20787938
000070 7a df 92 3e 19 50 98 3e bc 1d 8d 3e ae 2c 5e 3e
       0.28686124 0.2974861 0.27561748 0.21696731
000080 2c 3b a4 3e 05 94 96 3e 32 ff 6d 3e d5 bb 6f 3e
       0.32076395 0.29409805 0.2324188 0.23411496
000090 df 9f 34 3e d2 65 6c 3e eb 21 7a 3e 00 7e 7b 3e
       0.17639111 0.23085716 0.24427001 0.24559784
0000a0 f3 29 9c 3e f1 95 78 3d d5 f3 5f bd b1 1e a6 3e
       0.30500755 0.06068987 -0.054675896 0.3244529
0000b0 d2 1f 6f 3e 87 ce 8a 3e 82 46 96 3e 36 00 2e 3e
       0.23351982 0.27110693 0.29350668 0.16992268
0000c0 e0 79 9b 3e a7 0b 55 3e ef 15 76 3e d1 0c 94 3d
       0.3036642 0.20805226 0.24031805 0.07229007
0000d0 d9 0b 98 3e 72 26 43 3e 16 5c 52 3e 2d 57 81 3d
       0.2969654 0.19057634 0.2054294 0.063154556
0000e0 9d 62 82 3e bc a6 86 3e 95 5e 98 3e fe b7 2c 3e
       0.2546586 0.26299083 0.2975966 0.16867062
0000f0 34 55 8f 3e 64 6c 47 3d b1 06 87 3e f5 d2 80 3e
       0.27994692 0.048687354 0.26372293 0.25160947
000100 db 5a 47 3e 71 33 24 bc 48 e9 9b 3e e4 cb 77 3e
       0.19468252 -0.01002203 0.30451417 0.24198872
000110 43 3a b0 3d a7 5c 23 3e 2f d9 8d 3e e2 49 80 3e
       0.086048625 0.15953313 0.2770476 0.25056368
000120 18 f5 94 3e 29 87 85 3e 18 8b 8f 3e 12 df 8d 3e
       0.29093242 0.26079682 0.28035808 0.27709252
000130 8d db 9a 3e d9 78 32 be 09 44 a1 3e 62 52 f9 3d
       0.3024563 -0.17428912 0.3149722 0.121739164
000140 10 42 33 bd 27 ca 25 3e 3f 3c 67 3e 4d 94 60 3e
       -0.043764174 0.16190396 0.22581576 0.21931572
000150 93 52 e0 bb a2 71 86 3e
       -0.006845781 0.2625857

decoder.3.weight f4 [1200, 86]
000000 09 d1 16 ba f3 ed 47 39 be a2 50 37 9a 21 81 b8
       -0.00057531946 0.00019066762 1.24356575e-05 -6.157458e-05
000010 4f 30 d4 b8 c1 f8 99 ba 6a 96 c9 39 df fb 77 39
       -0.00010117946 -0.0011747108 0.00038449775 0.00023649585
000020 5e 8b 01 39 4a 3e f5 38 3c ae e6 37 8f a4 f7 37
       0.00012354317 0.000116941126 2.749927e-05 2.9521323e-05
000030 cf 11 d2 b8 13 5e 15 38 16 45 8b 38 47 7f e7 38
       -0.000100168974 3.561198e-05 6.640905e-05 0.000110386456
000040 0f 98 d7 36 4a 1d 16 b9 f1 17 e5 b5 b0 66 63 38
       6.4252013e-06 -0.00014316026 -1.7068797e-06 5.4216653e-05
000050 2c 99 d8 b7 cf 6b 54 b7 60 b4 90 38 a8 9d 27 b9
       -2.5820533e-05 -1.2661286e-05 6.9000525e-05 -0.00015985093
000060 ae a9 31 39 9f 74 3f 36 23 54 57 39 32 4e 67 38
       0.00016943246 2.85291e-06 0.00020535341 5.5147517e-05
000070 cc 76 07 39 55 ac 5d 38 2c 2e fc 37 bd b1 8e 38
       0.00012918859 5.2851003e-05 3.0062241e-05 6.804194e-05
000080 2a 27 e7 37 ca 8e 10 39 86 e5 d1 b6 4e bf 91 38
       2.7555583e-05 0.00013786103 -6.2554054e-06 6.949772e-05
000090 57 1b 2f 37 8b 74 3d 39 2e 0d 48 b8 15 07 2b 38
       1.0437178e-05 0.0001806786 -4.769599e-05 4.0776173e-05
0000a0 58 2f 88 b8 45 b8 85 ba fa 2d fd b9 99 67 20 b8
       -6.493804e-05 -0.0010202011 -0.00048290176 -3.8243455e-05
0000b0 aa 27 a6 38 75 b6 96 b8 42 f8 69 39 bf f7 f1 b7
       7.922885e-05 -7.186543e-05 0.00022313095 -2.8844805e-05
0000c0 c5 ca c0 38 d4 26 d9 b8 ad 96 f1 b8 65 4e 25 ba
       9.193042e-05 -0.000103545986 -0.00011519841 -0.0006305932
0000d0 43 6e d2 35 6c d3 80 39 3e d8 08 38 6f 52 cc ba
       1.567831e-06 0.00024571584 3.2626318e-05 -0.0015588532
0000e0 91 21 36 39 7a 37 a2 b6 6c b9 c3 38 3c 60 fa 38
       0.00017369377 -4.8344345e-06 9.332862e-05 0.00011938854
0000f0 66 0a be 38 41 9c 56 ba f6 6f a9 37 f1 9e c9 37
       9.061843e-05 -0.0008186736 2.0198506e-05 2.403508e-05
000100 50 1d 41 39 ec 53 23 bb cd 60 54 b8 e1 ba dc b7
       0.00018416834 -0.0024921848 -5.063489e-05 -2.6313066e-05
000110 a4 3e 59 ba d8 70 41 3a bd 9e cd b8 23 e4 b1 38
       -0.0008287227 0.0007379181 -9.804729e-05 8.4825115e-05
000120 dc cb 7f 39 44 df 3f 37 4a f3 0b 39 e0 3b 80 38
       0.00024394639 1.143647e-05 0.00013346705 6.114668e-05
000130 e0 bc 11 b8 f2 f4 11 bb 23 c4 5f b7 ec 15 a1 39
       -3.4746598e-05 -0.0022271243 -1.3337502e-05 0.00030724646
000140 0b e9 07 ba 6f 8b 20 39 83 01 a6 35 fa d2 a2 b8
       -0.00051845674 0.00015310732 1.2368404e-06 -7.7640594e-05
000150 76 9b db b9 c5 01 6c b8 89 c2 2d ba 8b 81 8c 39
       -0.00041886762 -5.6268433e-05 -0.0006628414 0.00026799398
000160 1f 2d 11 38 68 d3 35 b8 79 64 69 b8 ec 2a 93 ba
       3.4612716e-05 -4.335065e-05 -5.56451e-05 -0.0011228002
000170 9f d2 f2 39 0d bb 92 39 98 08 e0 37 2c 67 90 37
       0.00046314762 0.00027986654 2.6706883e-05 1.721418e-05
000180 bc bd bc 37 ac ae ec b7 34 3f ab b8 d4 90 eb b7
       2.2499698e-05 -2.821473e-05 -8.165688e-05 -2.8081624e-05
000190 49 ed 3a 38 75 33 6e 38 13 1d fa 38 0c 80 1c b9
       4.4566845e-05 5.6791545e-05 0.000119263445 -0.0001492502
0001a0 da 76 44 b8 3c 07 46 38 ea 0e 87 b7 66 d7 85 b7
       -4.684073e-05 4.7213616e-05 -1.6100199e-05 -1.5955138e-05
0001b0 aa 44 3f b8 b2 40 6f b8 19 11 21 39 53 cc 8c 38
       -4.5601897e-05 -5.7042293e-05 0.00015360526 6.7137786e-05
0001c0 c1 9e 9f 39 6a 4a 95 38 04 df 4b 39 12 02 87 b7
       0.00030445124 7.118734e-05 0.00019442668 -1.6094218e-05
0001d0 e2 6a 01 b7 c5 5b e5 38 91 7a 02 39 3a 60 f3 38
       -7.713885e-06 0.00010936664 0.00012443426 0.000116050665
0001e0 e5 6b d7 37 52 5c c6 38 39 59 a7 b7 89 8f 90 39
       2.568024e-05 9.458572e-05 -1.9949499e-05 0.00027572762
0001f0 15 7e 01 b8 55 c5 82 b7 60 00 ef b8 e7 18 91 ba
       -3.087342e-05 -1.5589098e-05 -0.00011396478 -0.0011070044
000200 ba 96 84 b9 6f 1e bb 37 e9 3a ac 38 e9 1a f0 b8
       -0.00025289302 2.2306309e-05 8.212572e-05 -0.00011449104
000210 36 10 43 39 23 98 46 b8 62 d6 fa 38 41 7f 9f 38
       0.00018602688 -4.7348567e-05 0.00011960861 7.605414e-05
000220 0a 53 7d 37 5a 74 3a ba 43 fd 13 b8 7e 53 90 39
       1.5099309e-05 -0.00071126746 -3.52834e-05 0.00027528027
000230 31 29 86 38 f9 3f cf ba 5f 1f cc 38 4d 1c e0 37
       6.3972904e-05 -0.0015811912 9.733321e-05 2.671606e-05
000240 2f f5 58 38 79 e2 8c 39 4a 08 30 39 87 52 84 ba
       5.1726758e-05 0.00026871616 0.00016787756 -0.0010095396
000250 a2 87 ae 37 2d d7 7b 37 e6 0d 3b 39 84 0f 2e bb
       2.0805575e-05 1.5010865e-05 0.00017838887 -0.002655954
000260 c2 59 ea b7 aa a4 a6 b6 ac 33 87 ba 69 f3 37 3a
       -2.793677e-05 -4.966355e-06 -0.0010315082 0.0007017167
000270 dc 37 18 b9 27 87 80 38 c3 5c 9c 39 88 22 cc b6
       -0.00014516659 6.12869e-05 0.00029823752 -6.0836937e-06
000280 a3 73 13 39 02 43 9f 38 e3 b3 40 38 fb b3 1f bb
       0.0001406209 7.594192e-05 4.59439e-05 -0.0024368751
000290 ab 38 2c 38 ce 2c a3 39 7a b9 14 ba df 35 5b 39
       4.106077e-05 0.00031123165 -0.000567339 0.00020905536
0002a0 0c 8e 08 38 40 b2 aa b7 39 03 53 ba 71 51 2e 38
       3.255722e-05 -2.0348583e-05 -0.00080494914 4.156068e-05
0002b0 b7 2e 33 ba fd 63 a5 39 82 43 0d 39 d7 90 8c 38
       -0.0006835269 0.0003154575 0.00013471956 6.702699e-05
0002c0 1b 12 a5 37 7d 7f 9e ba 5c 05 e2 39 b2 0a 7c 39
       1.9677964e-05 -0.0012092438 0.00043110072 0.00024036577
0002d0 cf 36 41 38 55 4f 53 38 c1 dd 43 38 33 d9 8c 38
       4.606583e-05 5.0380204e-05 4.6698147e-05 6.716177e-05
0002e0 21 25 d7 b8 08 2e 99 b8 b0 39 7c 37 8e 65 a4 38
       -0.00010258915 -7.3041825e-05 1.5033802e-05 7.8390454e-05
0002f0 c6 a7 28 39 38 4f 95 b8 bd 1a 6e b9 14 0d e0 37
       0.00016084229 -7.119629e-05 -0.0002270741 2.670897e-05
000300 cb 58 fc 38 c4 86 31 38 8d 23 ae 38 c8 08 db 37
       0.000120328354 4.23256e-05 8.3035884e-05 2.6110923e-05
000310 fc 39 8d 38 c9 d2 0c 39 2f e4 86 39 cd 33 25 39
       6.734204e-05 0.00013429964 0.00025728482 0.00015754924
000320 a0 e7 47 39 13 1b dc 37 a2 84 40 37 ce 2e 05 39
       0.00019064406 2.6238651e-05 1.1474973e-05 0.00012701305
000330 88 3d df 38 d3 02 94 38 42 d6 1c 39 f4 a8 5f 39
       0.0001064493 7.057716e-05 0.00014957137 0.00021329877
000340 28 45 7f b8 85 06 b0 39 2c 6b 96 37 bd 5f bb 38
       -6.0861144e-05 0.00033574193 1.79313e-05 8.9346875e-05
000350 e3 79 51 b8 18 ee 7f ba ce 54 77 39 5b 02 5b 37
       -4.9943e-05 -0.0009762957 0.00023587348 1.3053966e-05
000360 64 2f fc 38 2c eb ac b7 81 32 53 39 aa 94 29 37
       0.000120251236 -2.0613508e-05 0.00020141342 1.01077985e-05
000370 0d 92 25 39 8f ef e3 37 01 1e 1c 39 31 23 5d ba
       0.00015790034 2.7172062e-05 0.00014888497 -0.0008435725
000380 74 66 ec b6 aa 1d b2 39 56 c0 0f 39 17 e5 eb ba
       -7.045275e-06 0.00033972907 0.00013709193 -0.0017997351
000390 64 95 1b 39 ff fc 62 b7 46 6f bd 38 77 b7 9f 39
       0.00014837604 -1.3529555e-05 9.0329486e-05 0.00030463535
0003a0 ca 55 7f 39 91 e6 29 ba 98 8f 10 b7 e2 65 b0 38
       0.00024350654 -0.00064811955 -8.616502e-06 8.411311e-05
0003b0 f5 a7 61 39 b1 d4 29 bb ca a9 91 37 ae 10 a1 38
       0.00021520241 -0.0025914127 1.7364411e-05 7.680185e-05
0003c0 c1 67 7f ba 7d 03 5c 3a 61 a1 27 b9 e2 b7 28 38
       -0.00097429386 0.0008392854 -0.0001598648 4.0225576e-05
0003d0 8b 5b 8f 39 ca c3 43 38 58 f4 52 39 56 83 cd 38
       0.0002734329 4.6673966e-05 0.00020118186 9.799625e-05
0003e0 1e 38 de 38 9b 37 17 bb 81 8b ce 38 a4 48 a0 39
       0.000105962376 -0.0023073915 9.84883e-05 0.000305717
0003f0 45 bf 0a ba 0a 4e a3 39 cd 90 d1 38 09 02 68 b7
       -0.00052927836 0.00031147926 9.992868e-05 -1.3828751e-05

decoder.3.bias f4 [1200]
000000 65 ee 06 bb e0 fe fc ba f9 e7 04 bb d5 c5 00 bb
       -0.0020588872 -0.0019302033 -0.0020279868 -0.0019649167
000010 de d0 00 bb 16 3b f7 ba aa b2 f1 ba 95 d8 04 bb
       -0.0019655745 -0.0018862213 -0.0018440087 -0.0020270695
000020 a5 f7 03 bb 22 e3 fe ba 25 47 f0 ba 96 b3 f0 ba
       -0.0020136621 -0.0019446353 -0.001833175 -0.0018364068
000030 ee bf f2 ba bb ba d8 ba 8e 5f d5 ba 15 5e ea ba
       -0.0018520334 -0.0016535142 -0.0016279088 -0.0017880822
000040 37 0c e3 ba 6d af db ba 43 26 cd ba 3f af cd ba
       -0.0017322366 -0.0016760655 -0.0015651662 -0.0015692486
000050 5f 75 ed ba fb 61 c0 ba c3 cf 9b ba 1d da 8c ba
       -0.0018116644 -0.0014677638 -0.0011887479 -0.0010746155
000060 d6 ce 1f ba a1 04 ac b9 77 03 75 ba ee e4 1a bb
       -0.00060961896 -0.00032809845 -0.00093465246 -0.0023634988
000070 88 46 95 bb 43 02 00 bc 54 50 48 bc 69 7b 6f bc
       -0.004555527 -0.007813039 -0.012226183 -0.014616826
000080 fc f3 71 bc 20 10 4a bc d4 34 0e bc 2e 49 a3 bb
       -0.014767643 -0.012332946 -0.008679587 -0.004983089
000090 8b e4 19 bb 0b 60 22 ba 89 02 a6 39 ac 2a 52 3a
       -0.002348217 -0.0006194121 0.00031663876 0.0008017223
0000a0 4b 86 39 3a 77 ab 04 3a ab 5b 8b 38 03 04 a7 b9
       0.0007077201 0.00050609506 6.645111e-05 -0.0003185571
0000b0 48 f8 0a ba 01 ee 35 ba c3 19 57 ba 19 df 85 ba
       -0.0005301279 -0.00069400674 -0.0008205438 -0.0010213583
0000c0 3f 88 9d ba bb 27 ce ba 7a a3 df ba 14 21 be ba
       -0.0012018754 -0.0015728393 -0.001706227 -0.0014505708
0000d0 c2 4f bd ba 1c 30 c6 ba c3 5c c6 ba 54 2a cc ba
       -0.0014443325 -0.0015120539 -0.0015133846 -0.001557658
0000e0 4b 74 bb ba 31 92 d4 ba cf 3e a9 ba fc 26 b2 ba
       -0.0014301626 -0.0016217885 -0.0012912395 -0.001359194
0000f0 1f f3 00 bb c7 83 f2 ba c1 de ff ba a7 e0 05 bb
       -0.0019676161 -0.0018502407 -0.0019521342 -0.0020428093
000100 9b c6 08 bb c0 c9 06 bb 50 36 0a bb 24 eb 01 bb
       -0.0020870331 -0.002056703 -0.0021089502 -0.0019823993
000110 77 8f 04 bb 59 ba 03 bb 8c 00 03 bb 5d e8 fe ba
       -0.0020227113 -0.0020100086 -0.001998934 -0.0019447912
000120 59 21 da ba dd ac c2 ba 3f e2 bb ba 4e ac c6 ba
       -0.0016642018 -0.0014852543 -0.0014334394 -0.0015157552
000130 72 66 d4 ba ff 47 d0 ba e4 f6 d8 ba 34 bf ba ba
       -0.0016204847 -0.0015890597 -0.0016553071 -0.0014247657
000140 f7 37 ba ba d6 08 c3 ba dd 53 86 ba 9f 4a b4 b9
       -0.0014207353 -0.0014879953 -0.0010248382 -0.00034387872
000150 66 7e aa 39 6b 84 25 3a 17 db 7f b7 79 26 2b bb
       0.000325191 0.00063139823 -1.5250195e-05 -0.002611546
000160 f6 2a 00 bc d4 8c 7f bc 51 a6 b3 bc fa 65 ba bc
       -0.007822743 -0.015597541 -0.021929892 -0.022753704
000170 b0 f0 9c bc 3c 9d 69 bc e8 b3 0d bc 1e c7 7f bb
       -0.019157737 -0.014258679 -0.00864885 -0.0039028595
000180 a5 31 3c ba a0 d5 84 3a 35 74 d1 3a d1 0a e4 3a
       -0.00071790285 0.0010134466 0.0015980067 0.0017398243
000190 d6 e9 be 3a 5d 88 ab 3a af 5c 59 3a 2d f9 ff 39
       0.0014565538 0.0013086904 0.0008291704 0.0004882304
0001a0 59 5b c0 38 d8 be 01 b9 66 6e 9c b9 19 c4 24 ba
       9.172288e-05 -0.00012373494 -0.00029836892 -0.00062853243
0001b0 0e a2 58 ba d4 ea 8b ba 54 96 9f ba c2 ed 8c ba
       -0.0008263894 -0.0010674843 -0.0012175539 -0.001075201
0001c0 20 d5 80 ba cd 45 84 ba 83 40 9f ba 6a b5 99 ba
       -0.0009829141 -0.0010091603 -0.0012149963 -0.0011727039
0001d0 62 f2 92 ba d3 e0 76 ba c5 d2 77 ba e3 19 4e ba
       -0.0011211152 -0.00094176567 -0.00094537094 -0.0007862134
0001e0 bf b6 fe ba 45 bd ef ba 05 4f e7 ba 6d b2 e6 ba
       -0.0019433125 -0.001829066 -0.0017647451 -0.0017600782
0001f0 b4 7a f6 ba 50 06 f1 ba 65 a5 fd ba 10 ff ed ba
       -0.0018804879 -0.0018388722 -0.001935166 -0.001815768
000200 b2 18 01 bb f0 37 00 bb 95 55 00 bb 70 90 e6 ba
       -0.0019698557 -0.0019564591 -0.001958226 -0.0017590653
000210 25 df de ba 93 4c dd ba b5 16 c2 ba a4 8d aa ba
       -0.0017003758 -0.0016883783 -0.0014807793 -0.0013012183
000220 d3 e7 98 ba 25 8d a4 ba 2a 33 b1 ba a8 e1 c1 ba
       -0.0011665769 -0.0012554271 -0.0013519276 -0.0014791982
000230 4f 07 c7 ba 21 b2 a9 ba b3 31 50 ba 39 e8 44 b9
       -0.0015184673 -0.0012946763 -0.0007941976 -0.00018778526
000240 2d 0c 3f 3a e0 65 e9 3a 37 e3 c3 3a 59 cb 0a 39
       0.0007287886 0.001780685 0.0014945035 0.00013236458
000250 cf 16 66 bb 33 43 3b bc 1a 2e ab bc 45 7b bb bc
       -0.003510881 -0.011429596 -0.020896006 -0.022885928
000260 a4 24 ac bc 94 e5 82 bc ac df 1d bc f2 e8 6a bb
       -0.021013565 -0.015978612 -0.009635847 -0.0035844413
000270 de 3a 91 39 2c bd 0e 3b c8 22 32 3b e7 0e 28 3b
       0.00027700415 0.0021780236 0.0027181376 0.0025643648
000280 21 9e 03 3b ae 52 b9 3a 4f 75 65 3a 26 46 82 39
       0.0020083266 0.001413902 0.0008753137 0.00024847797
000290 74 84 9a b9 d2 c9 40 ba 52 d5 8b ba 9d 08 aa ba
       -0.00029471854 -0.00073542923 -0.0010668433 -0.0012972538
0002a0 d5 3e ad ba 1b db dc ba 00 f8 e5 ba 4f c4 e5 ba
       -0.0013217578 -0.0016849966 -0.0017545223 -0.0017529818
0002b0 70 b3 f1 ba 43 5f f5 ba 09 08 ea ba 75 16 d6 ba
       -0.0018440317 -0.0018720407 -0.0017855178 -0.0016333597
0002c0 4a cf bb ba b1 29 a9 ba 5f 96 b5 ba 0d fc b4 ba
       -0.0014328745 -0.0012906102 -0.0013854018 -0.0013808027
0002d0 50 77 10 bb f0 66 11 bb 92 d0 0e bb 16 62 09 bb
       -0.0022043772 -0.00221866 -0.0021791798 -0.0020963005
0002e0 2c 43 01 bb 6a 2f 0f bb 10 f7 15 bb d7 b2 16 bb
       -0.0019723875 -0.002184833 -0.0022882856 -0.002299478
0002f0 e7 3c 16 bb 22 9d 0f bb e5 81 f3 ba 6a 7d 06 bb
       -0.0022924484 -0.0021913727 -0.001857814 -0.002052153
000300 d1 ba eb ba e9 9a d6 ba 11 42 c3 ba e5 47 ce ba
       -0.0017984753 -0.0016373071 -0.0014897009 -0.0015737979
000310 dd fe b0 ba 7d 61 c5 ba 8c 03 b7 ba a5 d0 b9 ba
       -0.001350369 -0.0015058961 -0.0013962849 -0.0014176561
000320 0e ed bf ba d3 3c b7 ba 9a d7 8d ba 0f 7d 87 b9
       -0.0014642791 -0.0013979919 -0.00108217 -0.00025842382
000330 8e 52 60 3a bb 7e 08 3b fb 6b 21 3b b9 9b 50 3a
       0.00085572235 0.002082749 0.0024631012 0.0007957775
000340 95 ce 00 bc 09 53 b0 bc d6 81 0c bd 74 64 11 bd
       -0.007861753 -0.02152397 -0.03430351 -0.03549619
000350 32 35 f4 bc 96 57 b1 bc 03 50 52 bc 3e 1d 97 bb
       -0.029810522 -0.02164821 -0.012836459 -0.0046116402
000360 b6 7a 26 3a f8 b3 5b 3b c0 0f 92 3b 35 2b 87 3b
       0.0006350683 0.0033524018 0.004457444 0.0041250237
000370 85 08 5b 3b 04 16 15 3b 4b 51 bc 3a 76 ac 1c 3a
       0.0033421826 0.0022748718 0.0014367489 0.00059766264
000380 31 89 29 39 37 16 29 b9 5e 62 c9 b9 e1 c4 26 ba
       0.00016168204 -0.00016125372 -0.00038410997 -0.00063617347
000390 e3 0f 44 ba 2f bb 84 ba 11 6b a1 ba 73 98 a7 ba
       -0.0007479174 -0.0010126586 -0.0012315233 -0.0012786522
0003a0 bf 2a bb ba 54 48 c3 ba c0 f6 c4 ba b5 1f c1 ba
       -0.0014279707 -0.0014898875 -0.001502715 -0.0014734181
0003b0 c5 7b bc ba 3f 08 9d ba 72 71 a4 ba c3 b8 91 ba
       -0.0014380148 -0.0011980607 -0.0012546016 -0.0011117685
0003c0 e4 07 03 bb c1 3c f8 ba eb d4 fb ba 2a f9 02 bb
       -0.0019993717 -0.0018939005 -0.0019213235 -0.001998494
0003d0 55 0f 04 bb 24 95 0a bb 5e 61 03 bb b7 5b 02 bb
       -0.002015074 -0.0021146024 -0.002004705 -0.0019891092
0003e0 e8 cb 01 bb 93 e4 01 bb 41 cb f2 ba 24 89 d8 ba
       -0.0019805375 -0.0019820079 -0.0018523709 -0.0016520363
0003f0 7a 4b c1 ba 5c d5 ac ba 92 ff b4 ba 98 d0 bd ba
       -0.0014747225 -0.0013186145 -0.0013809076 -0.0014481721
