models/VAE saves/old_encoder_best.pt (torch, 568855 bytes, 6 tensors)

fc1.weight f4 [200, 600]
-0.120557 -0.16437685 -0.1273654 -0.110404685 -0.05310097 -0.018313453 -0.01840612 -0.04337884
0.0066138045 -0.02962703 0.022164697 -0.008403473 -0.0028979587 0.003966183 -0.033300508 -0.10873829
-0.067379855 -0.029421577 0.02230845 -0.071719974 -0.08339438 -0.06850857 -0.008210294 0.074319415
0.038229287 0.09611107 0.022128567 -0.01632511 -0.015988534 0.012015311 0.018139407 -0.0232997
-0.008341165 -0.03987673 -0.038253643 -0.0906668 -0.053943317 -0.024531526 -0.015027573 -0.057087153
-0.049255297 -0.024344077 -0.021865692 -0.05500369 -0.015062824 -0.03609511 -0.016427929 -0.036471616
0.0041596764 0.018839886 0.04170023 0.00956757 0.0054570497 0.053930875 0.0366981 -0.031994298
-0.015661502 0.021242684 -0.005034734 0.006315993 -0.115009785 -0.1430599 -0.057652324 -0.06444302
-0.011876937 -0.04304272 -0.0074879476 -0.047520723 0.011101818 -0.050184038 0.032145113 0.028299369
0.024310496 -0.03733543 -0.0314767 -0.069574766 -0.015764192 -0.064738214 -0.04549852 0.019009162
-0.02848222 0.027271885 0.023299983 0.053170763 0.013001511 -0.081466526 -0.05109734 -0.031558495
0.0462167 0.08291315 0.081110254 0.025036685 0.004938116 -0.029859291 -0.0143711725 -0.061276242
0.0486339 0.0323911 0.041571286 0.00080034917 0.060653467 -0.0031860787 0.048580393 -0.026150007
-0.010367463 0.009022985 0.030518826 -0.033267763 -0.011335634 0.03199562 0.014886709 0.013353206
-0.035896163 -0.03808109 -0.055207763 -0.12767103 -0.109393425 -0.14391671 -0.08632706 -0.11471791
-0.06716568 -0.11611723 -0.11584672 -0.092681944 -0.013424243 -0.060909353 -0.03900141 -0.056459364
0.008213985 0.019872788 0.002237235 0.05643287 0.03400063 -0.007898506 0.012799408 0.014155612
0.013311927 0.07634944 0.044227906 -0.031441994 -0.029427946 -0.00608982 0.07014378 0.07222578
0.08827442 0.11218858 0.057827376 0.074140206 0.016873216 0.010165889 -0.027688557 -0.013279575
0.011283232 0.02469921 -0.019694334 -0.066882335 -0.08394824 -0.09277457 -0.08860867 -0.016727135
-0.04769845 0.017413724 0.042842016 0.054654025 0.044896305 -0.012558164 0.031526886 0.007313907
-0.035732184 -0.037641633 -0.019697428 -0.026139935 0.022369722 0.002431492 -0.07412225 -0.0828964
-0.022849875 -0.039528824 -0.09671828 -0.076093875 -0.083702214 -0.11953265 -0.0795568 -0.11268536
-0.08309933 -0.10282017 -0.0340273 -0.08961838 -0.039738223 -0.067559 -0.016497325 -0.010351122
-0.036150627 -0.007468055 -0.041264456 -0.056816593 -0.035177067 -0.046660323 -0.02261416 -0.0099079935
-0.030091193 -0.021160945 0.015854958 0.06666429 0.0437943 -0.023879193 -0.056281727 -0.089188315
-0.060358588 -0.011586498 0.046087913 -0.04170235 -0.0008891541 -0.012850047 0.031689223 0.008747732
0.066203 0.031017855 0.0014403826 0.02636536 0.003867853 -0.018654546 0.057631254 0.012409962
0.026802577 0.017591776 -0.0033797803 0.00952226 0.008351651 -0.0038119904 -0.049253657 -0.04748263
-0.046018213 -0.044377122 -0.037106685 -0.02608366 -0.084812924 -0.06592304 -0.018703561 -0.075050786
-0.06450079 -0.06223425 -0.016815316 -0.047785655 0.026590893 0.024064163 0.020232137 0.019354548
-0.0204852 -0.004324994 0.06738912 0.08741863 0.069401726 0.053043697 0.07116936 0.038080808
00000000: 97e6 f6bd 6852 28be 136c 02be da1b e2bd
00000010: 6780 59bd 1806 96bc 6ec8 96bc 03ae 31bd
00000020: 9db8 d83b 63b4 f2bc bd92 b53c b8ae 09bc
00000030: aeeb 3dbb c1f6 813b 1d66 08bd 2eb2 debd
00000040: 73fe 89bd 8505 f1bc 36c0 b63c ece1 92bd
00000050: acca aabd 394e 8cbd 7884 06bc c734 983d
00000060: 5096 1c3d e1d5 c43d f846 b53c 3dbc 85bc
00000070: 63fa 82bc dedb 443c 1899 943c 03df bebc
00000080: 62a9 08bc c855 23bd daaf 1cbd 84af b9bd
00000090: abf3 5cbd 57f6 c8bc 3636 76bc 38d4 69bd
000000a0: ecbf 49bd 3b6d c7bc ae1f b3bc 8d4b 61bd
000000b0: 10ca 76bc 77d8 13bd dd93 86bc 4363 15bd
000000c0: e54d 883b 1b56 9a3c dccd 2a3d 4cc1 1c3c
000000d0: 0dd1 b23b 9fe6 5c3d bf50 163d 740c 03bd
000000e0: 8d4c 80bc 2305 ae3c 69fa a4bb 64f6 ce3b
000000f0: 408a ebbd 4b7e 12be d824 6cbd b4fa 83bd
00000100: 7c97 42bc 904d 30bd 755d f5bb 17a5 42bd
00000110: 66e4 353c c78d 4dbd 98aa 033d 14d4 e73c
00000120: ce26 c73c 09ed 18bd b6ed 00bd 377d 8ebd
00000130: e823 81bc 7895 84bd a85c 3abd 1ab9 9b3c
00000140: 8b53 e9bc 4a69 df3c 9bdf be3c 96c9 593d
00000150: 4a04 553c ecd7 a6bd 724b 51bd 7b43 01bd
00000160: b94d 3d3d 5fce a93d 221d a63d bc19 cd3c
00000170: ebcf a13b 799b f4bc 1175 6bbc ccfc 7abd
00000180: 5734 473d 88ac 043d a746 2a3d 86ce 513a
00000190: c56f 783d 88cd 50bb 3cfc 463d 8a38 d6bc
000001a0: 4bdc 29bc 24d5 133c 9e02 fa3c c743 08bd
000001b0: 18b9 39bc d70d 033d 62e7 733c 68c7 5a3c
000001c0: db07 13bd ebfa 1bbd 8921 62bd 32bc 02be
000001d0: a909 e0bd e75e 13be 3ecc b0bd 39f1 eabd
000001e0: 298e 89bd dfce edbd 0c41 edbd 08d0 bdbd
000001f0: 5bf1 5bbc 167c 79bd f1bf 1fbd ef41 67bd
00000200: f393 063c 42cc a23c 939e 123b 2726 673d
00000210: 3f44 0b3d bc68 01bc 9cb4 513c f1ec 673c
00000220: 451a 5a3c 185d 9c3d 5228 353d 52c9 00bd
00000230: e012 f1bc 1d8d c7bb 8ba7 8f3d 1ceb 933d
00000240: 38c9 b43d 20c3 e53d 66dc 6c3d d2d6 973d
00000250: b339 8a3c d48e 263c 1dd3 e2bc 9392 59bc
00000260: 4edd 383c ff55 ca3c 0356 a1bc 9bf9 88bd
00000270: 0eed abbd 9800 bebd 7678 b5bd 5807 89bc
00000280: 735f 43bd 3aa7 8e3c 1c7b 2f3d e6dc 5f3d
00000290: 30e5 373d c2c0 4dbc 5622 013d 80a9 ef3b
000002a0: e95b 12bd 1d2e 1abd 805c a1bc 6b23 d6bc
000002b0: b540 b73c ab59 1f3b 68cd 97bd 96c5 a9bd
000002c0: a92f bbbc fae8 21bd 3c14 c6bd 1bd7 9bbd
000002d0: 116c abbd 89cd f4bd adee a2bd 95c7 e6bd
000002e0: fb2f aabd 6293 d2bd 3660 0bbd d789 b7bd
000002f0: 8cc4 22bd 5f5c 8abd 6625 87bc c197 29bc
00000300: ae12 14bd 96b6 f4bb eb04 29bd 84b8 68bd
00000310: d415 10bd e51e 3fbd 5541 b9bc 2355 22bc
00000320: ce81 f6bc b859 adbc 42e2 813c 4a87 883d
00000330: a761 333d 4c9e c3bc ab87 66bd 5da8 b6bd
00000340: 913a 77bd 4bd5 3dbc aec6 3c3d 15d0 2abd
00000350: 1f16 69ba 0189 52bc 8fcc 013d a652 0f3c
00000360: 7095 873d 2819 fe3c 38cb bc3a 2bfc d73c
00000370: ce7b 7d3b 6bd1 98bc c00e 6c3d 2753 4b3c
00000380: 1491 db3c a11c 903c 4e7f 5dbb 4103 1c3c
00000390: 5dd5 083c 96d2 79bb 34be 49bd 257d 42bd
000003a0: 987d 3cbd c9c4 35bd 2efd 17bd 66ad d5bc
000003b0: 66b2 adbd a902 87bd 3638 99bc 3ab4 99bd
000003c0: fd18 84bd 57e9 7ebd 46c0 89bc e4ba 43bd
000003d0: 25d5 d93c 3522 c53c debd a53c 6e8d 9e3c
000003e0: 94d0 a7bc aeb8 8dbb 4f03 8a3d 8a08 b33d
000003f0: 7e22 8e3d 5944 593d 3ec1 913d 9ffa 1b3d

fc1.bias f4 [200]
-0.07184928 0.030488657 0.22384562 -0.10007304 0.06980274 0.016523356 0.21534386 -0.056315184
-0.06523282 0.1257691 0.014211005 0.15252446 -0.021109816 0.23223469 -0.04875931 0.10002073
0.16940537 0.009162099 0.0856659 -0.015127447 0.015737087 0.06194022 -0.027652772 0.20370454
0.08509932 0.019667992 0.020237904 0.058899146 0.15656346 -0.027752234 0.046111528 -0.03148293
-0.103268445 -0.029081503 0.038944967 -0.015763702 0.12829135 0.05929309 0.026472557 0.08678619
-0.022113306 0.012409981 7.394932e-05 0.00669823 0.029291522 -0.04260652 0.21068394 0.16123612
0.14119852 0.13124162 -0.10290561 -0.026752273 0.07251756 -0.13753082 0.023021398 0.004982897
-0.07421923 -0.05038781 0.01769295 0.18223223 -0.05799861 0.06496905 0.008675614 0.015588644
-0.033812277 -0.07152546 -0.0070865266 -0.07271409 -0.03475284 0.005985126 0.044711135 -0.0031833367
-0.02464315 0.0060614003 0.19695161 0.01577885 -0.024353072 0.050639767 0.15131113 0.10217364
0.02133304 0.013141498 0.02680752 0.05119917 0.030088272 -0.02011233 0.030963266 0.17280936
0.010446444 -0.0007129083 0.022358233 -0.060046896 -0.016441958 0.15562598 -0.07230348 0.2764469
-0.0054402207 0.18396103 0.09992825 0.014051029 0.07274661 0.040935967 0.0072083706 -0.049177945
0.012929153 0.048008483 0.1283625 -0.035051055 -0.10784308 -0.012713458 0.02910355 0.09030475
-0.06429966 -0.003688666 0.051741473 0.0063176597 -0.017189078 0.09780845 0.09471615 -0.047226157
-0.032043915 0.11081236 0.2798527 0.15389836 -0.030385664 -0.011656135 0.21506667 0.16404545
0.16577588 0.04767374 0.011424518 0.02359194 -0.06489878 0.11685901 0.27501976 -0.026002076
0.072460905 -0.0026530088 0.0025270134 0.19817273 0.0044765896 -0.057169832 0.13262118 0.10260438
0.19656019 -0.080835156 0.13728 -0.027931307 0.048667293 -0.0041360925 -0.062103022 0.12277945
0.17597398 0.22203304 0.050851785 0.12633695 -0.07297023 0.12153448 0.07372625 -0.0021976947
-0.044253588 -0.05873161 0.017631268 -0.022640515 -0.08754919 0.15941274 -0.10176749 0.30133164
0.23464493 -0.0779853 0.21153611 -0.028311754 0.0636874 0.05303794 0.16876318 -0.065691516
0.13493837 -0.042310666 0.06964459 0.11643209 0.1710263 -0.032347515 -0.074942596 -0.018722702
0.04395558 0.12932579 0.09390901 0.006150852 -0.011611546 0.19403145 0.003791059 0.0021052836
0.011392373 -0.07265996 -0.020938084 0.044897083 -0.00049965765 -0.025964571 -0.0057730493 0.1633274
00000000: b725 93bd 59c3 f93c c937 653e 18f3 ccbd
00000010: bdf4 8e3d fd5b 873c 1a83 5c3e c0aa 66bd
00000020: c998 85bd 9dc9 003e 46d5 683c 5f2f 1c3e
00000030: 7eee acbc eece 6d3e d8b7 47bd abd7 cc3d
00000040: 9a78 2d3e a11c 163c 9a71 af3d 1dd9 77bc
00000050: 10eb 803c 07b5 7d3d 1188 e2bc ec97 503e
00000060: 8d48 ae3d c51e a13c f6c9 a53c 3b40 713d
00000070: 2c52 203e a758 e3bc 71df 3c3d 3ff4 00bd
00000080: 687e d3bd 553c eebc c284 1f3d e122 81bc
00000090: cf5e 033e 50dd 723d fadc d83c f5bc b13d
000000a0: f726 b5bc 3c53 4b3c 3d15 9b38 d37c db3b
000000b0: c6f4 ef3c 2d84 2ebd 88bd 573e 151b 253e
000000c0: 5896 103e 3464 063e 2dc0 d2bd 9527 dbbc
000000d0: 1684 943d e1d4 0cbe 5f97 bc3c 9247 a33b
000000e0: 4000 98bd 7363 4ebd cef0 903c 169b 3a3e
000000f0: f38f 6dbd 7e0e 853d 2a24 0e3c 8367 7f3c
00000100: be7e 0abd f17b 92bd 1836 e8bb 20eb 94bd
00000110: fe58 0ebd e01e c43b 0623 373d 879f 50bb
00000120: 6ee0 c9bc b69e c63b afad 493e a642 813c
00000130: 1880 c7bc a56b 4f3d 4ef1 1a3e 6a40 d13d
00000140: a1c2 ae3c 704f 573c 729b db3c 39b6 513d
00000150: ae7b f63c 9dc2 a4bc ada6 fd3c f0f4 303e
00000160: 9027 2b3c 77e2 3aba 9d28 b73c bcf3 75bd
00000170: 49b1 86bc 6b5c 1f3e d913 94bd 738a 8d3e
00000180: e143 b2bb 4860 3c3e 2fa7 cc3d 4a36 663c
00000190: 2dfc 943d 79ac 273d 3234 ec3b d06e 49bd
000001a0: ccd4 533c 8ba4 443d 7671 033e b291 0fbd
000001b0: d5dc dcbd 1c4c 50bc 916a ee3c b2f1 b83d
000001c0: 8aaf 83bd 8cbd 71bb deee 533d 5f04 cf3b
000001d0: 1cd0 8cbc cc4f c83d 8afa c13d 3770 41bd
000001e0: 7b40 03bd 97f1 e23d da48 8f3e 8897 1d3e
000001f0: 5beb f8bc 60f9 3ebc 703a 5c3e 88fb 273e
00000200: 27c1 293e 8a45 433d e72d 3b3c e243 c13c
00000210: a7e9 84bd c753 ef3d 64cf 8c3e 4e02 d5bc
00000220: 6266 943d 1ade 2dbb 409c 253b cbed 4a3e
00000230: 5bb0 923b ea2a 6abd d9cd 073e 3f22 d23d
00000240: 1347 493e e78c a5bd 2193 0c3e 32d0 e4bc
00000250: 5b57 473d 0f88 87bb bd5f 7ebd cb73 fb3d
00000260: 8632 343e a15c 633e f649 503d 795e 013e
00000270: 6a71 95bd 12e7 f83d cafd 963d 3307 10bb
00000280: 4043 35bd 8f90 70bd 736f 903c 9a78 b9bc
00000290: fd4c b3bd 183d 233e 796b d0bd 2448 9a3e
000002a0: c346 703e c2b6 9fbd ec9c 583e 0dee e7bc
000002b0: 8a6e 823d 503e 593d 41d0 2c3e 4689 86bd
000002c0: 492d 0a3e f34d 2dbd d3a1 8e3d f373 ee3d
000002d0: 8521 2f3e d47e 04bd 817b 99bd 5a60 99bc
000002e0: c40a 343d fb6d 043e 5e53 c03d 168d c93b
000002f0: 5b3e 3ebc 2eb0 463e 6a73 783b ccf8 093b
00000300: 13a7 3a3c bfce 94bd 5886 abbc 01e6 373d
00000310: 75fb 02ba a7b3 d4bc d92b bdbb 4c3f 273e

fc2.weight f4 [100, 200]
0.049367115 0.012713866 0.06476305 -0.015972268 0.0023121708 0.009480323 0.038779423 0.04627938
-0.06309223 -0.017588632 0.027591143 0.028259248 0.035752773 -0.019238763 0.015415038 -0.015524931
0.01831636 -0.031209562 -0.036556933 -0.08106589 0.05069348 -0.02900096 0.045282044 0.014074284
-0.07015711 0.025229448 0.005244549 0.013243239 0.023491168 -0.062273096 -0.053899035 -0.06839771
-0.019643227 -0.01618261 0.014323456 0.010451025 0.035505053 -0.071150936 -0.043768566 -0.027306845
-0.014969471 -0.048839368 0.006424161 0.027077435 -0.018327644 -0.04554596 0.050239775 -0.035030305
-0.07624029 0.013254322 -0.03372323 -0.07484006 -0.07983924 -0.0140175 0.01807524 -0.029427027
0.037834324 -0.033773486 -0.06487682 -0.02787012 -0.051292 0.03639904 -0.05188001 0.023745669
0.0033267287 0.010126977 -0.067861296 0.015218246 -0.038737368 0.056170113 -0.06920479 0.016558323
0.046787504 -0.00181396 0.007763555 -0.03350476 0.044327497 0.05605967 0.021757187 -0.069941774
-0.061703827 0.04633785 -0.0535219 -0.0018295915 0.0033345986 -0.06596946 0.023998862 0.022602748
0.010333611 -0.00033045214 0.039698865 0.013085106 -0.05055726 -0.030693093 -0.044616055 -0.011202795
0.005734438 0.011574525 -0.02685095 0.012654807 0.0058429716 -0.07806098 -0.011557898 0.015912676
0.027025124 0.050201632 -0.04142874 0.0017229826 -0.03679321 -0.043323606 -0.031108657 -0.07626228
0.019415013 -0.06784722 -0.014500291 -0.07075372 0.0201889 -0.051709846 -0.03687816 -0.045678828
0.043068662 -0.029128158 -0.002974353 -0.01928637 -0.011457849 -0.017630916 0.049746525 -0.018372616
0.0062622125 -0.014838971 0.004192216 -0.016404841 0.03527977 0.056888577 -0.060829856 0.03304562
0.016718712 0.03026813 -0.019218026 -0.057248347 -0.035598803 -0.039359268 -0.019614348 -0.049207233
0.042415094 0.015835483 -0.05476097 0.011437762 -0.06509116 -0.08166837 -0.05627691 0.025398955
0.004033698 -0.017147284 -0.0100670075 -0.017906563 0.024114626 -0.04611309 0.03253211 -0.036206976
-0.05059716 0.0055009895 -0.0969784 -0.06336647 -0.034102727 0.0075904345 0.014757252 -0.004623528
-0.08689344 0.050392486 -0.06443968 0.048197053 0.050861992 0.03792297 0.050728057 0.040635604
-0.07174023 -0.0034448032 -0.05167314 -0.07442464 -0.07211893 -0.00082619576 -0.0149449445 -0.009698058
-0.05320521 0.04235685 0.018133966 -0.06385755 -0.051942877 0.020127865 -0.026714897 -0.068918884
-0.020247709 -0.07561076 0.0028538038 -0.021075396 0.0012934135 -0.010855257 0.061747786 -0.033716224
-0.18453941 0.085290365 0.16873248 -0.061084356 0.06418993 0.06004681 0.15490864 0.012125033
-0.1480072 0.12020365 -0.055306725 -0.001382289 0.03665008 0.07217607 -0.06756605 0.099809356
0.045319546 -0.036668334 0.0024028432 -0.0888495 -0.06208863 -0.074654475 -0.16295066 0.038582888
0.061790045 0.015045342 -0.035614878 -0.05561689 0.04866617 0.023725253 0.026829876 0.05262087
-0.16215222 -0.022365825 0.13046966 -0.03620912 0.091658235 0.028755033 -0.023363683 0.09517119
-0.088969536 0.06548292 0.11539075 -0.08120284 -0.002436817 0.055761985 0.07183819 0.03565814
0.06527592 0.084369406 -0.108699724 -0.12437001 0.031058177 -0.10371095 0.04286899 0.05055132
00000000: 2c35 4a3d d24d 503c 7da2 843d 46d8 82bc
00000010: ca87 173b 5b53 1b3c 2cd7 1e3d 728f 3d3d
00000020: 8036 81bd 0916 90bc d206 e23c f07f e73c
00000030: 8071 123d 9c9a 9dbc 5b8f 7c3c 485c 7ebc
00000040: 310c 963c 32ab ffbc b9bc 15bd e005 a6bd
00000050: f7a3 4f3d 6c93 edbc aa79 393d d397 663c
00000060: 88ae 8fbd fdad ce3c 77da ab3b 2cfa 583c
00000070: 8d70 c03c 1312 7fbd 3cc5 5cbd 1914 8cbd
00000080: d5ea a0bc 6591 84bc eeac 6a3c c73a 2b3c
00000090: bf6d 113d 95b7 91bd ab46 33bd 9bb2 dfbc
000000a0: 8342 75bc ca0b 48bd c581 d23b 7fd1 dd3c
000000b0: db23 96bc 678e 3abd 39c8 4d3d f07b 0fbd
000000c0: df23 9cbd a828 593c 5f21 0abd bf45 99bd
000000d0: c182 a3bd a8a9 65bc 8712 943c f310 f1bc
000000e0: 2af8 1a3d 1156 0abd 23de 84bd e14f e4bc
000000f0: 8f17 52bd 2917 153d 2280 54bd 4786 c23c
00000100: 3f05 5a3b 9feb 253c ddfa 8abd f355 793c
00000110: 13ab 1ebd a212 663d 3ebb 8dbd 52a5 873c
00000120: 41a4 3f3d 66c2 edba 6b65 fe3b 4a3c 09bd
00000130: c090 353d d39e 653d 213c b23c a23d 8fbd
00000140: 27bd 7cbd c2cc 3d3d c839 5bbd e7ce efba
00000150: 4889 5a3b ff1a 87bd 4399 c43c 6629 b93c
00000160: 4e4e 293c 8940 adb9 479b 223d ea62 563c
00000170: 2115 4fbd 1570 fbbc 53bf 36bd ee8b 37bc
00000180: f4e7 bb3b 14a3 3d3c 86f6 dbbc 1c56 4f3c
00000190: 6676 bf3b 6fde 9fbd 565d 3dbc 4d5b 823c
000001a0: cb63 dd3c 3aa0 4d3d 2fb1 29bd b4d5 e13a
000001b0: 7ab4 16bd 1874 31bd 95d7 febc 662f 9cbd
000001c0: 3c0c 9f3c 7cf3 8abd a192 6dbc 54e7 90bd
000001d0: 3163 a53c b4cd 53bd 8e0d 17bd b919 3bbd
000001e0: c468 303d 2d9e eebc 5ded 42bb 73fe 9dbc
000001f0: b4b9 3bbc b66e 90bc 03c3 4b3d 2b82 96bc
00000200: 3f33 cd3b 281f 73bc db5e 893b 7263 86bc
00000210: 8581 103d ff03 693d ba28 79bd d85a 073d
00000220: aef5 883c dff4 f73c 1f6f 9dbc 3e7d 6abd
00000230: 0dd0 11bd 2f37 21bd 45ae a0bc 868d 49bd
00000240: 73bb 2d3d 6ab9 813c 0a4d 60bd 7365 3b3c
00000250: 844e 85bd bf41 a7bd 9e82 66bd 7811 d03c
00000260: 1c2d 843b 7678 8cbc 17f0 24bc c9b0 92bc
00000270: 098c c53c 14e1 3cbd 6440 053d c44d 14bd
00000280: f83e 4fbd a541 b43b 9d9c c6bd 48c6 81bd
00000290: 4daf 0bbd 2eb9 f83b 67c8 713c f780 97bb
000002a0: 30f5 b1bd 5a68 4e3d f3f8 83bd 466a 453d
000002b0: aa54 503d 1e55 1b3d 39c8 4f3d 8571 263d
000002c0: 8bec 92bd 35c2 61bb 37a7 53bd f26b 98bd
000002d0: 17b3 93bd 0f95 58ba a4db 74bc 9ae4 1ebc
000002e0: b5ed 59bd 607e 2d3d af8d 943c bfc7 82bd
000002f0: 0ec2 54bd 31e3 a43c 33d9 dabc 5825 8dbd
00000300: 86de a5bc d0d9 9abd e206 3b3b 4fa6 acbc
00000310: c187 a93a 3fda 31bc 3feb 7c3d 061a 0abd
00000320: e6f7 3cbe b7ac ae3d 35c8 2c3e 9733 7abd
00000330: 0376 833d a5f3 753d 5fa0 1e3e 13a8 463c
00000340: 338f 17be 552d f63d 4e89 62bd ec2d b5ba
00000350: 651e 163d 0cd1 933d 1260 8abd d968 cc3d
00000360: fda0 393d 8931 16bd 0579 1d3b baf6 b5bd
00000370: a650 7ebd 72e4 98bd 8adc 26be 1709 1e3d
00000380: 8f17 7d3d bd80 763c e8e0 11bd 89ce 63bd
00000390: 2e56 473d 765b c23c 54ca db3c fb88 573d
000003a0: 3b0b 26be 8938 b7bc d799 053e 0450 14bd
000003b0: 50b7 bb3d ad8f eb3c 3265 bfbc 1de9 c23d
000003c0: a935 b6bd e91b 863d fc51 ec3d ad4d a6bd
000003d0: 01b3 1fbb ae66 643d e71f 933d 450e 123d
000003e0: 62af 853d dec9 ac3d f69d debd b4b5 febd
000003f0: b86d fe3c 6866 d4bd 6597 2f3d e70e 4f3d

fc2.bias f4 [100]
0.021617964 0.2111449 0.056207594 0.0122806495 0.029848425 0.07462055 0.11836766 -0.0480684
0.06865881 0.026953243 0.061427165 -0.072484925 0.02034059 -0.063130505 0.07895252 -0.042888246
0.097384006 0.0019413377 -0.0048444737 0.16202626 0.25103438 -0.07036862 0.012241086 0.10235644
0.08801069 -0.123069465 0.14107357 0.21571937 -0.011542992 0.13876133 0.06086801 0.061056074
0.008432459 0.13297863 0.11456509 -0.0896969 0.09751593 0.033315387 -0.033855047 0.16379888
0.17861523 0.0051090186 -0.056580376 -0.00522487 -0.093240306 -0.0020564953 0.20060089 0.05229012
-0.054610822 -0.086167276 -0.1101118 0.14399596 0.04381116 0.06110273 -0.041391835 -0.10261666
-0.0061099236 0.17001101 -0.055131644 0.22742419 0.10289544 -0.04216846 0.010991605 -0.01843375
-0.07297396 0.0062607434 0.063565515 -0.038750425 0.036166087 -0.060527727 0.059383247 0.0053575365
0.069306344 -0.022992363 0.17503217 -0.08013063 -0.0028946619 0.078386724 0.120627895 0.018602982
0.21384189 -0.08419083 0.05947388 0.0099285 0.052970875 -0.010860567 0.091108166 -0.042574883
0.10847156 -0.05154756 0.012666478 0.0830864 0.0033927383 0.006892982 -0.032300446 0.038692016
0.049998347 0.13620968 0.002621175 0.08707154
00000000: 2818 b13c 5e36 583e ef39 663d c734 493c
00000010: af84 f43c a9d2 983d be6a f23d 5fe3 44bd
00000020: fd9c 8c3d 0ccd dc3c 0d9b 7b3d fa72 94bd
00000030: 4fa1 a63c 914a 81bd dcb1 a13d 96ab 2fbd
00000040: 4471 c73d 7c74 fe3a 64be 9ebb 36ea 253e
00000050: 9487 803e 6c1d 90bd d68e 483c 41a0 d13d
00000060: f33e b43d d80b fcbd 9775 103e 8ae5 5c3e
00000070: d11e 3dbc 7317 0e3e bc50 793d ef15 7a3d
00000080: 4c28 0a3c 8d2b 083e 1aa1 ea3d 02b3 b7bd
00000090: 6fb6 c73d b775 083d 97ab 0abd e5ba 273e
000000a0: e9e6 363e 8e69 a73b d3c0 67bd 6335 abbb
000000b0: c6f4 bebd 44c6 06bb 526a 4d3e 2a2e 563d
000000c0: 99af 5fbd 7878 b0bd 4c82 e1bd ad73 133e
000000d0: 5573 333d db46 7a3d 7c8a 29bd af28 d2bd
000000e0: c135 c8bb 5e17 2e3e b8d1 61bd e3e1 683e
000000f0: d8ba d23d d6b8 2cbd 2216 343c 6002 97bc
00000100: 5f73 95bd ec26 cd3b a32e 823d c4b8 1ebd
00000110: e422 143d eceb 77bd d93b 733d 468e af3b
00000120: 7cf0 8d3d 7b5a bcbc a23b 333e 871b a4bd
00000130: 5eb4 3dbb 3889 a03d c20b f73d 4865 983c
00000140: 5ef9 5a3e 3e6c acbd e29a 733d 26ab 223c
00000150: fdf7 583d 85f0 31bc eb96 ba3d 0063 2ebd
00000160: 5626 de3d 8923 53bd 0f87 4f3c 3429 aa3d
00000170: b458 5e3b 86de e13b 794d 04bd 857b 1e3d
00000180: 11cb 4c3d 8d7a 0b3e 05c8 2b3b 9052 b23d

fc3.weight f4 [14, 100]
0.028757583 0.07544446 0.018661369 0.119339265 -0.13319372 -0.061528187 0.0072393846 0.053768314
0.08997941 0.046011224 0.015770627 -0.057071693 0.014084877 0.016365785 -0.07558943 -0.22532527
-0.12269865 0.11132836 0.05621223 -0.06794782 -0.09493343 0.059213366 -0.018873269 -0.15556002
-0.02727063 -0.3069044 0.033848997 0.04625382 -0.0033023458 0.054840032 -0.08709886 0.050467912
0.08656532 0.13208367 0.029670713 0.015929908 0.020656753 0.033790346 -0.044376593 -0.06662761
-0.09730836 -0.112728804 -0.042863026 0.04856277 0.04555421 0.0015548101 0.06946931 0.036423627
0.015093483 -0.0630748 -0.041050117 0.011240135 -0.10950054 -0.008962714 -0.021883521 0.072513
-0.115531705 -0.020505872 0.027168788 0.049600825 0.0759132 0.15125658 0.050838124 0.06624827
0.011520625 -0.0037864887 -0.06259577 0.0031668064 0.12205451 0.04733364 -0.014576437 0.13662852
0.11548763 -0.06505063 -0.049493603 0.026607882 0.05176462 -0.038710687 -0.09027937 0.19475862
-0.17872423 -0.048846226 0.17598851 -0.10287322 0.05362692 -0.004502838 -0.1139563 -0.069659926
-0.19479951 -0.028093645 0.026140243 -0.065114655 0.03499825 -0.07969331 -0.095228344 -0.056748223
-0.017587285 -0.099847294 -0.17968872 -0.03125381 0.0006996418 0.054375686 -0.06242247 0.15672892
-0.11349271 -0.008665536 0.024641698 -0.09723228 0.26066467 -0.036057286 -0.06082109 -0.009522913
-0.073463365 -0.028209988 -0.34235972 0.03018656 -0.0076709334 -0.05078691 -0.06655353 -0.020307878
0.06426606 -0.054183695 -0.06837123 0.03066233 0.03431642 0.042804234 0.06366498 -0.013965079
-0.049746156 -0.12483906 -0.077180155 0.02276414 0.06970045 0.13068171 0.052057102 0.024858898
0.06503967 -0.05891244 -0.10334547 0.027898956 -0.04999162 -0.06122757 0.05593119 -0.11187964
-0.028848423 0.28494993 0.07545982 0.16043442 0.013881219 -0.04373393 0.10598192 0.071268775
0.007924447 0.21090867 0.06824769 0.04442079 -0.20927852 0.12968934 -0.09088793 -0.02607418
0.03796765 0.1292504 0.077243514 -0.07780599 0.12616213 0.033554032 -0.019828474 -0.029288271
-0.043195534 -0.20372686 -0.20732033 0.100863084 -0.12112359 -0.08865022 -0.026210554 -0.0077548367
-0.048728827 -0.12298174 0.14085726 -0.055198926 0.10671936 -0.00964172 0.014763201 -0.027344499
0.00031590502 -0.000510174 0.1089136 -0.019484773 0.14544354 -0.08059268 -0.0039273417 -0.04595108
-0.046321526 -0.105448075 0.057302758 -0.060185164 0.06720414 0.17445394 -0.05946427 -0.015437785
-0.050123215 -0.0451674 -0.046109557 0.012477324 0.003774163 -0.03875803 -0.059935726 -0.01901277
-0.11595663 0.103051946 -0.09666324 0.09312867 -0.027152838 0.03832446 0.31281137 0.01801735
-0.008394013 0.03974309 0.040594712 -0.033558283 -0.1038401 0.10276991 -0.10003452 -0.13822228
0.039686486 0.17413399 -0.03540833 -0.061974477 0.078852646 -0.088062435 0.085409455 -0.09514136
0.08482744 -0.15877852 -0.04260932 0.013090423 -0.06547587 0.09181898 0.044872154 -0.14768064
-0.029262152 0.032665804 -0.0036825726 -0.111930825 0.12687775 0.04364969 -0.05035229 0.10773629
-0.029496256 0.06405206 0.036423597 0.06943385 -0.007996656 0.0789742 -0.06482115 0.11287294
00000000: 0695 eb3c a082 9a3d badf 983c 2568 f43d
00000010: ef63 08be fb04 7cbd 5c38 ed3b 2a3c 5c3d
00000020: 2047 b83d 4476 3c3d 6731 813c 02c4 69bd
00000030: 42c4 663c 8a11 863c a2ce 9abd abbb 66be
00000040: 6e49 fbbd 2000 e43d cc3e 663d 3a28 8bbd
00000050: 756c c2bd b789 723d 1d9c 9abc 204b 1fbe
00000060: a866 dfbc 9322 9dbe 3fa5 0a3d a574 3d3d
00000070: 2b6c 58bb f19f 603d e360 b2bd 71b7 4e3d
00000080: 2949 b13d f140 073e ff0f f33c 707f 823c
00000090: 5a38 a93c bf67 0a3d 3bc4 35bd 0e74 88bd
000000a0: 9b49 c7bd 5cde e6bd 2491 2fbd c1e9 463d
000000b0: 0d97 3a3d c5ca cb3a ed45 8e3d f130 153d
000000c0: a84a 773c 5c2d 81bd 2b24 28bd 8b28 383c
000000d0: d241 e0bd 59d8 12bc 1245 b3bc b281 943d
000000e0: e39b ecbd eefb a7bc 1491 de3c 3c2a 4b3d
000000f0: 6178 9b3d 01e3 1a3e a33b 503d 2cad 873d
00000100: 01c1 3c3c bd26 78bb 3632 80bd 328a 4f3b
00000110: b7f7 f93d ebe0 413d 02d2 6ebc 59e8 0b3e
00000120: c784 ec3d 4439 85bd ceb9 4abd c6f8 d93c
00000130: 2307 543d 198f 1ebd 64e4 b8bd ce6e 473e
00000140: 7c03 37be fb12 48bd 5536 343e 32af d2bd
00000150: e7a7 5b3d 8b8c 93bb ec61 e9bd dda9 8ebd
00000160: 8679 47be a524 e6bc 1024 d63c d55a 85bd
00000170: 535a 0f3d 3f36 a3bd 1407 c3bd d370 68bd
00000180: 3613 90bc bd7c ccbd 5200 38be ff03 00bd
00000190: 2b68 373a 0ab9 5e3d b4ae 7fbd 8c7d 203e
000001a0: de6e e8bd e4f9 0dbc 63dd c93c b821 c7bd
000001b0: d775 853e ceb0 13bd 891f 79bd fe05 1cbc
000001c0: f673 96bd a218 e7bc c649 afbe ce49 f73c
000001d0: 745c fbbb ef05 50bd 384d 88bd b55c a6bc
000001e0: ed9d 833d b9ef 5dbd 3706 8cbd 912f fb3c
000001f0: 608f 0c3d 7e53 2f3d c962 823d c9cd 64bc
00000200: a0c2 4bbd 9fab ffbd a110 9ebd dd7b ba3c
00000210: 1cbf 8e3d 6dd1 053e d439 553d e3a4 cb3c
00000220: 8533 853d 2c4e 71bd caa6 d3bd 5a8c e43c
00000230: 03c4 4cbd c3c9 7abd 1a18 653d 2721 e5bd
00000240: 8753 ecbc f5e4 913e ae8a 9a3d ec48 243e
00000250: 0d6e 633c 5922 33bd 0d0d d93d 5df5 913d
00000260: 8ad5 013c 71f8 573e 72c5 8b3d 93f2 353d
00000270: 1c4d 56be 48cd 043e 7323 babd 8599 d5bc
00000280: f783 1b3d 385a 043e d931 9e3d bf58 9fbd
00000290: a530 013e f46f 093d 536f a2bc f5ed efbc
000002a0: cded 30bd c69d 50be c84b 54be 4e91 ce3d
000002b0: a50f f8bd 3f8e b5bd 84b7 d6bc 491c febb
000002c0: e197 47bd dadd fbbd e33c 103e 4518 62bd
000002d0: ae8f da3d 4ef8 1dbc 5ae1 713c 9201 e0bc
000002e0: 0ea0 a539 33bd 05ba 180e df3d 889e 9fbc
000002f0: 27ef 143e c60d a5bd eeb0 80bb 3337 3cbd
00000300: a4bb 3dbd 29f5 d7bd 4cb6 6a3d b884 76bd
00000310: 53a2 893d 0ea4 323e ce90 73bd c3ee 7cbc
00000320: 004e 4dbd 7401 39bd 60dd 3cbd b16d 4c3c
00000330: f357 773b bdc0 1ebd 2a7f 75bd abc0 9bbc
00000340: ab7a edbd e60c d33d 60f7 c5bd 3eba be3d
00000350: a16f debc 1cfa 1c3d d028 a03e 1f99 933c
00000360: 0b87 09bc a6c9 223d a446 263d 6974 09bd
00000370: 1eaa d4bd 0879 d23d e6de ccbd 248a 0dbe
00000380: 4c8e 223d 2e50 323e 5308 11bd f3d8 7dbd
00000390: 7f7d a13d 145a b4bd 27eb ae3d 79d9 c2bd
000003a0: 02ba ad3d d696 22be 1c87 2ebd 3779 563c
000003b0: 3718 86bd 970b bc3d ddcb 373d 9839 17be
000003c0: 2eb7 efbc 94cc 053d 5157 71bb fd3b e5bd
000003d0: 3eec 013e 04ca 323d 343e 4ebd d8a4 dc3d
000003e0: 22a2 f1bc ba2d 833d e930 153d 5633 8e3d
000003f0: 6804 03bc 3abd a13d f3c0 84bd ee29 e73d

fc3.bias f4 [14]
-0.15528592 0.13787355 -0.096197 0.09258394 -0.10589889 0.15397027 -0.12696813 -0.08518994
-0.014538663 -0.063042544 -0.16790901 -0.1357759 -0.055830643 -0.031266987
00000000: 4603 1fbe b92e 0d3e ef02 c5bd a69c bd3d
00000010: 84e1 d8bd 62aa 1d3e ef03 02be 1078 aebd
00000020: 9333 6ebc 731c 81bd 57f0 2bbe d608 0bbe
00000030: acae 64bd d011 00bd
